BackCNN_deep_best_weights.pth (torch, 879274 bytes, 34 tensors)

conv1.0.weight f4 [3]
0.93409836 0.9296237 0.9095156
00000000: 1221 6f3f d2fb 6d3f 04d6 683f

conv1.0.bias f4 [3]
0.13743283 0.33299783 0.25118306
00000000: 31bb 0c3e b17e aa3e 119b 803e

conv1.0.running_mean f4 [3]
0.20181309 0.22595698 0.20593452
00000000: 17a8 4e3e 4461 673e 80e0 523e

conv1.0.running_var f4 [3]
0.05965426 0.049729172 0.039046727
00000000: 0658 743d d1b0 4b3d 76ef 1f3d

conv1.1.weight f4 [20, 3, 7, 7]
0.13328199 0.17567043 -0.053628337 0.2832464 0.22356267 0.14652257 -0.07420637 0.11924152
0.23717916 -0.0844608 0.23633952 0.20724717 0.25764287 -0.05417218 0.1116462 -0.020597398
0.10170922 0.059417438 -0.033338945 0.10563536 0.24468784 -0.13869028 0.05293254 -0.037900697
0.15479186 0.080164604 -0.09856286 -0.0922571 0.0057468344 0.17142479 0.2168427 -0.06127772
-0.101529054 0.23052531 0.118812114 -0.008825258 -0.07035424 -0.054188777 0.100219525 0.05941452
-0.15758091 0.21835941 -0.14605147 0.043009542 -0.06994903 0.046933025 -0.16607596 -0.0954455
0.014708507 -0.17029996 0.025802746 -0.17439225 -0.24497806 -0.024857938 -0.1236114 -0.009538955
0.051449955 -0.106576145 -0.10430632 -0.100803204 -0.05044177 -0.045665126 -0.103120856 -0.17166892
-0.12442221 -0.22853096 -0.24050744 -0.039479375 -0.25764388 -0.11532961 0.040034223 -0.14324552
-0.008599695 -0.074215434 0.029927645 -0.056806788 -0.21042134 0.087864175 -0.056170892 -0.11013054
-0.024377909 -0.087825015 -0.031195037 0.11529179 0.11715071 -0.18715529 0.09023097 0.010257032
-0.051107213 -0.12729895 -0.15663886 0.11084527 -0.16368671 0.13210914 0.07942859 0.12939882
-0.09884246 0.02647223 -0.17020193 0.19223322 -0.023710083 0.1262684 0.058910944 0.15639766
0.111191645 0.034340832 0.030588679 0.12489646 0.14680423 0.12566437 0.12251994 -0.14971338
0.002916693 0.08908993 0.06731542 -0.027125733 0.119205914 -0.11679754 -0.049387828 0.009038759
0.11517434 0.07644438 -0.10428865 0.062238842 0.19257596 -0.08852021 -0.026214384 -0.0013897596
-0.03493622 0.047858845 0.12202974 -0.0073807137 -0.0063660587 0.032223407 -0.20082107 0.17983966
-0.013463806 0.027790712 -0.053861566 -0.11064153 -0.205359 0.05094986 -0.21112998 -0.053647988
0.0044349483 -0.1966256 0.08623315 0.19794767 0.03154054 0.20511414 0.12234851 -0.058960125
0.13814895 -0.0053649936 0.15011871 0.09082568 -0.11164821 0.05926346 0.06267132 -0.08053044
0.18803638 -0.11002911 0.014879092 -0.04444772 -0.09356515 -0.005083528 -0.035097733 -0.08444861
0.18376306 -0.005560628 -0.09062504 -0.13572045 -0.053437367 -0.1707426 0.06566929 0.066385895
-0.028114285 0.12336935 0.0044399635 -0.20435616 -0.1729242 0.20107482 -0.04688531 0.14603297
0.1645058 0.021490777 -0.10004634 0.108695656 -0.029321913 -0.10728788 -0.080815144 -0.023968576
-0.015890311 -0.043031983 0.100998305 0.015042183 0.053643446 0.12933494 0.06705804 0.057238635
-0.017294241 0.16636686 -0.0505805 -0.11277015 0.016904335 -0.062473536 0.0892775 -0.0903358
0.11975602 0.062218335 -0.14122118 -0.021357324 -0.08362957 -0.16910914 0.016523179 -0.04192965
0.015607317 0.032739725 0.1185684 0.07682129 -0.04305559 0.12237885 0.23186082 -0.098959506
-0.14195144 -0.15791786 0.011447247 0.014951612 0.26190978 0.2015154 -0.0013846201 -0.118569784
-0.058303412 -0.0659125 0.18776631 -0.035248756 0.22787905 -0.08643747 0.15122007 0.14143473
0.101837404 -0.14124618 -0.10918612 -0.06728991 0.015610028 -0.15323418 0.06384146 0.056445576
0.14331424 -0.045242976 0.09613479 -0.14339955 0.010736634 -0.08726943 -0.1661186 -0.1838418
00000000: 137b 083e f3e2 333e 63a9 5bbd ac05 913e
00000010: 9ded 643e 030a 163e 82f9 97bd e634 f43d
00000020: 18df 723e c9f9 acbd fd02 723e 9a38 543e
00000030: c4e9 833e a6e3 5dbd c3a6 e43d e0bb a8bc
00000040: ec4c d03d b35f 733d 6b8e 08bd 5a57 d83d
00000050: 738f 7a3e d304 0ebe cbcf 583d c33d 1bbd
00000060: c281 1e3e 572d a43d 53db c9bd 4af1 bcbd
00000070: f14f bc3b fb89 2f3e 030c 5e3e 59fe 7abd
00000080: 77ee cfbd d40e 6c3e c453 f33d d197 10bc
00000090: e215 90bd 0df5 5dbd e53f cd3d a45c 733d
000000a0: e45c 21be 9c99 5f3e 848e 15be c62a 303d
000000b0: 7041 8fbd d83c 403d d10f 2abe ee78 c3bd
000000c0: f3fb 703c 1d63 2ebe 4860 d33c e293 32be
000000d0: 87db 7abe e0a2 cbbc f927 fdbd 4749 1cbc
000000e0: 30bd 523d 9844 dabd 8d9e d5bd e971 cebd
000000f0: 089c 4ebd 5b0b 3bbd 0731 d3bd fac9 2fbe
00000100: 12d1 febd 0504 6abe 9547 76be 20b5 21bd
00000110: e6e9 83be ee31 ecbd edfa 233d f4ae 12be
00000120: bce5 0cbc 43fe 97bd d22a f53c 3cae 68bd
00000130: b178 57be 22f2 b33d 7313 66bd 1f8c e1bd
00000140: 2eb4 c7bc 9add b3bd bc8c ffbc 1a1e ec3d
00000150: b6ec ef3d a3a5 3fbe 04cb b83d 1c0d 283c
00000160: cc55 51bd a85a 02be f065 20be d802 e33d
00000170: 7d9d 27be 9e47 073e 75ab a23d 2081 043e
00000180: ea6d cabd 4adc d83c 6a49 2ebe c9d8 443e
00000190: a63b c2bc 814c 013e 9a4c 713d b526 203e
000001a0: 72b8 e33d f9a8 0c3d 1c95 fa3c b7c9 ff3d
000001b0: d953 163e 29ae 003e bceb fa3d 774e 19be
000001c0: fd25 3f3b c874 b63d abdc 893d c936 debc
000001d0: 3b22 f43d 8c33 efbd e44a 4abd 4e17 143c
000001e0: 86e0 eb3d df8e 9c3d 4a95 d5bd 28ee 7e3d
000001f0: a232 453e 154a b5bd 8cbf d6bc 9828 b6ba
00000200: 4819 0fbd a307 443d baea f93d ead9 f1bb
00000210: 5f9a d0bb b1fc 033d 0aa4 4dbe e327 383e
00000220: 4c97 5cbc 59a9 e33c f29d 5cbd 0798 e2bd
00000230: a149 52be cdb0 503d 7532 58be febd 5bbd
00000240: 0b53 913b 3958 49be 019b b03d cbb2 4a3e
00000250: a730 013d 7109 523e db91 fa3d 2c80 71bd
00000260: eb76 0d3e d4cc afbb b8b8 193e d002 ba3d
00000270: d1a7 e4bd 3ebe 723d d259 803d 25ed a4bd
00000280: 9c8c 403e f156 e1bd 6fc7 733c d00e 36bd
00000290: 169f bfbd b993 a6bb a4c2 0fbd 65f3 acbd
000002a0: 622c 3c3e ee35 b6bb 9f99 b9bd 4dfa 0abe
000002b0: 24e1 5abd 26d7 2ebe 9f7d 863d 54f5 873d
000002c0: ee4f e6bc 12a9 fc3d 1d7d 913b be42 51be
000002d0: 0b13 31be 8fe6 4d3e d00a 40bd ab89 153e
000002e0: 3574 283e 6d0d b03c 18e5 ccbd d49b de3d
000002f0: 8234 f0bc bfb9 dbbd 6982 a5bd bf59 c4bc
00000300: 662c 82bc 4e42 30bd 33d8 ce3d 7d73 763c
00000310: 3bb9 5b3d 6170 043e ba55 893d 0f73 6a3d
00000320: a7ac 8dbc 135c 2a3e 802d 4fbd 09f4 e6bd
00000330: f67a 8a3c 40e4 7fbd 1fd7 b63d fa01 b9bd
00000340: a542 f53d a7d8 7e3d 499c 10be 8ef5 aebc
00000350: fb45 abbd f22a 2dbe 9e5b 873c 6dbe 2bbd
00000360: d5b5 7f3c 171a 063d fdd3 f23d 7b54 9d3d
00000370: 0f5b 30bd c3a1 fa3d ec6c 6d3e 48ab cabd
00000380: b85b 11be 38b5 21be 3c8d 3b3c 9bf7 743c
00000390: 0a19 863e 0e5a 4e3e 247c b5ba b7d4 f2bd
000003a0: 8fcf 6ebd 22fd 86bd d045 403e 0061 10bd
000003b0: 2059 693e 2106 b1bd 6fd9 1a3e 44d4 103e
000003c0: 2190 d03d d7a2 10be f99c dfbd 4bcf 89bd
000003d0: 34c1 7f3c 6ce9 1cbe 50bf 823d 7a33 673d
000003e0: f8c0 123e b350 39bd 51e2 c43d 55d7 12be
000003f0: b5e8 2f3c 51ba b2bd ff1a 2abe 0641 3cbe

conv1.4.weight f4 [20]
0.93195015 0.8702228 0.9156924 0.8821635 0.84336656 0.9357689 0.9341979 0.88035154
0.9126443 0.9461831 0.9125012 0.90883434 0.9665267 1.016335 0.9392775 0.92779005
0.91798025 0.75764024 0.9957143 0.91734016
00000000: 4994 6e3f ecc6 5e3f d16a 6a3f 78d5 613f
00000010: dfe6 573f 8d8e 6f3f 9827 6f3f b85e 613f
00000020: 0fa3 693f 0e39 723f ae99 693f 5ea9 683f
00000030: 4b6e 773f 4417 823f 7e74 703f a683 6d3f
00000040: c100 6b3f b6f4 413f 22e7 7e3f ced6 6a3f

conv1.4.bias f4 [20]
0.14112 -0.17213415 -0.35441998 -0.42206082 -0.22415991 0.16120237 0.1010911 0.026406772
0.23555815 0.08841835 0.2268496 0.21231546 -0.06965159 0.26347607 -0.03737114 0.10776774
0.03331108 -0.5154204 -0.38645488 -0.13726404
00000000: c381 103e ef43 30be 8976 b5be 5b18 d8be
00000010: 2d8a 65be 3c12 253e da08 cf3d 0453 d83c
00000020: 2836 713e ae14 b53d 434b 683e 3969 593e
00000030: 7ea5 8ebd 56e6 863e 7b12 19bd 55b5 dc3d
00000040: 3371 083d 97f2 03bf 6add c5be f28e 0cbe

conv1.4.running_mean f4 [20]
0.09401456 0.12184497 0.35495824 0.048688285 0.16304255 0.1497805 0.16564201 0.12064635
0.23087017 -0.010162486 0.13658027 0.06470559 0.116902135 0.3897429 0.27090263 0.51931006
0.2764793 0.1259505 0.28821638 0.12263449
00000000: b58a c03d db89 f93d 16bd b53e 5e6d 473d
00000010: a0f4 263e 0f60 193e 0f9e 293e 6f15 f73d
00000020: 3b69 6c3e 8e80 26bc b3db 0b3e 5d84 843d
00000030: 636a ef3d 628c c73e c0b3 8a3e 81f1 043f
00000040: b28e 8d3e 2bf9 003e 1991 933e cb27 fb3d

conv1.4.running_var f4 [20]
0.51069117 0.19001982 0.2543849 0.10267027 0.34472552 0.27561164 0.28278702 0.27589777
0.29195848 0.14079669 0.29992166 0.35075623 0.5109286 0.95083475 1.4607596 0.7782059
0.39799392 0.26807925 0.2217091 0.25075513
00000000: a8bc 023f 8e94 423e bd3e 823e ca44 d23d
00000010: dd7f b03e f81c 8d3e 76c9 903e 7942 8d3e
00000020: 957b 953e 022d 103e 558f 993e 5296 b33e
00000030: 37cc 023f e869 733f 2cfa ba3f 8038 473f
00000040: dcc5 cb3e af41 893e b607 633e fa62 803e

conv2.0.weight f4 [40, 20, 7, 7]
0.004088588 0.04328039 0.033795204 -0.026976326 -0.022931077 -0.013423158 -0.025139853 -0.0029523799
0.02016354 0.0019369118 -0.053919222 -0.020036224 -0.104944624 -0.037153527 -0.046163008 -0.052725315
-0.04456976 0.017289361 0.028410334 0.070811465 -0.03133281 0.060674213 -0.0075811334 0.07670932
0.054229885 0.013737946 0.03024 0.013131261 0.05530512 0.059761845 0.006639089 -0.058691937
0.027087865 0.014784613 -0.03085941 0.026670458 -0.011303584 0.03834685 -0.01517547 -0.06841556
-0.0034034112 -0.03218527 -0.06789568 0.017776178 -0.083552636 -0.08247717 -0.08023761 -0.13418926
-0.10208145 0.00057497644 0.003041873 0.0078013088 -0.03162757 -0.052565064 -0.013783342 -0.10225217
-0.018977134 0.01962351 -0.011814692 -0.014068332 -0.022881575 -0.10703726 0.021421187 -0.026076388
-0.05242894 -0.06407116 -0.041197196 -0.010055907 0.02895727 0.03825748 -0.030130073 0.040464047
0.014999508 -0.041878268 0.00075757917 -0.016156662 -0.02405723 0.0013477118 -0.04185514 0.030978587
0.07541053 0.029674312 -0.029140033 0.011219736 0.020828487 -0.06153835 0.066433705 -0.049527567
0.046938248 -0.0033461882 -0.029800022 -0.06316275 0.028832994 0.06457782 0.03512569 0.06883963
-0.05275404 0.051828824 -0.11963918 -0.031105569 -0.023413626 -0.04306463 0.081118435 0.04410571
-0.019156527 -0.09015387 -0.023289315 -0.044960916 0.065552294 0.018905262 0.1349271 0.020683859
-0.07975998 0.026884004 -0.010334324 0.019888137 0.12791203 0.15570952 0.008315026 -0.06893191
-0.08277227 0.021084918 0.06510503 0.0024686023 0.01623173 0.03200749 -0.023287345 -0.023085307
0.060868543 -0.010045441 0.11660219 0.051438928 0.08622706 -0.11461525 -0.049372062 0.035929065
-0.047773857 0.015257932 -0.03658085 -0.0082347775 -0.10936385 -0.09714074 -0.10457264 0.030773217
-0.007637442 0.020480413 -0.07072581 -0.08276433 -0.03620016 0.06218906 -0.05158597 0.03965244
0.07415183 0.0031271968 -0.0058692456 -0.048826568 0.043701243 0.05591819 0.042082734 0.05220961
0.119141705 -0.032817043 -0.07517372 0.082863204 0.05899699 0.08957071 0.14396974 0.068967015
-0.017913863 -0.00026586757 0.08982231 0.11999732 0.067622244 0.18385203 0.16187574 0.033747103
-0.07748948 0.08697145 0.08658537 0.11230467 0.19372173 0.15289406 0.047733434 0.075558364
0.028565174 0.10542526 0.09111818 0.12868865 0.15799698 0.06303879 -0.060931526 0.08685089
-0.0057465616 0.06907042 0.12222455 0.119006924 -0.08992099 -0.036828004 0.00658042 -0.07847569
-0.059782274 -0.03126843 -0.11354047 -0.0018809654 -0.023556463 -0.0599336 0.030340627 -0.012561507
-0.06524563 -0.045464534 0.02597136 -0.075147666 -0.029012937 -0.07903167 0.03764765 -0.0014505653
0.021581644 -0.06289478 0.04095072 0.037111185 0.03819513 -0.033033248 0.051964555 0.049855694
0.0228497 -0.045524072 0.021954883 -0.0364671 0.026227714 0.038557373 -0.003792185 -0.010661061
0.013731764 0.056007255 0.09555022 0.034325052 -0.007559857 0.082078435 0.0555416 0.05689392
0.025663093 0.0114964 -0.027567904 0.026362713 0.08550706 0.026785936 -0.08348682 -0.046460498
-0.008461163 0.007992766 -0.023404928 -0.09080637 -0.005196541 -0.07937306 0.05526516 -0.0038554359
00000000: 90f9 853b c746 313d d76c 0a3d 75fd dcbc
00000010: f4d9 bbbc ceec 5bbc 18f2 cdbc b77c 41bb
00000020: 022e a53c fadf fd3a 67da 5cbd 0223 a4bc
00000030: 35ed d6bd 4c2e 18bd 6c15 3dbd 80f6 57bd
00000040: c88e 36bd 6ba2 8d3c cabc e83c 9a05 913d
00000050: d556 00bd 8685 783d 286b f8bb c719 9d3d
00000060: 2820 5e3d 1f15 613c e0b9 f73c 8024 573c
00000070: 9f87 623d d6c8 743d b78c d93b f566 70bd
00000080: 5fe7 dd3c 293b 723c e0cc fcbc 017c da3c
00000090: ab32 39bc 9611 1d3d 89a2 78bc 751d 8cbd
000000a0: c40b 5fbb b4d4 03bd e40c 8bbd 599f 913c
000000b0: a51d abbd cae9 a8bd 9e53 a4bd e968 09be
000000c0: 1410 d1bd 04ba 163a 295a 473b 1fa2 ff3b
000000d0: e98b 01bd 774e 57bd 87d3 61bc 9669 d1bd
000000e0: ef75 9bbc 7cc1 a03c 6992 41bc dc7e 66bc
000000f0: 2472 bbbc 5a36 dbbd 7c7b af3c 269e d5bc
00000100: babf 56bd be37 83bd 64be 28bd 88c1 24bc
00000110: cc37 ed3c e0b3 1c3d 58d3 f6bc a1bd 253d
00000120: 7fc0 753c 8c88 2bbd 4798 463a fa5a 84bc
00000130: ab13 c5bc b4a5 b03a 4c70 2bbd cec6 fd3c
00000140: d670 9a3d 8b17 f33c 14b7 eebc fcd2 373c
00000150: 81a0 aa3c a30f 7cbd 650e 883d 6bdd 4abd
00000160: 5242 403d b94b 5bbb 2d1f f4bc 795b 81bd
00000170: 2c33 ec3c 6041 843d f5df 0f3d cbfb 8c3d
00000180: 9f14 58bd 764a 543d 6305 f5bd 1bd1 febc
00000190: efcd bfbc 8a64 30bd 6c21 a63d 30a8 343d
000001a0: 26ee 9cbc 98a2 b8bd 3cc9 bebc f028 38bd
000001b0: 4840 863d 35df 9a3c 542a 0a3e 3271 a93c
000001c0: 3359 a3bd d83b dc3c 4c51 29bc 72ec a23c
000001d0: 5ffb 023e 5172 1f3e bf3b 083c 2c2c 8dbd
000001e0: 8284 a9bd 47ba ac3c c955 853d 46c8 213b
000001f0: 68f8 843c 491a 033d 1ac5 bebc 661d bdbc
00000200: 4b51 793d a295 24bc 21cd ee3d a0b1 523d
00000210: d097 b03d 66bb eabd 5c3a 4abd 5b2a 133d
00000220: 85ae 43bd 68fc 793c cdd5 15bd 29eb 06bc
00000230: 27fa dfbd b9f1 c6bd 2e2a d6bd 1d18 fc3c
00000240: 8243 fabb 8ac6 a73c b2d8 90bd 5880 a9bd
00000250: 9e46 14bd f5b9 7e3d cf4b 53bd 996a 223d
00000260: eadc 973d a8f1 4c3b cd52 c0bb 5efe 47bd
00000270: 1300 333d 790a 653d f25e 2c3d bed9 553d
00000280: 9100 f43d 2a6b 06bd aef4 99bd 2fb4 a93d
00000290: d4a6 713d d970 b73d ce6c 133e 943e 8d3d
000002a0: 18c0 92bc 2464 8bb9 c2f4 b73d 28c1 f53d
000002b0: 887d 8a3d b543 3c3e c1c2 253e 673a 0a3d
000002c0: ceb2 9ebd 161e b23d ac53 b13d feff e53d
000002d0: fd5e 463e 4390 1c3e 2284 433d 58be 9a3d
000002e0: 8301 ea3c 33e9 d73d 2b9c ba3d f5c6 033e
000002f0: f6c9 213e 7b1a 813d 5693 79bd e1de b13d
00000300: a74d bcbb cb74 8d3d dd50 fa3d e7b9 f33d
00000310: 7f28 b8bd f6d8 16bd 90a0 d73b ddb7 a0bd
00000320: 42de 74bd 5313 00bd e887 e8bd ba8a f6ba
00000330: 7cf9 c0bc ef7c 75bd e88c f83c c7ce 4dbc
00000340: 809f 85bd 0539 3abd e4c1 d43c 05e7 99bd
00000350: 8aac edbc 5bdb a1bd 6c34 1a3d e520 beba
00000360: fdcb b03c face 80bd f1bb 273d e601 183d
00000370: 7f72 1c3d df4d 07bd c9d8 543d 7c35 4c3d
00000380: 4b2f bb3c 7377 3abd bada b33c 875e 15bd
00000390: 81db d63c 56ee 1d3d 4f86 78bb bbab 2ebc
000003a0: 31fb 603c dd67 653d d5af c33d 6d98 0c3d
000003b0: adb8 f7bb bd18 a83d 977f 633d 9909 693d
000003c0: 683b d23c 665b 3c3c 16d6 e1bc 9ef6 d73c
000003d0: 531e af3d 2e6e db3c 23fb aabd 5d4d 3ebd
000003e0: b1a0 0abc 17f4 023c b1bb bfbc b1f8 b9bd
000003f0: bf47 aabb 588e a2bd b85d 623d 7bab 7cbb

conv2.3.weight f4 [40]
0.9773195 0.99020505 0.9772287 0.99726933 0.8589004 0.9616992 0.90457976 0.90377486
0.99899286 0.93157965 0.98796177 0.90576845 0.92235285 0.88066846 1.0049337 0.9847312
0.97648436 0.9395955 0.9566976 0.88117534 0.80307037 0.9768512 0.8232627 0.9517789
0.93257314 0.91722727 0.9945289 0.9374411 0.9294428 1.0103614 0.96454877 0.874154
0.9896859 0.94828063 0.88367116 0.9832795 0.960615 0.95657605 0.952324 1.0165317
00000000: 9c31 7a3f 147e 7d3f a92b 7a3f 0b4d 7f3f
00000010: e6e0 5b3f eb31 763f 8a92 673f ca5d 673f
00000020: ffbd 7f3f 017c 6e3f 10eb 7c3f 71e0 673f
00000030: 511f 6c3f 7d73 613f aba1 803f 5817 7c3f
00000040: e1fa 793f 5589 703f 22ea 743f b594 613f
00000050: 0596 4d3f ec12 7a3f 58c1 523f c8a7 733f
00000060: 1dbd 6e3f 68cf 6a3f 7299 7e3f 24fc 6f3f
00000070: f7ef 6d3f 8653 813f abec 763f 8ec8 5f3f
00000080: 0e5c 7d3f 85c2 723f 4638 623f 35b8 7b3f
00000090: ddea 753f 2be2 743f 81cb 733f b61d 823f

conv2.3.bias f4 [40]
0.23861115 0.028252073 -0.10085751 -0.07565394 0.16385879 0.14105557 -0.03185669 0.14161119
-0.030432737 0.028828582 0.037535302 0.0726209 -0.015734775 -0.28911453 0.09977683 -0.049675707
0.1635296 0.28760776 -0.23979416 0.048868444 0.06510462 -0.0069969706 -0.18345986 0.017625136
-0.16639954 -0.0729471 -0.037072234 0.2528657 0.14334522 0.11450063 0.049481843 0.063871704
0.015274832 0.26213267 -0.31458277 0.06798044 0.29738986 -0.114723355 0.17097348 0.12416445
00000000: 7b56 743e e470 e73c 628e cebd 74f0 9abd
00000010: 99ca 273e df70 103e 297c 02bd 8602 113e
00000020: 134e f9bc eb29 ec3c 9ebe 193d 44ba 943d
00000030: 37e6 80bc d206 94be cb57 cc3d c178 4bbd
00000040: 4e74 273e 5341 933e 9a8c 75be 472a 483d
00000050: 9255 853d d846 e5bb e7dc 3bbe 9762 903c
00000060: a464 2abe 4a65 95bd 0ed9 17bd 9d77 813e
00000070: 17c9 123e 4e7f ea3d 79ad 4a3d 2bcf 823d
00000080: 4a43 7a3c 4136 863e fe10 a1be 5439 8b3d
00000090: 7c43 983e 14f4 eabd ac13 2f3e ee49 fe3d

conv2.3.running_mean f4 [40]
0.18158466 0.6165962 0.84915817 2.6877742 1.9915745 1.0105944 0.47080237 2.580252
1.0808518 0.80158776 2.2495165 1.0058188 0.9042046 3.589087 1.372711 0.98447585
1.7487711 2.277824 0.25075158 1.673244 0.48375678 0.5912396 1.4448555 1.1618788
1.4143589 2.2567456 1.6975784 1.6370742 2.9905043 1.5199047 3.1079578 1.4063745
1.5088133 2.4883502 0.40418422 1.203244 1.3972452 2.958925 2.2664227 0.8384836
00000000: 54f1 393e 40d9 1d3f 6e62 593f 7e04 2c40
00000010: eaeb fe3f 285b 813f 020d f13e d922 2540
00000020: 5a59 8a3f db34 4d3f 14f8 0f40 acbe 803f
00000030: f479 673f 9ab3 6540 feb4 af3f 9c06 7c3f
00000040: bbd7 df3f dec7 1140 8362 803e dc2c d63f
00000050: f8ae f73e 7a5b 173f 06f1 b83f 72b8 943f
00000060: b609 b53f 856e 1040 404a d93f a68b d13f
00000070: 6c64 3f40 3d8c c23f c8e8 4640 1404 b43f
00000080: cb20 c13f 2141 1f40 3cf1 ce3e e603 9a3f
00000090: eed8 b23f 075f 3d40 120d 1140 dca6 563f

conv2.3.running_var f4 [40]
2.2370803 5.4611807 4.158584 43.829617 10.103589 6.6271825 2.017531 16.220968
9.941991 3.6504102 18.476658 6.863235 4.0212793 41.03373 13.798237 6.8471665
16.111486 11.982409 2.8546505 17.201822 1.6952189 4.619849 11.993135 6.361745
9.184253 33.79974 16.11971 15.500131 18.44342 14.682626 21.916328 6.884201
13.688796 12.79537 3.613543 13.101676 4.5837326 52.925957 13.365625 8.078775
00000000: 532c 0f40 fec1 ae40 1f13 8540 8751 2f42
00000010: 4da8 2141 e111 d440 3a1f 0140 8bc4 8141
00000020: 6512 1f41 52a0 6940 32d0 9341 9f9f db40
00000030: 52ae 8040 8a22 2442 94c5 5c41 fd1b db40
00000040: 53e4 8041 f2b7 3f41 98b2 3640 559d 8941
00000050: effc d83f ced5 9340 e2e3 3f41 6a93 cb40
00000060: b3f2 1241 ef32 0742 2bf5 8041 8900 7841
00000070: 208c 9341 09ec 6a41 a454 af41 604b dc40
00000080: 4f05 5b41 d6b9 4c41 4a44 6740 77a0 5141
00000090: f0ad 9240 2eb4 5342 9ad9 5541 aa42 0141

conv3.0.weight f4 [80, 40, 3, 3]
-0.096747935 -0.012219636 0.08310055 -0.1306116 -0.0746156 -0.13890241 -0.12312304 -0.25670677
0.05993391 0.06652255 0.013665805 0.123249784 -0.06945829 -0.027371138 -0.038839046 -0.058307223
-0.04911694 0.07051195 0.06149354 0.12930423 0.11548576 0.031020356 0.07104383 0.02142035
-0.17733693 0.031136792 -0.07384842 -0.089061186 0.054515615 -0.08485969 -0.065295465 0.03162806
0.12134244 0.023408767 -0.028841322 0.017570805 -0.018694682 -0.086285986 0.07610096 0.011571232
-0.03355378 -0.027781263 0.07035153 -0.06770955 0.10332407 -0.081913754 -0.022089707 0.07055007
-0.054855574 0.14134263 -0.059934355 -0.1007709 0.028944543 -0.0963207 0.075581826 0.010009388
0.084128685 -0.021946538 0.09395046 0.08307077 -0.0852859 0.0075068907 -0.07323489 0.05170506
-0.10121608 0.006758427 -0.10364708 -0.032171253 0.06367205 -0.072038375 0.02796975 0.106359325
-0.031489596 -0.028950762 0.03279498 0.027614303 -0.14645863 -0.035467003 -0.13111335 -0.104802534
-0.08456848 -0.013764273 -0.0030882158 -0.013539607 -0.03250892 -0.034792196 0.0047179805 -0.081472
0.05176563 0.047363576 -0.09123594 0.08290383 -0.13700926 0.026405778 0.07897687 -0.0051716394
0.028630883 -0.031061929 -0.11629875 0.026066005 0.06869466 -0.11393462 -0.13671347 -0.11419974
-0.07999299 -0.084602945 -0.08134563 0.06772576 0.13031773 0.05374045 0.092356846 0.09132916
0.03836103 -0.0096182125 -0.028987711 0.04891242 0.051568754 -0.04403654 -0.046030518 0.016658012
0.046618637 0.07850515 -0.1083743 -0.031242464 0.0052269236 0.0047815056 0.070179306 0.028909668
0.008051187 0.10086775 0.042123027 0.05098547 -0.0016494243 -0.09641072 -0.06176194 0.056186307
0.008689955 -0.0048824027 -0.12490096 0.0016985447 -0.07271533 -0.12425897 0.10985054 -0.006304362
-0.05293253 -0.07290016 -0.113180645 -0.19597134 -0.12454928 -0.049042884 -0.18070823 -0.113695875
-0.24440596 0.008870121 0.0026728285 -0.12007855 -0.12336728 0.027118137 -0.00071521377 0.042685147
0.005871174 0.13156126 -0.16608207 -0.012948197 -0.0796346 -0.095494315 -0.013784709 -0.18632448
-0.0049522575 -0.015528672 -0.1481452 0.04012243 0.07227143 -0.06597645 -0.1239511 0.06420419
0.02163931 0.0013682084 -0.023383567 0.014194165 -0.006447565 -0.0030339193 0.03001051 -0.09982674
-0.083056524 -0.089565486 0.039047383 -0.085400194 0.07466728 0.03706417 0.060146026 0.022332173
-0.013271033 0.0674532 -0.07062182 -0.16526772 0.087825134 -0.10325266 -0.17341863 0.044236865
-0.096831396 -0.0011186487 0.023884203 -0.014364397 0.015659753 0.043832187 0.03600894 -0.079362586
-0.04595171 0.0053996886 -0.054535978 -0.040147267 0.02292935 -0.06539836 0.1057791 0.18843397
-0.16474044 -0.14994942 -0.11287496 -0.19002678 -0.024859361 0.045701392 -0.05245374 0.06013984
0.044240177 0.05697471 0.010827158 0.0416744 -0.009859528 0.0633473 0.10211937 -0.08861061
0.1141716 -0.08828761 -0.0048480546 0.037324477 -0.14932983 0.009487592 0.019286843 -0.11135608
-0.025830094 -0.10511501 -0.116299 -0.072020955 0.08934285 -0.084897146 -0.13173595 -0.020878574
-0.11112389 -0.034510214 -0.024084084 0.010496788 -0.014972553 0.03503211 -0.021782095 -0.035967633
00000000: c823 c6bd de34 48bc 9f30 aa3d 0cbf 05be
00000010: 10d0 98bd 6f3c 0ebe ef27 fcbd 126f 83be
00000020: 427d 753d fa3c 883d 8ae6 5f3c 626a fc3d
00000030: 2640 8ebd 7039 e0bc b115 1fbd 8ed3 6ebd
00000040: d82e 49bd 9268 903d a6e0 7b3d 5468 043e
00000050: cc83 ec3d 671e fe3c 6d7f 913d bb79 af3c
00000060: d097 35be 9612 ff3c d73d 97bd b665 b6bd
00000070: c44b 5f3d ebca adbd a1b9 85bd 6d8c 013d
00000080: 6382 f83d bec3 bf3c a344 ecbc a6f0 8f3c
00000090: 9725 99bc b5b6 b0bd d2da 9b3d 4495 3d3c
000000a0: b06f 09bd 8895 e3bc 7714 903d 4eab 8abd
000000b0: 929b d33d 66c2 a7bd 79f5 b4bc 8e7c 903d
000000c0: 3db0 60bd 1fbc 103e ba7d 75bd f960 cebd
000000d0: 1b1d ed3c ca43 c5bd a5ca 9a3d 6bfe 233c
000000e0: a94b ac3d 3ac9 b3bc 1969 c03d 0221 aa3d
000000f0: 60aa aebd 5dfc f53b 2dfc 95bd afc8 533d
00000100: 604a cfbd cb75 dd3b ec44 d4bd 01c6 03bd
00000110: 7e66 823d db88 93bd d120 e53c ebd2 d93d
00000120: 3cfb 00bd 262a edbc 0754 063d 6437 e23c
00000130: 40f9 15be d945 11bd 9442 06be b6a2 d6bd
00000140: 3d32 adbd 8c83 61bc aa63 4abb 3ad5 5dbc
00000150: 1328 05bd 4382 0ebd 4a99 9a3b cbda a6bd
00000160: 3208 543d 4f00 423d e9d9 babd 7cc9 a93d
00000170: 284c 0cbe ee50 d83c a0be a13d db76 a9bb
00000180: 508b ea3c 9675 febc 0a2e eebd 6088 d53c
00000190: c9af 8c3d 8e56 e9bd 9efe 0bbe 8ee1 e9bd
000001a0: 5dd3 a3bd 4f44 adbd 8a98 a6bd ceb3 8a3d
000001b0: 0372 053e f21e 5c3d 9625 bd3d c80a bb3d
000001c0: 7520 1d3d b595 1dbc a377 edbc 6458 483d
000001d0: c239 533d a95f 34bd 7f8a 3cbd 6276 883c
000001e0: 2ff3 3e3d 4fc7 a03d 58f3 ddbd 32f0 ffbc
000001f0: 9d46 ab3b 2dae 9c3b 2bba 8f3d f8d3 ec3c
00000200: 20e9 033c c093 ce3d 3289 2c3d 24d6 503d
00000210: 7f31 d8ba fc72 c5bd 17fa 7cbd 9d23 663d
00000220: 5060 0e3c 90fc 9fbb 13cc ffbd b4a1 de3a
00000230: c6eb 94bd 7d7b febd 52f9 e03d d294 cebb
00000240: c8cf 58bd ae4c 95bd 41cb e7bd b6ac 48be
00000250: b113 ffbd 31e1 48bd 940b 39be 62d9 e8bd
00000260: 8e45 7abe fc53 113c 9f2a 2f3b beeb f5bd
00000270: fca7 fcbd db26 de3c 2f7d 3bba 9fd6 2e3d
00000280: fa62 c03b ffb7 063e 6b11 2abe ad24 54bc
00000290: 7717 a3bd 8692 c3bd 43d9 61bc d8cb 3ebe
000002a0: 8c46 a2bb f96b 7ebc 60b3 17be 6b57 243d
000002b0: 0b03 943d a91e 87bd 13da fdbd 7d7d 833d
000002c0: ec44 b13c 7555 b33a e58e bfbc a58e 683c
000002d0: 1846 d3bb b8d4 46bb 9ad8 f53c f671 ccbd
000002e0: 8a19 aabd 1c6e b7bd 26f0 1f3d 4ce6 aebd
000002f0: 29eb 983d 99d0 173d ae5b 763d f6f1 b63c
00000300: bf6e 59bc e724 8a3d 2ca2 90bd f13b 29be
00000310: aadd b33d 2176 d3bd a794 31be b731 353d
00000320: 8a4f c6bd 9f9f 92ba cea8 c33c a658 6bbc
00000330: e248 803c 6189 333d 1c7e 133d da88 a2bd
00000340: dc37 3cbd dfef b03b 1e61 5fbd 7671 24bd
00000350: 55d6 bb3c 93ef 85bd b6a2 d83d d6f4 403e
00000360: b8b1 28be 578c 19be fd2a e7bd 6196 42be
00000370: dca5 cbbc 6231 3b3d bcd9 56bd 3155 763d
00000380: 3035 353d 505e 693d 6464 313c c7b2 2a3d
00000390: dc89 21bc 3bbc 813d f623 d13d 7b79 b5bd
000003a0: cdd2 e93d 22d0 b4bd 6edc 9ebb 8de1 183d
000003b0: ebe9 18be d871 1b3c 71ff 9d3c a80e e4bd
000003c0: a299 d3bc 8a46 d7bd 2c2e eebd b97f 93bd
000003d0: 62f9 b63d 8ede adbd cae5 06be 8b09 abbc
000003e0: ec94 e3bd 955a 0dbd fc4b c5bc b8fa 2b3c
000003f0: 704f 75bc d47d 0f3d 5d70 b2bc cc52 13bd

conv3.3.weight f4 [80]
0.9350221 0.8998128 0.9714281 0.90890646 0.94165695 1.0043054 0.9850647 0.9264205
0.8665545 0.9253912 0.8765578 0.8505557 0.97676545 0.8887013 0.92234933 0.926999
0.9296242 0.9432763 0.9667405 0.9036208 0.8603738 0.9087517 0.87436813 0.9476795
0.932314 0.8693018 0.81396025 0.9485654 0.94087327 0.9303434 0.907703 0.91982764
0.89904356 0.93639195 0.8650405 0.93320346 0.91405046 0.9473956 0.9627394 0.9460052
0.9713325 0.8619586 0.8483918 0.8861472 0.95425004 1.054082 0.965875 0.9469628
0.91430813 0.86404485 0.9524648 0.9211014 0.8722195 0.96222126 0.9050721 0.9194868
0.9525575 0.9437576 1.004204 0.922083 0.83437145 1.0343602 0.9008476 0.8725482
0.91666734 0.89047545 0.85026675 1.0109377 0.97495586 0.8779993 0.95259863 0.8750021
0.94049406 0.86664873 0.93107325 0.89824384 0.9557163 0.92783505 0.9528927 0.8884186
00000000: 9c5d 6f3f 225a 663f 83af 783f 18ae 683f
00000010: 6e10 713f 148d 803f 332d 7c3f e529 6d3f
00000020: 84d6 5d3f 70e6 6c3f 1866 603f 05be 593f
00000030: 4d0d 7a3f ee81 633f 161f 6c3f ce4f 6d3f
00000040: dafb 6d3f 8e7a 713f 4e7c 773f b153 673f
00000050: 7541 5c3f f4a3 683f 97d6 5f3f 209b 723f
00000060: 21ac 6e3f 908a 5e3f b35f 503f 2fd5 723f
00000070: 12dd 703f fc2a 6e3f 395f 683f d379 6b3f
00000080: b827 663f 62b7 6f3f 4b73 5d3f 6ce6 6e3f
00000090: 36ff 693f 8588 723f 1776 763f 662d 723f
000000a0: 3fa9 783f 52a9 5c3f 3430 593f 8bda 623f
000000b0: bb49 743f 29ec 863f 9643 773f 276c 723f
000000c0: 1910 6a3f 0b32 5d3f bcd4 733f 4dcd 6b3f
000000d0: c749 5f3f 2254 763f ceb2 673f 7d63 6b3f
000000e0: cfda 733f 199a 713f c289 803f a20d 6c3f
000000f0: 5e99 553f ea65 843f f39d 663f 525f 5f3f
00000100: b6aa 6a3f 33f6 633f 15ab 593f 6866 813f
00000110: b596 793f 90c4 603f 81dd 733f 2300 603f
00000120: 38c4 703f b1dc 5d3f d15a 6e3f 4ff3 653f
00000130: d3a9 743f 9986 6d3f c7f0 733f 676f 633f

conv3.3.bias f4 [80]
-0.35194743 0.47186697 0.32908216 0.37900573 -0.17629212 0.047108226 0.23313612 0.036211904
0.083083555 0.27442178 0.24284324 0.09007658 0.39536616 -0.2042824 0.07792368 0.20290738
0.053866927 0.27663255 0.023133948 0.21750416 0.13447662 -0.04654354 0.264821 0.311266
-0.14112546 0.32756564 0.17373066 -0.2641144 0.2203281 0.3672672 0.05636797 -0.13655315
0.28176022 0.04624324 0.44926095 0.4130736 0.15025769 0.076079264 0.015220745 0.43052658
0.28982174 -0.21072973 0.37567234 0.07794737 0.0088225715 0.20884173 -0.012517088 0.41236863
0.18380393 -0.1291518 0.10431265 -0.101714194 0.28264168 0.09427564 0.37293127 -0.15008086
0.21842763 0.30730295 0.24121371 0.105044916 0.2934224 -0.00045570964 -0.1481515 0.19024439
-0.13709265 0.32566363 0.19865024 0.32348707 0.0016605601 0.1345655 0.2710795 -0.20836928
0.024184288 0.092243634 -0.04030557 0.10242462 0.21329658 0.1975882 -0.04076078 0.08637278
00000000: 7432 b4be 8c98 f13e 757d a83e 0a0d c23e
00000010: ec85 34be 8ef4 403d 3cbb 6e3e ef52 143d
00000020: b627 aa3d 0381 8c3e e6ab 783e 127a b83d
00000030: 6f6d ca3e 682f 51be 7396 9f3d f4c6 4f3e
00000040: 91a3 5c3d c8a2 8d3e 6883 bd3c 69b9 5e3e
00000050: 3db4 093e 70a4 3ebd 9e96 873e 425e 9f3e
00000060: 3183 10be afb6 a73e 73e6 313e 013a 87be
00000070: b09d 613e 720a bc3e 1ae2 663d 97d4 0bbe
00000080: e042 903e 8d69 3d3d 8805 e63e 627e d33e
00000090: 27dd 193e 72cf 9b3d 6e60 793c fb6d dc3e
000000a0: 8463 943e 89c9 57be 2058 c03e dfa2 9f3d
000000b0: 8c8c 103c 9bda 553e 7914 4dbc fb21 d33e
000000c0: 1937 3c3e 5f40 04be dfa1 d53d 884f d0bd
000000d0: 69b6 903e 9613 c13d d9f0 be3e ccae 19be
000000e0: 7eab 5f3e d056 9d3e ba00 773e ca21 d73d
000000f0: 763b 963e 50ec eeb9 07b5 17be 6dcf 423e
00000100: 0462 0cbe 62bd a63e f86a 4b3e 19a0 a53e
00000110: 27a7 d93a 8acb 093e efca 8a3e c25e 55be
00000120: 211e c63c 3bea bc3d 7417 25bd 00c4 d13d
00000130: 6b6a 5a3e 9054 4a3e c7f4 26bd 36e4 b03d

conv3.3.running_mean f4 [80]
1.3146597 0.7233602 0.8815404 0.68736094 0.78275084 0.5183635 0.96650386 0.4069175
0.17530176 0.79700476 0.56928104 0.7254998 1.2060819 1.1544801 1.3130068 0.09111913
0.38835955 0.82977504 0.055571906 0.3669904 0.461425 1.1383822 0.6648123 0.17184258
0.7666401 0.23904507 0.8123379 0.83294517 0.17361385 0.48737457 0.5022493 0.73953325
0.875041 0.50089425 1.2870058 1.0865617 0.38508707 0.75084233 0.80779356 0.9806477
1.1523066 1.039143 0.45861852 1.1126088 0.98212105 1.6898791 0.7942249 0.9782163
0.9721949 0.7811195 0.82003003 0.85059345 0.8114762 0.75193083 1.4996926 0.56076235
1.0572904 0.51853293 0.95791954 0.40518495 0.91127366 1.133721 0.7738793 0.638169
0.9378948 0.37563556 0.8996872 1.1333475 0.7033728 0.5639145 1.2544036 0.6376457
0.5050036 1.1865121 0.7628183 0.50665504 0.83410645 -0.020133194 1.9209452 0.33866924
00000000: c546 a83f 222e 393f a2ac 613f e3f6 2f3f
00000010: 5c62 483f 78b3 043f cc6c 773f 7e57 d03e
00000020: 4e82 333e 8108 4c3f 67bc 113f 5bba 393f
00000030: e460 9a3f 01c6 933f 9b10 a83f ab9c ba3d
00000040: 10d7 c63e 236c 543f 5e9f 633d 2ae6 bb3e
00000050: e63f ec3e 82b6 913f 2431 2a3f 80f7 2f3e
00000060: 8742 443f 3bc8 743e 60f5 4f3f e53b 553f
00000070: d4c7 313e 2989 f93e 6993 003f 0d52 3d3f
00000080: b002 603f 9b3a 003f 9bbc a43f 7414 8b3f
00000090: 222a c53e 3437 403f 8fcb 4e3f ba0b 7b3f
000000a0: c87e 933f a302 853f 0cd0 ea3e f769 8e3f
000000b0: 496c 7b3f f54d d83f 5352 4b3f 626c 7a3f
000000c0: c4e1 783f 73f7 473f 7ded 513f 7ec0 593f
000000d0: e7bc 4f3f 8a7e 403f edf5 bf3f 1f8e 0f3f
000000e0: 4b55 873f 93be 043f 373a 753f 6774 cf3e
000000f0: 3b49 693f c51d 913f f41c 463f 0b5f 233f
00000100: e019 703f 4e53 c03e e651 663f 8811 913f
00000110: 3d10 343f b35c 103f 4c90 a03f c03c 233f
00000120: ea47 013f a1df 973f 0f48 433f 25b4 013f
00000130: 0088 553f 5eee a4bc 88e1 f53f 0e66 ad3e

conv3.3.running_var f4 [80]
3.3701901 7.2057366 2.3606088 5.1289215 1.7686971 1.17075 5.0915256 1.582513
0.74207133 5.3972893 4.059668 3.8331678 11.81004 7.442027 13.354603 1.1451365
0.749573 7.380635 0.5070353 1.892568 1.0367645 11.647571 1.8496255 1.2548777
9.301047 2.5016403 7.0192466 8.446027 1.6226629 3.1104043 3.5010524 1.666544
4.842097 3.6502297 4.373084 13.757216 2.1903868 1.5328319 4.096992 9.709453
11.863487 4.5943627 2.3725605 9.693719 3.643258 3.3511822 2.3717215 9.745839
10.533619 2.6142542 2.308422 5.6101546 7.1723213 2.548897 7.774708 3.5314856
8.252008 3.2426527 4.0752816 1.237142 3.7945673 4.224654 3.5767725 2.4242234
4.1028028 1.9119142 2.4508073 2.031595 1.1667225 2.5537558 16.87468 3.7688
2.6070151 12.588063 4.230039 0.8422763 7.7196116 0.6686778 3.6497953 2.6562078
00000000: 32b1 5740 6595 e640 3714 1740 2020 a440
00000010: ab64 e23f 23db 953f c7ed a240 c98f ca3f
00000020: 63f8 3d3f 98b6 ac40 cde8 8140 9f52 7540
00000030: edf5 3c41 1625 ee40 74ac 5541 d593 923f
00000040: 04e4 3f3f 292e ec40 11cd 013f ab3f f23f
00000050: b3b4 843f 735c 3a41 87c0 ec3f d59f a03f
00000060: 17d1 1441 e01a 2040 ab9d e040 ed22 0741
00000070: 6bb3 cf3f dd10 4740 3e11 6040 5051 d53f
00000080: 75f2 9a40 5d9d 6940 4ef0 8b40 8f1d 5c41
00000090: 4c2f 0c40 d633 c43f 8f1a 8340 eb59 1b41
000000a0: d8d0 3d41 0505 9340 08d8 1740 7919 1b41
000000b0: 242b 6940 c579 5640 49ca 1740 f5ee 1b41
000000c0: b489 2841 f14f 2740 30bd 1340 6386 b340
000000d0: a883 e540 2121 2340 68ca f840 dc03 6240
000000e0: 3a08 0441 9f87 4f40 b568 8240 ab5a 9e3f
000000f0: 31da 7240 5e30 8740 d7e9 6440 7a26 1b40
00000100: 294a 8340 9bb9 f43f 07da 1c40 a705 0240
00000110: 2a57 953f bc70 2340 58ff 8641 0534 7140
00000120: 56d9 2640 b568 4941 7b5c 8740 6b9f 573f
00000130: 0f07 f740 782e 2b3f 3f96 6940 4fff 2940

conv4.0.weight f4 [80, 80, 3, 3]
0.04446576 -0.06788923 0.121758796 0.026766477 -0.06331099 -0.051682584 -0.037578814 -0.025110729
0.07040354 -0.017308656 0.045390185 0.07603485 -0.078415334 -0.060093496 -0.06354149 0.08487112
0.001876189 0.03530113 0.038063318 -0.06958806 0.028389078 -0.052656077 -0.062346663 -0.08969798
-0.09794371 0.026806647 -0.10257619 0.019688243 0.0077378238 0.028293792 0.012853274 -0.045164745
-0.02580486 -0.036936775 -0.056646362 -0.08458362 0.035465106 -0.023483854 -0.031755365 0.11731498
-0.023559975 -0.12607747 0.09336058 0.06874054 0.042465016 0.023252388 -0.047580704 0.0075407764
-0.09902409 -0.076957196 -0.012687652 -0.02460125 0.0619017 0.09888159 0.016933674 -0.04634271
0.099120386 0.050493713 -0.06203755 0.078430675 0.0013766052 -0.09262729 -0.015197404 -0.08767002
0.021600412 -0.11669063 -0.11841974 -0.08609811 0.03070978 -0.10486069 0.027944585 -0.06914558
-0.009422456 -0.043633822 -0.037843756 -0.047775764 -0.008940511 -0.0568293 -0.03677686 -0.07405172
-0.0047859675 -0.028461931 -0.046135537 -0.08216287 0.048471093 0.0037364743 -0.05208385 0.0904652
-0.050278634 -0.12657933 -0.078205734 0.020350758 -0.00851725 -0.09973859 -0.04063407 0.043652825
-0.016110433 -0.12521467 -0.12300205 0.022356825 0.060227584 0.051070206 0.0040589124 -0.03130966
0.06298429 -0.0015723177 0.07330567 0.07829188 0.06717212 -0.07801396 -0.034492493 0.009062129
0.0038725422 0.030196512 0.021897815 0.022654975 -0.037459586 -0.08597338 -0.115639865 -0.08627876
0.039281633 0.033661634 -0.11370523 -0.039027926 -0.031122899 -0.10228252 0.03037944 -0.09573998
-0.10437126 -0.05700139 -0.019579468 -0.012287749 0.039409682 -0.097837836 -0.06573206 -0.07416637
-0.021988839 -0.09276173 0.005671501 -0.022933416 -0.12910879 -0.066851094 -0.061796375 -0.004625962
-0.07763124 0.109926775 0.047330692 0.051330134 0.015919326 -0.014732819 -0.067725435 0.123243146
0.029681304 0.044897925 -0.009704688 0.03081024 0.07763482 -0.0383202 -0.01799659 0.08733802
-0.07847791 0.027513739 0.04667254 0.11142712 -0.102576666 0.06941081 -0.07451296 -0.06487219
0.0114727635 -0.054591574 -0.08617384 -0.014343104 -0.07844278 -0.10581093 0.015561723 -0.092109025
-0.03376587 -0.04491195 0.00981951 -0.065285504 -0.058293894 -0.075407326 0.08233869 -0.030131264
-0.013491616 0.025082586 -0.07225738 -0.039835215 0.13246977 -0.011571088 0.035716206 0.0027458996
0.022410432 -0.013039081 0.0020582573 0.056802094 0.041765083 -0.028303927 0.019303244 0.040882234
-0.0144625995 -0.08306622 -0.051550616 0.11600487 0.05361151 -0.0033357893 0.08327978 0.06307723
-0.015947947 -0.05929858 0.06318786 -0.0417554 0.061038032 0.07260815 -0.07362868 0.03629368
0.032423954 -0.08332055 -0.06479087 -0.08104572 0.035456926 -0.09408498 0.09303048 -0.02010919
-0.07883381 -0.09027463 0.04904441 -0.016847495 -0.0775636 -0.030503038 -0.093270324 -0.044549175
0.112879924 -0.027662652 -0.034356385 -0.015181519 0.092438385 -0.06158941 0.08176265 0.059661567
-0.0037460679 -0.007133462 0.09558495 -0.014074064 0.023756903 -0.02437711 -0.10478968 -0.046154965
-0.10613869 -0.07395072 -0.05391871 -0.11486618 0.08541559 0.03297769 -0.047083374 0.053623427
00000000: bb21 363d 8209 8bbd ad5c f93d 5f45 db3c
00000010: 31a9 81bd 1eb1 53bd 3eec 19bd 04b5 cdbc
00000020: bb2f 903d e2ca 8dbc 0feb 393d 29b8 9b3d
00000030: 3898 a0bd 9924 76bd 0a22 82bd e9d0 ad3d
00000040: 75ea f53a eb97 103d 48e8 1b3d 2f84 8ebd
00000050: 3690 e83c e6ad 57bd 375f 7fbd 93b3 b7bd
00000060: b696 c8bd 9d99 db3c 7713 d2bd 3d49 a13c
00000070: 928d fd3b 62c8 e73c 8a96 523c abfe 38bd
00000080: b764 d3bc 044b 17bd 0406 68bd 2d3a adbd
00000090: dc43 113d 3661 c0bc ea11 02bd d642 f03d
000000a0: d900 c1bc 741a 01be d533 bf3d d7c7 8c3d
000000b0: ccef 2d3d cb7b be3c fce3 42bd 9e18 f73b
000000c0: 24cd cabd bc9b 9dbd dfdf 4fbc 9088 c9bc
000000d0: a38c 7d3d 6e82 ca3d 7db8 8a3c dad1 3dbd
000000e0: a1ff ca3d 7fd2 4e3d 161b 7ebd 43a0 a03d
000000f0: 356f b43a 60b3 bdbd 88fe 78bc 578c b3bd
00000100: 59f3 b03c 7ffb eebd 0c86 f2bd 3554 b0bd
00000110: 1493 fb3c 34c1 d6bd 0bec e43c 339c 8dbd
00000120: a560 1abc 61b9 32bd 0e02 1bbd 85b0 43bd
00000130: 397b 12bc d7c5 68bd 55a3 16bd 6ea8 97bd
00000140: 9bd3 9cbb ff28 e9bc 9ef8 3cbd 0245 a8bd
00000150: a089 463d a3df 743b e055 55bd d245 b93d
00000160: f8f0 4dbd 039e 01be 542a a0bd a2b6 a63c
00000170: f08b 0bbc bf43 ccbd e96f 26bd 4ecd 323d
00000180: 07fa 83bc 4638 00be 80e8 fbbd a925 b73c
00000190: 33b1 763d fe2e 513d a000 853b 8f3e 00bd
000001a0: e8fd 803d 3a16 ceba 4821 963d 7e57 a03d
000001b0: 8991 893d c8c5 9fbd 0048 0dbd 5379 143c
000001c0: 7aca 7d3b ad5e f73c 0c63 b33c ed96 b93c
000001d0: 396f 19bd d012 b0bd 98d4 ecbd ebb2 b0bd
000001e0: c7e5 203d c8e0 093d 4ade e8bd bfdb 1fbd
000001f0: 73f5 febc 7f79 d1bd 4ede f83c 5313 c4bd
00000200: 99c0 d5bd 4a7a 69bd 1f65 a0bc 8e52 49bc
00000210: 0c6c 213d 345f c8bd 889e 86bd 8ae4 97bd
00000220: f021 b4bc ddf9 bdbd 00d8 b93b dcde bbbc
00000230: 1835 04be 3ae9 88bd 321e 7dbd 6295 97bb
00000240: 21fd 9ebd 4a21 e13d d4dd 413d 8c3f 523d
00000250: 3f69 823c ec61 71bc a2b3 8abd e766 fc3d
00000260: 3526 f33c e3e6 373d 6900 1fbc c265 fc3c
00000270: 01ff 9e3d a4f5 1cbd 966d 93bc 47de b23d
00000280: 07b9 a0bd 7e64 e13c b52b 3f3d e733 e43d
00000290: b713 d2bd 4127 8e3d 409a 98bd b6db 84bd
000002a0: 42f8 3b3c 6a9b 5fbd e97b b0bd 57ff 6abc
000002b0: 9ca6 a0bd 67b3 d8bd 99f6 7e3c a8a3 bcbd
000002c0: 154e 0abd 98f5 37bd 03e2 203c 68b4 85bd
000002d0: 94c5 6ebd 286f 9abd 30a1 a83d d7d5 f6bc
000002e0: f00b 5dbc ff79 cd3c adfb 93bd 402a 23bd
000002f0: 28a6 073e a994 3dbc 284b 123d 8df4 333b
00000300: 1596 b73c dfa1 55bc d4e3 063b 50a9 683d
00000310: dd11 2b3d a3dd e7bc d621 9e3c 2174 273d
00000320: 8af4 6cbc 9f1e aabd bd26 53bd f693 ed3d
00000330: be97 5b3d 429d 5abb 978e aa3d a22e 813d
00000340: 45a5 82bc 11e3 72bd a368 813d b607 2bbd
00000350: 0403 7a3d 95b3 943d a2ca 96bd afa8 143d
00000360: fbce 043d f7a3 aabd 13b1 84bd 4cfb a5bd
00000370: 483b 113d a0af c0bd c486 be3d 07bc a4bc
00000380: 9f73 a1bd e8e1 b8bd cbe2 483d c203 8abc
00000390: aad9 9ebd 82e1 f9bc 8304 bfbd 3279 36bd
000003a0: 972d e73d c99c e2bc 48b9 0cbd e8bb 78bc
000003b0: 5650 bd3d 2d45 7cbd 2d73 a73d b05f 743d
000003c0: 9780 75bb d1bf e9bb 0bc2 c33d e796 66bc
000003d0: d69d c23c 81b2 c7bc f99b d6bd fd0c 3dbd
000003e0: 3e5f d9bd 7a73 97bd ded9 5cbd f63e ebbd
000003f0: 5eee ae3d 9d13 073d 7fda 40bd 3da4 5b3d

conv4.3.weight f4 [80]
0.88391227 0.9790057 0.9154882 0.86040056 0.8758729 0.9167247 0.994552 0.9230809
0.96655226 0.9016411 0.89398307 0.9032063 0.8489375 0.9519051 0.9474022 0.8461787
0.86224395 0.92662257 0.9507662 0.87057817 0.95188266 0.9177457 0.9180415 0.8879415
0.8619188 0.86013824 1.0606909 0.9673599 0.92219603 0.91665006 0.99650043 0.8928257
0.8749031 0.92502344 0.8828455 0.92067 0.94112766 0.8842266 0.84937036 0.9568947
0.9409592 0.8532257 0.88609505 0.9290804 0.8438531 0.91527826 0.9325305 0.94140625
0.87700915 0.91496676 0.88426864 0.86907256 0.873582 0.9821237 0.8917204 0.8631835
0.9897042 0.92289734 0.86769927 0.8984259 0.9657827 1.0027616 0.9191618 0.84559274
0.88864464 0.8611613 0.8816658 0.91566265 0.96379113 1.0327879 0.96817726 0.9118505
0.8644534 1.0157012 1.083448 0.8983374 0.8893318 1.0184109 0.86234534 0.8709581
00000000: 1348 623f 1ea0 7a3f 6f5d 6a3f 3643 5c3f
00000010: 3539 603f 78ae 6a3f f69a 7e3f 084f 6c3f
00000020: f86f 773f f3d1 663f 13dc 643f 8738 673f
00000030: f853 593f 0db0 733f f388 723f 2b9f 583f
00000040: 05bc 5c3f 2337 6d3f 6a65 733f 36de 5e3f
00000050: 95ae 733f 62f1 6a3f c504 6b3f 2250 633f
00000060: b6a6 5c3f 0532 5c3f b8c4 873f e6a4 773f
00000070: 0a15 6c3f 94a9 6a3f a71a 7f3f 3a90 643f
00000080: a6f9 5f3f 56ce 6c3f 2a02 623f 07b1 6b3f
00000090: beed 703f ad5c 623f 5670 593f 0df7 743f
000000a0: b4e2 703f 006d 5a3f 20d7 623f 37d8 6d3f
000000b0: c206 583f ad4f 6a3f 52ba 6e3f 0000 713f
000000c0: ac83 603f 433b 6a3f 6e5f 623f 8a7b 5e3f
000000d0: 12a3 5f3f 756c 7b3f ca47 643f 98f9 5c3f
000000e0: 415d 7d3f 0043 6c3f 8a21 5e3f 3dff 653f
000000f0: 893d 773f 7e5a 803f 304e 6b3f c478 583f
00000100: 377e 633f 1175 5c3f dab4 613f de68 6a3f
00000110: 04bb 763f 6532 843f 77da 773f 096f 693f
00000120: d14c 5d3f 7f02 823f 6dae 8a3f 71f9 653f
00000130: 40ab 633f 4a5b 823f aac2 5c3f 1cf7 5e3f

conv4.3.bias f4 [80]
-0.080524854 -0.27418998 -0.36312622 -0.014959664 -0.24182151 -0.17673047 0.45996928 -0.13853976
0.020790868 0.26902944 -0.0376013 -0.23932396 -0.5101437 -0.21953514 0.0884652 -0.324036
-0.01890138 0.16269735 -0.0715877 0.3289138 0.10585823 0.15974173 0.11856003 -0.56577873
-0.23380977 -0.5094431 0.14363666 -0.20027846 0.30575743 -0.34338975 -0.06655976 -0.0007258675
0.050519127 0.16368593 0.033263113 0.0111021 -0.29176667 0.37802085 0.46329114 0.23867562
-0.22013886 -0.10392492 0.1008726 -0.03702622 -0.3501392 -0.08397153 -0.41427574 0.27994972
0.34243208 0.2560915 -0.49736348 -0.16406341 0.1626994 -0.13138492 -0.43901068 0.0117126955
-0.059835825 -0.05475911 -0.45154658 -0.06272743 -0.27835304 0.08129088 -0.2617344 0.49062684
0.018741284 -0.046164345 0.008595292 -0.07513217 0.17680874 -0.22726785 0.16926827 0.3847715
-0.2249314 0.3249823 0.3667984 -0.47824728 -0.38984194 0.10287118 -0.24087152 -0.15983003
00000000: 37ea a4bd a162 8cbe aeeb b9be 6119 75bc
00000010: 0fa0 77be d5f8 34be 1881 eb3e 5edd 0dbe
00000020: 9c51 aa3c 3abe 893e d203 1abd 5711 75be
00000030: c798 02bf d2cd 60be 3e2d b53d 0ce8 a5be
00000040: 11d7 9abc 229a 263e 929c 92bd 6467 a83e
00000050: 33cc d83d 5693 233e 9acf f23d e0d6 10bf
00000060: d46b 6fbe dd6a 02bf 7d15 133e cc15 4dbe
00000070: 3d8c 9c3e c8d0 afbe 7c50 88bd 2548 3eba
00000080: 25ed 4e3d 499d 273e e73e 083d 95e5 353c
00000090: 7162 95be f38b c13e 7f34 ed3e 6267 743e
000000a0: 156c 61be 97d6 d4bd 4b96 ce3d cea8 17bd
000000b0: 7245 b3be 44f9 abbd f31b d4be 9255 8f3e
000000c0: 4253 af3e 6d1e 833e 6da6 febe 3d00 28be
000000d0: ac9a 263e c589 06be 02c6 e0be 9be6 3f3c
000000e0: 6916 75bd 174b 60bd 1d31 e7be 3d77 80bd
000000f0: 4a84 8ebe d57b a63d 0d02 86be 7133 fb3e
00000100: 5287 993c d316 3dbd 45d3 0c3c e5de 99bd
00000110: 5a0d 353e e7b8 68be a954 2d3e c500 c53e
00000120: 6b54 66be 1464 a63e 00cd bb3e d4dc f4be
00000130: 5d99 c7be 20ae d23d 06a7 76be 7caa 23be

conv4.3.running_mean f4 [80]
0.68028957 1.161371 0.5536506 1.3050436 0.73849404 1.3130757 0.20317012 0.018536365
0.27620876 0.83392096 0.5920334 0.05961301 1.5483282 -0.16059186 0.88026196 0.6823156
1.0420253 0.8631436 0.39218047 1.422213 0.2666297 0.67073417 0.7059009 1.314876
0.005021324 -0.17317529 0.3045143 0.27844176 0.510724 0.19979763 -0.05978241 0.37099516
0.8034828 0.7177089 0.6813521 1.0932643 -0.06435654 0.060392424 0.6326048 0.09269725
0.033725373 0.59923077 0.5698235 0.17490539 1.0716773 0.26847982 -0.16598237 0.5570958
0.6848388 0.1449428 1.7484033 0.08396485 0.09707765 -0.1392419 -0.030079948 1.3428861
0.07574228 -0.064437926 1.1163611 0.28724158 0.32751638 0.13152032 0.6511563 0.65255797
1.0710248 0.3672834 0.6124304 1.4851147 0.19188163 -0.13687438 0.10534828 -0.08749447
1.2630353 0.24496874 0.08361594 1.4326397 1.0936596 0.4737272 -0.12663345 1.3462077
00000000: 7527 2e3f cea7 943f 0cbc 0d3f ab0b a73f
00000010: f20d 3d3f dd12 a83f d40b 503e 93d9 973c
00000020: 3c6b 8d3e d87b 553f 808f 173f c62c 743d
00000030: 9e2f c63f 3172 24be d958 613f 3cac 2e3f
00000040: 1661 853f fbf6 5c3f e1cb c83e 130b b63f
00000050: b083 883e 3cb5 2b3f ecb5 343f db4d a83f
00000060: eb89 a43b dd54 31be 4ce9 9b3e eb8f 8e3e
00000070: cfbe 023f c097 4c3e 66de 74bd 14f3 bd3e
00000080: 0cb1 4d3f c5bb 373f 176d 2e3f 16f0 8b3f
00000090: 5dcd 83bd 0c5e 773d 63f2 213f 0ed8 bd3d
000000a0: 9e23 0a3d 3067 193f f4df 113f 661a 333e
000000b0: b92c 893f 3076 893e 48f7 29be d59d 0e3f
000000c0: 9851 2f3f e36b 143e aecb df3f c3f5 ab3d
000000d0: a6d0 c63d 6e95 0ebe 396a f6bc b1e3 ab3f
000000e0: c51e 9b3d 08f8 83bd ece4 8e3f 5411 933e
000000f0: 3ab0 a73e 43ad 063e 2eb2 263f 0a0e 273f
00000100: 5717 893f 920c bc3e 3dc8 1c3f 3d18 be3f
00000110: 9e7c 443e cc28 0cbe d7c0 d73d 4d30 b3bd
00000120: 24ab a13f 16d9 7a3e d53e ab3d bd60 b73f
00000130: 0afd 8b3f 5f8c f23e 33ac 01be 8950 ac3f

conv4.3.running_var f4 [80]
2.462557 2.8827503 5.0220556 7.0066075 1.7042191 8.893989 0.70828813 0.33711028
0.57384175 4.1033688 3.2283921 0.33826226 18.093422 0.072193965 3.9892068 4.7176733
6.388441 2.762735 1.0770268 16.897335 1.3546456 4.227026 5.192114 7.6036816
0.17851521 0.04325099 0.78994846 0.9199873 5.2120204 0.8011771 0.17269838 1.6148903
3.850509 4.400808 5.400389 6.8888044 0.14668564 0.6618836 3.105996 0.31381375
0.56281114 2.6116962 4.9557304 0.5579014 4.781612 0.76121694 0.038474467 1.3636343
2.3442497 0.91670483 13.594994 0.48832652 1.2222406 0.12941223 0.31135947 7.294343
0.6329372 0.25514466 4.4440317 1.0129092 1.170831 0.46409184 1.441134 4.493709
11.510193 2.272763 1.4684507 14.683342 0.47229138 0.10085923 1.0475525 0.29483038
12.592886 0.78079987 0.51615334 16.262964 6.582262 1.1280789 0.10590894 16.064905
00000000: 899a 1d40 fb7e 3840 aeb4 a040 2136 e040
00000010: da23 da3f c74d 0e41 5f52 353f b899 ac3e
00000020: 4be7 123f cc4e 8340 fa9d 4e40 b630 ad3e
00000030: 54bf 9041 6eda 933d 2a4f 7f40 2ef7 9640
00000040: 1c6e cc40 a6d0 3040 04dc 893f be2d 8741
00000050: 0765 ad3f cc43 8740 cc25 a640 5c51 f340
00000060: b1cc 363e f327 313d 103a 4a3f 4a84 6b3f
00000070: dfc8 a640 f119 4d3f d8d7 303e bab4 ce3f
00000080: bd6e 7640 6bd3 8c40 fdcf ac40 1671 dc40
00000090: c334 163e 3471 293f a3c8 4640 32ac a03e
000000a0: 6414 103f 0826 2740 5895 9e40 a0d2 0e3f
000000b0: f702 9940 1ddf 423f 6797 1d3d 928b ae3f
000000c0: 3008 1640 2bad 6a3f 1885 5941 ef05 fa3e
000000d0: 6172 9c3f a484 043e 826a 9f3e 426b e940
000000e0: 2c08 223f 52a2 823e 8235 8e40 02a7 813f
000000f0: cadd 953f 729d ed3e 1477 b83f 77cc 8f40
00000100: c029 3841 f374 1140 31f6 bb3f f8ee 6a41
00000110: 2dd0 f13e 498f ce3d 3316 863f 02f4 963e
00000120: 767c 4941 80e2 473f a022 043f 8d1a 8241
00000130: e4a1 d240 e464 903f c9e6 d83d ed84 8041
