BackCNN_best_weights.pth (torch, 647347 bytes, 32 tensors)

conv1.0.weight f4 [3]
0.94990695 1.0245537 1.001789
00000000: 1a2d 733f 9324 833f 9f3a 803f

conv1.0.bias f4 [3]
0.02053236 0.07132772 0.10485184
00000000: 7b33 a83c 4514 923d 90bc d63d

conv1.0.running_mean f4 [3]
0.21277273 0.24353243 0.21898976
00000000: 18e1 593e 9160 793e da3e 603e

conv1.0.running_var f4 [3]
0.055610757 0.04621922 0.03566937
00000000: 1bc8 633d 5d50 3d3d 0c1a 123d

conv1.1.weight f4 [20, 3, 7, 7]
-0.02824129 -0.024764456 -0.07521021 0.0057957107 -0.008374213 -0.0041704904 0.06549289 0.049985573
-0.030856432 0.06826438 0.0022990066 0.029526442 0.017866388 0.036651168 -0.07871313 0.027617266
0.04052224 -0.084596455 0.022746138 -0.014812884 0.023475258 0.0153099615 -0.08648752 -0.027808687
-0.020306107 -0.032845117 0.0027416605 -0.029397104 0.059214428 -0.0273569 -0.07385869 0.012724927
-0.05878031 -0.011398619 0.04304879 0.032013964 0.0014161858 0.05748248 -0.043120477 -0.051099326
0.040387824 -0.017108105 -0.0029032468 -0.034905948 0.0095907645 -0.015037836 -0.025926223 0.007783169
-0.042852312 0.0074314578 0.056932453 0.048327386 -0.043379955 0.12081646 -0.0046808757 0.03635715
-0.06359383 -0.057703722 -0.05160204 0.08028764 0.028125124 0.045552272 0.1060411 -0.057482865
0.030077137 0.005057051 -0.012796116 0.038884602 0.13127165 -0.021227872 0.059891347 0.044738337
-0.008119836 0.007532905 0.050311394 0.09856775 0.09208365 -0.01819605 0.020940002 -0.027272034
0.08036066 0.035755396 0.088933855 -0.0037280824 0.03491952 0.039772037 -0.044414815 0.070111066
0.0900392 -0.0122037 -0.021166129 -0.017341902 0.0030068432 0.08411539 0.10653934 0.11217822
0.123409726 0.12811582 -0.03634787 0.031999115 0.025913887 -0.08253336 -0.11920507 0.0059112245
-0.027264835 0.022686685 0.04154032 -0.013995418 -0.045895535 -0.10167582 -0.10926908 -0.012787325
0.030265378 0.025183108 -0.024638472 -0.068508714 -0.09343938 -0.03065512 -0.08893049 -0.03121475
0.01392096 -0.010029609 -0.09070529 0.0041337903 -0.070253745 -0.086286515 0.028636878 0.05633502
-0.0021509747 -0.11559876 -0.0071333637 -0.06457813 -0.07076506 0.009097649 -0.06444108 0.0018594776
-0.058340527 0.0061987303 -0.08473465 0.013212616 -0.02787144 -0.021785188 0.03099685 -0.034356453
-0.07854425 -0.084863275 -0.058759674 -0.07293195 -0.002595725 -0.034597557 -0.033287965 -0.015404905
-0.05403026 0.036049265 -0.006286876 -0.0646015 0.039902538 0.0031001794 -0.06570205 -0.04363494
-0.10674548 -0.07848334 -0.02527813 -0.09517705 0.018657334 0.02649318 -0.064106554 -0.071284994
-0.024591211 -0.05715249 -0.11095836 8.585537e-05 0.00017283029 0.012373999 -0.082455054 -0.058908
-0.0012107672 -0.047694698 -0.09118352 -0.06686119 0.029938309 0.012149571 -0.040486556 -0.027105123
-0.027433239 0.011111 -0.08887545 -0.09514472 -0.051422782 0.030224057 0.000442609 -0.04455691
-0.02266738 0.01639174 -0.005594494 -0.11017161 0.031994868 0.07505504 -0.053670585 0.063858286
0.009075464 0.019921048 0.046487186 0.045159716 -0.0018796639 -0.029794272 0.080590814 0.075040355
0.031417143 0.020951591 0.077603616 -0.06453803 0.03183278 0.08599802 0.02872133 0.099393524
-0.0126624685 0.07446696 -0.055666644 -0.065942906 -0.046474457 0.004064416 0.08726733 0.047984686
-0.06565984 0.037844703 0.08046888 0.0047418354 0.018672481 0.09965652 0.05010787 0.08633708
-0.06661432 0.01674275 -0.051311158 -0.008230696 0.040695712 -0.049706478 0.024964854 -0.062482156
-0.029394748 0.057433337 0.010438383 0.034580816 -0.042613514 -0.055808984 -0.07307965 -0.06379928
0.07261779 0.038770843 -0.06756213 0.04275322 0.05448749 0.054539282 0.05283498 0.028700305
00000000: 475a e7bc d4de cabc d007 9abd f2e9 bd3b
00000010: ff33 09bc 9ca8 88bb 2321 863d acbd 4c3d
00000020: a1c6 fcbc 32ce 8b3d eeaa 163b 70e1 f13c
00000030: 885c 923c 891f 163d 5934 a1bd 9b3d e23c
00000040: a6fa 253d e840 adbd 1c56 ba3c bdb1 72bc
00000050: 2f4f c03c a2d6 7a3c 5e20 b1bd 0bcf e3bc
00000060: fe58 a6bc 9a88 06bd 6ead 333b 32d2 f0bc
00000070: d48a 723d 941b e0bc 3a43 97bd 367c 503c
00000080: 9fc3 70bd 46c1 3abc ee53 303d 1321 033d
00000090: 4f9f b93a c072 6b3d 199f 30bd 874d 51bd
000000a0: b46d 253d 4c26 8cbc 6644 3ebb 8af9 0ebd
000000b0: 9522 1d3c 4161 76bc 3b63 d4bc f409 ff3b
000000c0: e885 2fbd 9683 f33b 0132 693d f0f2 453d
000000d0: 2eaf 31bd 9f6e f73d 0862 99bb 3ceb 143d
000000e0: 7b3d 82bd bd5a 6cbd a95c 53bd d96d a43d
000000f0: a966 e63c 0595 3a3d 142c d93d 2773 6bbd
00000100: 5464 f63c 9eb5 a53b cda6 51bc 7645 1f3d
00000110: 136c 063e 13e6 adbc a150 753d 8c3f 373d
00000120: 1009 05bc 96d6 f63b 5213 4e3d e3dd c93d
00000130: 5a96 bc3d e20f 95bc 5e8a ab3c 9a69 dfbc
00000140: 2194 a43d 4074 123d f422 b63d d852 74bb
00000150: c507 0f3d 01e8 223d 4fec 35bd 6496 8f3d
00000160: 7966 b83d 07f2 47bc 9764 adbc 9b10 8ebc
00000170: 750e 453b b144 ac3d 4c31 da3d b2bd e53d
00000180: 3dbe fc3d cb30 033e 81e1 14bd 8111 033d
00000190: 5c49 d43c 4007 a9bd ca21 f4bd f2b2 c13b
000001a0: 815a dfbc 6dd9 b93c 2f26 2a3d 0a4d 65bc
000001b0: f5fc 3bbd 6a3b d0bd 78c8 dfbd ee81 51bc
000001c0: 19ef f73c ce4c ce3c 9fd6 c9bc 4c4e 8cbd
000001d0: 255d bfbd 7220 fbbc 3021 b6bd 13b6 ffbc
000001e0: bd14 643c 3b53 24bc b2c3 b9bd bf74 873b
000001f0: 32e1 8fbd fcb6 b0bd e397 ea3c 8dbf 663d
00000200: 5ef7 0cbb 0bbf ecbd febe e9bb 8a41 84bd
00000210: 46ed 90bd 4e0e 153c aff9 83bd b7b9 f33a
00000220: 7af6 6ebd b81e cb3b 5c89 adbd ba79 583c
00000230: a552 e4bc da76 b2bc 1bed fd3c 5ab9 0cbd
00000240: cfdb a0bd cccc adbd fcad 70bd 595d 95bd
00000250: 0a1d 2abb 2bb6 0dbd f658 08bd db64 7cbc
00000260: d54e 5dbd 65a8 133d 2302 cebb cb4d 84bd
00000270: d870 233d 612c 4b3b cc8e 86bd 8dba 32bd
00000280: 609d dabd e0bb a0bd 1514 cfbc 2fec c2bd
00000290: 44d7 983c 3a08 d93c 4c4a 83bd defd 91bd
000002a0: 8273 c9bc bb18 6abd 233e e3bd 400d b438
000002b0: c739 3539 50bc 4a3c 32de a8bd 8449 71bd
000002c0: 9bb2 9eba 845b 43bd 6dbe babd 85ee 88bd
000002d0: 2f41 f53c ff0e 473c 3bd5 25bd 900b debc
000002e0: acbb e0bc e90a 363c 5504 b6bd 3cdb c2bd
000002f0: b2a0 52bd 7198 f73c f90d e839 4e81 36bd
00000300: f1b0 b9bc f847 863c 0452 b7bb a7a1 e1bd
00000310: 0d0d 033d 75b6 993d b0d5 5bbd 22c8 823d
00000320: 41b1 143c 7731 a33c 5969 3e3d 65f9 383d
00000330: 0e5f f6ba 1e13 f4bc cc0c a53d c2ae 993d
00000340: 43af 003d aca2 ab3c a5ee 9e3d 842c 84bd
00000350: 1763 023d bb1f b03d ff48 eb3c d58e cb3d
00000360: 3e76 4fbc 2282 983d b502 64bd 130d 87bd
00000370: 005c 3ebd cb2e 853b 37b9 b23d 978b 443d
00000380: ab78 86bd 0c03 1b3d decc a43d 6661 9b3b
00000390: 08f7 983c b818 cc3d e93d 4d3d 7fd1 b03d
000003a0: 176d 88bd 1728 893c a62b 52bd 0bda 06bc
000003b0: 8cb0 263d 0599 4bbd 1883 cc3c 4aed 7fbd
000003c0: 41cd f0bc 383f 6b3d c005 2b3c 9da4 0d3d
000003d0: 828b 2ebd f697 64bd c9aa 95bd 32a9 82bd
000003e0: a3b8 943d 2dce 1e3d 045e 8abd 001e 2f3d
000003f0: 462e 5f3d 9564 5f3d 7e69 583d e71c eb3c

conv1.3.weight f4 [20]
1.0100441 1.0211661 1.0160615 0.97427255 1.0021054 0.97753805 0.95852643 0.9634298
0.9735845 1.0210804 1.0209062 1.0148308 0.9738501 0.97771037 0.97755253 1.0078448
0.99766123 0.98352635 0.9716014 0.9910965
00000000: 2049 813f 92b5 823f 4e0e 823f ed69 793f
00000010: fd44 803f ef3f 7a3f fd61 753f 56a3 763f
00000020: d53c 793f c3b2 823f 0ead 823f fae5 813f
00000030: 3d4e 793f 3a4b 7a3f e240 7a3f 0f01 813f
00000040: ba66 7f3f 62c8 7b3f dfba 783f 80b8 7d3f

conv1.3.bias f4 [20]
-0.042135265 -0.041546386 0.020384474 -0.049449824 0.014565104 -0.011386045 -0.07002964 -0.064105615
-0.018940516 0.020820254 -0.030371489 0.04061904 0.008052471 -0.031392936 -0.06192412 -0.08322005
-0.03522932 0.011900092 -0.03764537 -0.07632898
00000000: 0796 2cbd 8b2c 2abd 57fd a63c e68b 4abd
00000010: 79a2 6e3c 898c 3abc b36b 8fbd ce49 83bd
00000020: 2429 9bbc 3d8f aa3c a1cd f8bc 2760 263d
00000030: 83ee 033c e195 00bd 25a4 7dbd 466f aabd
00000040: 9f4c 10bd 9af8 423c 0832 1abd 5e52 9cbd

conv1.3.running_mean f4 [20]
0.09014068 0.19886853 0.1726348 0.19063558 0.026281996 0.16158827 0.17872497 0.043937832
0.5252257 0.1028214 0.18845628 0.5558993 0.35268474 0.8078997 0.16790198 0.06723288
0.07762828 0.04540364 0.07756385 0.20540033
00000000: ad9b b83d 31a4 4b3e 2dc7 303e f935 433e
00000010: 574d d73c 6577 253e ae03 373e 28f8 333d
00000020: 3175 063f 0794 d23d affa 403e 6b4f 0e3f
00000030: 1893 b43e 84d2 4e3f 7fee 2b3e 64b1 893d
00000040: 93fb 9e3d 2bf9 393d ccd9 9e3d 7754 523e

conv1.3.running_var f4 [20]
0.14210491 0.15077904 0.20722766 0.10351742 0.026596531 0.479026 0.21053122 0.09842204
0.64249 0.12508436 0.24461947 2.258563 0.3937017 1.0718305 0.16898873 0.10333575
0.10286579 0.09454713 0.12042314 0.26039666
00000000: f383 113e d265 1a3e 7d33 543e f100 d43d
00000010: f8e0 d93c e542 f53e 7f95 573e 7f91 c93d
00000020: 3a7a 243f 1d16 003e 877d 7a3e 4c8c 1040
00000030: 4593 c93e be31 893f 620b 2d3e b2a1 d33d
00000040: 4dab d23d eda1 c13d 68a0 f63d b652 853e

conv2.0.weight f4 [40, 20, 7, 7]
-0.035648946 -0.04353727 -0.01778342 -0.009918912 -0.010632147 -0.010868347 0.009362844 0.01939732
-0.002381097 0.0026234132 -0.0040797754 0.014166088 -0.014999685 -0.0418014 0.015910408 -0.041000627
-0.0050969026 -0.009830099 -0.008461642 0.008492643 -0.01542898 -0.030070549 -0.032594584 -0.007656108
-0.010414129 -0.0008065308 0.0155489035 -0.011761499 -0.01563164 -0.014872519 -0.027669642 0.0025234164
-0.032225654 -0.031287055 -0.022230098 -0.024398975 -0.010274679 8.5914806e-05 0.0053900164 0.025726115
0.017998459 0.0006458315 0.0060413852 0.007796645 -0.008140427 0.021988632 -0.019638928 0.0019487591
0.025216363 0.0039130026 -0.028061047 0.027605508 0.023433786 0.011567164 0.010388342 -0.0096293595
0.0073935403 0.023939047 0.003506613 0.024486901 0.0032185558 -0.0032373883 -0.027006298 0.0049478672
-0.00012148825 0.016941782 0.03183927 -0.01547598 -0.02254859 0.0017657911 0.04039558 0.007500711
0.026440633 -0.014398822 0.006360033 -0.016479552 -0.00394164 0.027366703 0.047849733 0.041053068
0.0033719335 0.0071027786 0.0275105 -0.016409608 -0.010400797 0.037873924 0.026321465 0.007534784
0.011248636 0.03598539 0.01834763 0.02652445 0.02399097 0.022779921 0.043749683 0.045090273
0.035817645 0.020156227 0.015221813 0.017998707 0.018669115 -0.02092857 0.005354348 -0.019145275
-0.016181042 0.028558807 0.013987481 0.03390369 0.031526607 -0.014979329 0.019865705 0.020699175
0.02386375 0.012727588 0.012290017 0.020288039 -0.014309241 0.018537117 0.007573305 0.001641969
-0.008745102 0.0068751858 -0.026803462 -0.0075918217 -0.017415738 0.002840002 0.025145466 -0.016673291
0.03358825 0.04104324 -0.0070350696 0.05122272 0.036221918 0.009979339 0.037924204 -0.010633403
0.035817277 -0.01294983 -0.017218567 0.00058608147 0.0014060725 0.038038615 0.021930471 0.049492516
-0.007869003 0.03997591 0.008312887 0.017324865 -0.029326787 -0.035464276 1.1674523e-05 -0.0053017847
0.024397152 -0.031898685 -0.016739639 -0.036321282 0.02293896 -0.03280943 0.00860241 0.008930187
0.0030732322 0.003515802 0.022907764 -0.00063825643 7.734931e-05 0.0052921064 0.007303945 0.015658678
0.039062522 0.033208787 0.024710374 -0.01764009 0.0049454593 0.0062285922 -0.03199606 0.014387247
0.023283662 -0.009652573 -0.007959193 0.0072892285 0.010434747 0.0011338233 0.007965998 -0.0115452865
0.031210799 -0.011818508 0.005923492 -0.0064862235 0.0066429893 0.005212746 -0.007197835 0.010255452
0.01829558 -0.0004981344 0.02852468 -0.00614 0.013396771 -0.03483038 -0.03529899 -0.03896155
-0.008184808 -0.017706962 -0.0086840205 -0.0055412403 -0.0007325827 0.01900684 -0.011120603 -0.03690474
-0.0033683404 0.02867604 -0.0019866694 -0.0061401096 0.009584881 0.02084219 0.011613436 0.019078292
-0.025291454 0.01941233 0.003331405 0.02702639 0.021651769 -0.028232003 -0.020145439 -0.022439154
-0.0046673156 0.027118763 0.028513845 0.031690788 0.021142619 0.008345652 -0.026366584 0.029238414
0.008876026 0.024658302 -0.026703434 -0.014687283 0.023866111 -0.013099762 0.003455994 -0.022703826
-0.01349249 -0.028521407 -0.018344276 -0.03299298 -0.028694408 -0.0062130243 0.012473682 -0.00890228
-0.0022735994 -0.019447034 -0.0040144846 -0.029582243 -0.0011480273 -0.021149952 0.023488522 0.03024595
00000000: a104 12bd 2354 32bd 89ae 91bc ef82 22bc
00000010: 7532 2ebc 2711 32bc 9d66 193c 21e7 9e3c
00000020: 2e0c 1cbb 92ed 2b3b a3af 85bb e118 683c
00000030: 3dc1 75bc f237 2bbd 8b56 823c 46f0 27bd
00000040: eb03 a7bb 6c0e 21bc b3a2 0abc ba24 0b3c
00000050: d5c9 7cbc 8356 f6bc e681 05bd 17e0 fabb
00000060: 06a0 2abc 5e6d 53ba d4c0 7e3c 4db3 40bc
00000070: ed0d 80bc deab 73bc 72ab e2bc e75f 253b
00000080: 0cff 03bd db26 00bd e51b b6bc 5ce0 c7bc
00000090: 2157 28bc 292d b438 bc9e b03b 93bf d23c
000000a0: 8171 933c 054d 293a d0f6 c53b 007b ff3b
000000b0: 6d5f 05bc 8121 b43c d1e1 a0bc 816d ff3a
000000c0: 8c92 ce3c a538 803b 48e0 e5bc f224 e23c
000000d0: 36f8 bf3c 3484 3d3c dd33 2a3c 76c4 1dbc
000000e0: 8345 f23b d21b c43c 34cf 653b c198 c83c
000000f0: 68ee 523b 5d2a 54bb 503c ddbc b821 a23b
00000100: 82c7 feb8 7ec9 8a3c e569 023d f78e 7dbc
00000110: d2b7 b8bc 1e72 e73a d675 253d 86c8 f53b
00000120: 079a d83c 09e9 6bbc d367 d03b 2000 87bc
00000130: df28 81bb 2330 e03c 15fe 433d 4327 283d
00000140: a8fb 5c3b 6dbe e83b b35d e13c 716d 86bc
00000150: 1b68 2abc b021 1b3d 1da0 d73c 59e6 f63b
00000160: 334c 383c 6b65 133d c54d 963c ce49 d93c
00000170: b688 c43c f59c ba3c de32 333d 94b0 383d
00000180: 86b5 123d ac1e a53c e964 793c 0672 933c
00000190: f9ef 983c 6472 abbc 8773 af3b 8dd6 9cbc
000001a0: 1b8e 84bc 29f4 e93c bf2b 653c 98de 0a3d
000001b0: 0b22 013d dc6b 75bc 67bd a23c 5191 a93c
000001c0: e97d c33c 6087 503c 115c 493c 1a33 a63c
000001d0: 4f71 6abc 27db 973c 7d29 f83b 5637 d73a
000001e0: 9e47 0fbc 3d49 e13b ef92 dbbc d1c4 f8bb
000001f0: 73ab 8ebc 541f 3a3b ddfd cd3c 6d96 88bc
00000200: d593 093d f51c 283d 7186 e6bb eace 513d
00000210: 6f5d 143d 6280 233c 6956 1b3d ba37 2ebc
00000220: 23b5 123d 862b 54bc f40d 8dbc 43a3 193a
00000230: f74b b83a 61ce 1b3d 88a7 b33c aab8 4a3d
00000240: feec 00bc c8bd 233d c632 083c e0ec 8d3c
00000250: bb3e f0bc fd42 11bd b2dd 4337 98ba adbb
00000260: 89dc c73c 32a8 02bd 9121 89bc a0c5 14bd
00000270: 7cea bb3c 2e63 06bd 1ff1 0c3c eb4f 123c
00000280: 4868 493b 5f69 663b 10a9 bb3c aa50 27ba
00000290: 9836 a238 6869 ad3b ee55 ef3b a146 803c
000002a0: 0600 203d f005 083d 696d ca3c f381 90bc
000002b0: 850d a23b 3819 cc3b 4d0e 03bd 7db8 6b3c
000002c0: 61bd be3c d325 1ebc 4667 02bc 7bda ee3b
000002d0: 80f6 2a3c cc9c 943a d183 023c 7128 3dbc
000002e0: caad ff3c 6aa2 41bc da19 c23b 638a d4bb
000002f0: 6fad d93b afcf aa3b d1db ebbb 7c06 283c
00000300: 9de0 953c 3c95 02ba 97ac e93c 0e32 c9bb
00000310: 217e 5b3c 4daa 0ebd ac95 10bd 2596 1fbd
00000320: 9319 06bc 310e 91bc 6c47 0ebc 4b93 b5bb
00000330: cb0a 40ba 3cb4 9b3c 3133 36bc 6d29 17bd
00000340: 60bf 5cbb 04ea ea3c c832 02bb f932 c9bb
00000350: e809 1d3c 3ebd aa3c 4846 3e3c 144a 9c3c
00000360: 0630 cfbc 9b06 9f3c b453 5a3b 7366 dd3c
00000370: 0d5f b13c cd46 e7bc 0c08 a5bc 51d2 b7bc
00000380: 48f0 98bb 2b28 de3c de95 e93c 33ce 013d
00000390: 4933 ad3c 34bc 083c bcfe d7bc 6685 ef3c
000003a0: c06c 113c 3500 ca3c 29c1 dabc eea2 70bc
000003b0: dd82 c33c 62a0 56bc f57d 623b 60fd b9bc
000003c0: 9b0f 5dbc baa5 e9bc bc46 96bc a623 07bd
000003d0: 8910 ebbc a096 cbbb 6a5e 4c3c deda 11bc
000003e0: ab00 15bb 634f 9fbc f08b 83bb 7656 f2bc
000003f0: 6779 96ba aa42 adbc 006b c03c 5bc6 f73c

conv2.2.weight f4 [40]
0.9763778 0.9817664 0.975694 1.0043752 0.95549226 1.0444369 0.99266076 0.9907979
1.0064225 1.026736 0.9689976 1.000951 1.0066278 0.9829803 1.0161572 0.99480814
0.99818987 0.9444952 0.9986862 1.000168 1.0020657 1.0127779 0.9819672 0.98604447
0.99438834 1.0151027 1.019869 0.98568344 0.9908617 0.96008873 0.99081486 1.0033274
0.98078465 0.96780884 1.0034564 1.0217457 1.0299802 0.9678894 1.023174 0.96872956
00000000: e5f3 793f 0b55 7b3f 15c7 793f 5e8f 803f
00000010: 249b 743f 1cb0 853f 041f 7e3f eea4 7d3f
00000020: 74d2 803f 166c 833f 3a10 783f 2a1f 803f
00000030: 2ed9 803f 99a4 7b3f 7011 823f bfab 7e3f
00000040: 5f89 7f3f 70ca 713f e6a9 7f3f 8105 803f
00000050: b043 803f b5a2 813f 3462 7b3f 696d 7c3f
00000060: 3c90 7e3f e3ee 813f 118b 823f c055 7c3f
00000070: 1da9 7d3f 60c8 753f 0ba6 7d3f 086d 803f
00000080: b414 7b3f 52c2 773f 4271 803f 90c8 823f
00000090: 64d6 833f 9ac7 773f 5ef7 823f a9fe 773f

conv2.2.bias f4 [40]
0.07667605 -0.04562544 0.08630175 0.055761505 -0.006933303 0.12425056 0.0149837015 0.0369166
0.05677486 0.08081661 0.0017282787 -0.039866656 -0.0010870117 0.011387564 0.027485298 0.11113365
-0.021442706 -0.008476162 0.02297043 0.027403094 -0.04743228 0.031041075 0.02076243 -0.05981167
0.0026546991 -0.0060314457 0.028275369 0.057811897 0.014265558 0.049173016 -0.02423755 0.06620639
-0.00046192209 0.06660573 0.0069725052 0.02463269 0.06569685 0.068414524 0.020992905 0.061129976
00000000: 5508 9d3d bee1 3abd f9be b03d 2d66 643d
00000010: c330 e3bb 1477 fe3d 337e 753c dc35 173d
00000020: c18c 683d 2e83 a53d 6987 e23a 384b 23bd
00000030: 0f7a 8eba e892 3a3c d928 e13c 0a9a e33d
00000040: 9da8 afbc 9adf 0abc 7c2c bc3c 747c e03c
00000050: 5a48 42bd da49 fe3c f915 aa3c 15fd 74bd
00000060: 76fa 2d3b 6fa3 c5bb bfa1 e73c 2bcc 6c3d
00000070: 16ba 693c a569 493d d48d c6bc 3797 873d
00000080: 222e f2b9 9668 883d 9d79 e43b 7fca c93c
00000090: 128c 863d ea1c 8c3d 50f9 ab3c 6d63 7a3d

conv2.2.running_mean f4 [40]
0.9092143 1.5662891 0.7814255 1.798104 1.030007 2.7098 1.8230511 1.8338963
1.2110939 2.0479078 1.4750779 0.74827164 1.3158336 1.7742336 2.24648 1.2361283
0.9405123 0.88269544 1.583781 1.8054936 1.3602369 2.3976302 1.0865782 1.6157757
1.5752331 2.1489215 1.790013 1.0521462 1.2827206 1.6058409 1.6106812 1.5782566
2.4642456 0.8131441 1.3034812 2.4561844 1.5797429 1.5700928 2.018611 2.2216263
00000000: 45c2 683f 297c c83f 800b 483f 4628 e63f
00000010: 45d7 833f 5d6d 2d40 bd59 e93f 1dbd ea3f
00000020: 2005 9b3f ec10 0340 5acf bc3f bb8e 3f3f
00000030: 3c6d a83f 161a e33f 54c6 0f40 7439 9e3f
00000040: 6ac5 703f 54f8 613f 56b9 ca3f 6a1a e73f
00000050: 3e1c ae3f c672 1940 ff14 8b3f bdd1 ce3f
00000060: 3da1 c93f ee87 0940 251f e53f baac 863f
00000070: 3030 a43f 328c cd3f cd2a ce3f 5004 ca3f
00000080: 33b6 1d40 362a 503f 79d8 a63f 2032 1d40
00000090: 0435 ca3f cdf8 c83f ec30 0140 202f 0e40

conv2.2.running_var f4 [40]
2.7662103 5.016088 3.8499618 5.9757395 3.4494627 9.498971 5.2751703 11.7379
6.0509224 9.456821 3.9118593 3.396766 5.702401 9.776906 11.677886 4.2066064
3.6215327 1.7154753 3.072043 5.3881073 4.9753795 8.41182 4.6683784 3.229593
3.250908 7.7970943 9.455495 5.3318796 6.173193 3.346589 5.036704 8.701582
16.264118 5.4367995 3.734532 8.177908 6.441452 5.8024426 7.097292 12.889669
00000000: 9709 3140 cb83 a040 c665 7640 4239 bf40
00000010: ffc3 5c40 c9fb 1741 32ce a840 70ce 3b41
00000020: 28a1 c140 244f 1741 e75b 7a40 9d64 5940
00000030: 127a b640 356e 1c41 9fd8 3a41 859c 8640
00000040: 31c7 6740 b294 db3f 5a9c 4440 606b ac40
00000050: 4f36 9f40 d196 0641 5b63 9540 a7b1 4e40
00000060: e00e 5040 cc81 f940 b549 1741 c29e aa40
00000070: cc8a c540 842e 5640 ae2c a140 ae39 0b41
00000080: ea1c 8241 43fa ad40 9302 6f40 b6d8 0241
00000090: 6020 ce40 9cad b940 041d e340 163c 4e41

conv3.0.weight f4 [80, 40, 3, 3]
-0.06312843 -0.04149618 0.027526474 -0.02707502 -0.03232211 -0.043576386 -0.02956942 -0.051321134
-0.0350843 -0.018406492 -0.018079307 -0.05714515 -0.061926365 0.019144438 -0.021563035 -0.042610902
0.013246324 0.006955821 0.046603043 0.027082937 -0.0064216964 -0.04035605 0.0022990399 -0.03040984
0.023786096 0.040818937 0.01084938 0.024500364 -0.026858402 -0.031626716 0.04451474 0.0025647802
0.019270882 0.034541335 0.04655045 -0.029114697 0.022713609 -0.052269287 0.014928938 -0.06302729
0.010074052 -0.046375792 -0.006938165 -0.01845938 -0.05689541 -0.03228293 -0.054772858 -0.018291371
0.02795581 -0.05754712 -0.061877694 -0.021495538 0.0052570077 -0.033902027 0.0017172116 0.0032716787
-0.049069703 0.025877457 0.010420155 -0.0643102 -0.03745995 0.011306832 -0.03138758 0.007001272
-0.06195281 -0.014521936 -0.042923447 -0.036642194 -0.045666594 0.014253541 -0.0023540324 0.018690705
0.03223875 -0.031247871 0.025457244 -0.038891997 0.03018532 0.038161486 0.025382547 -0.0065869177
0.04790741 -0.04452198 -0.07127306 -0.055186223 -0.02050489 0.033978924 0.013129313 0.047020443
-0.04737463 -0.038745385 -0.012326733 -0.007486643 -0.05351359 -0.0013743369 0.014621248 0.027631707
-0.034423165 -0.027840907 -0.06535919 0.014622267 0.029574245 -0.015628062 0.010727197 0.046172317
0.018619152 0.05667529 0.013391152 0.054080117 -0.015186203 -0.047778744 0.031574897 0.020928338
0.040232074 0.043263584 -0.019108124 -0.0011112328 -0.043551296 -0.048117973 0.04651388 0.010075724
0.0053745233 -0.064015545 -0.0519356 -0.015692042 -0.07005879 0.00014749292 -0.012435433 0.025997011
-0.047941014 0.03031871 0.022727774 0.007454575 0.007960008 0.020412326 0.007449244 -0.03788459
-0.034089435 -0.012192115 -0.061212122 -0.04297775 0.005668704 0.023881128 -0.027747842 -0.048562486
0.027113313 0.05079997 0.03265842 -0.0552562 0.009148504 0.0041407724 -0.0609147 -0.01742848
-0.033167053 0.022866558 0.03757937 -0.0065927566 -0.020068035 -0.0005008053 -0.04748365 0.030839557
-0.034053396 -0.018455332 0.04750156 0.0046301326 -0.028166715 -0.043556757 0.02239386 -0.03449026
-0.034979217 -0.02127624 -0.059994414 0.02973914 0.046970908 -0.018926093 -0.03287375 0.0018082894
-0.010725433 0.012581855 0.005072352 -0.0390799 -0.025610838 -0.033105116 0.06520288 0.05388641
-0.015888115 0.0072248024 0.0014287714 -0.020276077 0.013769862 -0.037026417 -0.0057914974 -0.032279026
0.042903345 0.027242942 0.0177816 0.05216883 -0.056184642 -0.0359861 0.022224141 -0.027011324
0.012684689 0.0039996123 -0.025151307 -0.021210002 -0.009618017 -0.05406231 -0.00310321 0.04695451
-0.011564104 -0.04192269 -0.01206973 0.002379442 0.023028895 -0.0026472039 -0.013804717 0.009262635
-0.0014358695 -0.036551986 0.0082027055 -0.03359163 -0.02238457 -0.05117084 -0.011775968 -0.055647135
0.024431568 -0.008195756 -0.014767823 -0.009295726 0.042699203 0.0304629 -0.047836695 -0.014155058
0.015430595 0.0070038075 0.049343362 -0.035448655 -0.04882232 0.058142886 0.03210001 -0.03763095
-0.020897077 0.03860145 0.024741678 -0.065365374 -0.015180707 -0.052204657 0.018289007 0.0410882
-0.05203389 0.003246148 -0.024951747 -0.044511802 0.0023077086 -0.01957923 -0.03318087 -0.05212702
00000000: 7a49 81bd e6f7 29bd 337f e13c 6fcc ddbc
00000010: 3064 04bd 277d 32bd 913b f2bc 1c36 52bd
00000020: 8eb4 0fbd 36c9 96bc 0e1b 94bc 0811 6abd
00000030: 80a6 7dbd ccd4 9c3c f6a4 b0bc c588 2ebd
00000040: 1c07 593c a8ed e33b d5e2 3e3d 09dd dd3c
00000050: 186d d2bb 634c 25bd 7dab 163b 0f1e f9bc
00000060: 0fdb c23c c231 273d 99c1 313c fdb4 c83c
00000070: 2706 dcbc 048b 01bd 1755 363d df15 283b
00000080: f8dd 9d3c 377b 0d3d afab 3e3d f281 eebc
00000090: e411 ba3c 5218 56bd 8198 743c 7414 81bd
000000a0: a30d 253c 8bf4 3dbd 8c59 e3bb 2038 97bc
000000b0: 290b 69bd 1b3b 04bd 8159 60bd c9d7 95bc
000000c0: 9503 e53c 87b6 6bbd 7773 7dbd 6917 b0bc
000000d0: fa42 ac3b dadc 0abd 0f14 e13a a969 563b
000000e0: 50fd 48bd f6fc d33c 4cb9 2a3c 11b5 83bd
000000f0: 9b6f 19bd 4a40 393c 4390 00bd ed6a e53b
00000100: 3bc2 7dbd 6aed 6dbc 7fd0 2fbd 2016 16bd
00000110: e50c 3bbd af87 693c 1c46 1abb 401d 993c
00000120: c80c 043d 89fb ffbc b68b d03c 374d 1fbd
00000130: 3447 f73c 384f 1c3d 0fef cf3c 12d7 d7bb
00000140: 8f3a 443d ae5c 36bd 9cf7 91bd f30a 62bd
00000150: dff9 a7bc 7c2d 0b3d 541c 573c 8298 403d
00000160: e60b 42bd 7bb3 1ebd 11f6 49bc 8352 f5bb
00000170: 1131 5bbd 1823 b4ba f58d 6f3c e45b e23c
00000180: 4eff 0cbd 9d12 e4bc 0adb 85bd 3c92 6f3c
00000190: b045 f23c 6c06 80bc 20c1 2f3c 2f1f 3d3d
000001a0: 3187 983c 5924 683d 9066 5b3c 1d83 5d3d
000001b0: 8dcf 78bc a5b3 43bd ae54 013d e871 ab3c
000001c0: 63ca 243d 2835 313d a488 9cbc c9a6 91ba
000001d0: d862 32bd 5a17 45bd 5785 3e3d a614 253c
000001e0: c51c b03b 951a 83bd 6cba 54bd 998c 80bc
000001f0: fc7a 8fbd 54a8 1a39 fdbd 4bbc aff7 d43c
00000200: cc5d 44bd f15e f83c 992f ba3c 8245 f43b
00000210: b26a 023c c037 a73c ca18 f43b df2c 1bbd
00000220: 5da1 0bbd 70c1 47bc 90b9 7abd 7009 30bd
00000230: 89c0 b93b 5ba2 c33c 714f e3bc 75e9 46bd
00000240: bd1c de3c a113 503d d6c4 053d 5354 62bd
00000250: 9be3 153c 51af 873b b181 79bd 2cc6 8ebc
00000260: 2dda 07bd a652 bb3c d3ec 193d 0d08 d8bb
00000270: b865 a4bc 7a48 03ba 377e 42bd 3da3 fc3c
00000280: 937b 0bbd a32f 97bc ff90 423d 5eb8 973b
00000290: e2bd e6bc 9268 32bd 5473 b73c a945 0dbd
000002a0: 5e46 0fbd 824b aebc b4bc 75bd 7f9f f33c
000002b0: 9164 403d e50a 9bbc a0a6 06bd 2004 ed3a
000002c0: bab9 2fbc 2024 4e3c f935 a63b 3f12 20bd
000002d0: d2cd d1bc 3b99 07bd 1689 853d ffb7 5c3d
000002e0: cb27 82bc 09be ec3b 9d45 bb3a 041a a6bc
000002f0: fd9a 613c 03a9 17bd 9ac6 bdbb 0337 04bd
00000300: 6bbb 2f3d 972c df3c b8aa 913c fcae 553d
00000310: de21 66bd 2966 13bd 670f b63c da46 ddbc
00000320: 71d3 4f3c 2e0f 833b 1d0a cebc 99c0 adbc
00000330: e394 1dbc 7170 5dbd 395f 4bbb 5f53 403d
00000340: 5e77 3dbc 20b7 2bbd 1ec0 45bc 6af0 1b3b
00000350: 18a7 bc3c b67c 2dbb 2e2d 62bc 4fc2 173c
00000360: c933 bcba 89b7 15bd a464 063c 6197 09bd
00000370: d95f b7bc 8498 51bd fdef 40bc 40ee 63bd
00000380: b624 c83c 7e47 06bc bdf4 71bc 1a4d 18bc
00000390: 5ce5 2e3d 558d f93c 69f0 43bd 9eea 67bc
000003a0: 9bd0 7c3c 3280 e53b 441c 4a3d 9c32 11bd
000003b0: eaf9 47bd 3c27 6e3d 4d7b 033d e922 1abd
000003c0: 5930 abbc 8e1c 1e3d 0faf ca3c 48de 85bd
000003d0: 80b8 78bc 8dd4 55bd d4d2 953c 1a4c 283d
000003e0: 7d21 55bd 53bd 543b 9b67 ccbc 0252 36bd
000003f0: ed3c 173b 9f64 a0bc aae8 07bd 2483 55bd

conv3.0.bias f4 [80]
0.009178929 -0.035406962 -0.09297329 -0.066879205 -0.022603644 -0.08158348 0.015494638 0.038715187
0.056799714 -0.025352314 0.037368815 -0.0033622887 -0.015983483 -0.008273664 -0.11306621 0.024082068
-0.025062317 0.061982818 -0.055046953 0.055656698 -0.012443155 0.020071754 0.012842204 -0.10724737
-0.023375718 0.043146618 -0.0519576 0.02282967 0.0028539496 0.062497098 0.010873143 -0.012082259
-0.044252843 -0.07969888 -0.010146459 0.017859828 -0.057657875 0.12561315 -0.005883047 0.0627983
0.011776483 -0.11466857 -0.03278336 0.028704606 -0.021094933 0.020336572 0.04337767 0.013442866
0.035293296 0.0090151215 0.041079916 -0.030256001 -0.02222769 -0.011426158 -0.032781266 0.034818977
-0.00271723 -0.050556477 -0.011748228 -0.08404165 -0.016811874 0.026253961 0.05923805 -0.07607583
-0.05888996 0.065100275 0.038346663 0.076754645 -0.02055135 0.033250947 -0.038226895 0.01436117
-0.046952613 0.012658277 0.0031624394 -0.120793775 0.0128813535 -0.027967088 -0.22397813 0.047987003
00000000: 3863 163c e406 11bd c868 bebd f7f7 88bd
00000010: 472b b9bc 3d15 a7bd 39dd 7d3c d193 1e3d
00000020: d1a6 683d a8af cfbc 0b10 193d d859 5cbb
00000030: cbef 82bc 438e 07bc 428f e7bd c247 c53c
00000040: 7d4f cdbc b2e1 7d3d ea78 61bd 47f8 633d
00000050: 60de 4bbc 856d a43c 1c68 523c 82a4 dbbd
00000060: 6f7e bfbc 82ba 303d 7ed1 54bd 4a05 bb3c
00000070: 5409 3b3b f5fc 7f3d 4425 323c abf4 45bc
00000080: 7842 35bd 2b39 a3bd 553d 26bc c64e 923c
00000090: aa2a 6cbd bca0 003e 93c6 c0bb 659c 803d
000000a0: 26f2 403c 5bd7 eabd d847 06bd ec25 eb3c
000000b0: 48cf acbc e298 a63c c9ac 313d 773f 5c3c
000000c0: b48f 103d 29b4 133c 6a43 283d 6fdb f7bc
000000d0: d816 b6bc c834 3bbc a645 06bd 589e 0e3d
000000e0: 8e13 32bb 4f14 4fbd a47b 40bc 071e acbd
000000f0: 0eb9 89bc 8c12 d73c 99a3 723d a5cd 9bbd
00000100: 9936 71bd 4b53 853d 6411 1d3d 8a31 9d3d
00000110: 4e5b a8bc 2532 083d ce93 1cbd 1d4b 6b3c
00000120: 6251 40bd a964 4f3c ee40 4f3b ba62 f7bd
00000130: 500c 533c 3c1b e5bc 865a 65be 058e 443d

conv3.2.weight f4 [80]
0.97010887 0.9939087 1.0276324 1.0106422 1.0134083 0.9634379 1.0078216 0.9750495
0.9890424 0.98514074 0.98441297 1.0054657 0.99890774 0.99954903 1.0378898 0.9803077
1.0074693 0.92863655 0.99465597 0.99650884 0.97407854 0.9963663 0.9720827 1.0401574
0.993086 1.0094975 0.97139174 0.98387134 1.0466511 1.0028857 0.98882717 0.9435481
0.9913939 0.95527977 1.0009891 0.95345986 0.9820302 0.97073823 0.9418631 0.9691589
1.0317969 1.0145019 1.0257242 0.98144585 0.9822803 0.9775456 0.9998765 1.0025573
0.9555937 0.98126185 0.97960645 0.95894915 0.9999847 1.0121222 0.9643947 0.9915634
0.99736965 1.0060041 0.98911977 1.0427392 1.0165051 0.9453908 0.9798657 0.96807855
1.0057386 0.97583646 1.0161848 0.96592027 1.0091845 0.9918812 0.92871064 0.97769547
0.9881827 0.977445 0.9479396 1.0634565 0.9801426 1.0189077 1.0582767 1.0036625
00000000: 0e59 783f cd70 7e3f 7589 833f b95c 813f
00000010: 5db7 813f dea3 763f 4c00 813f d89c 793f
00000020: e231 7d3f 2f32 7c3f 7d02 7c3f 1ab3 803f
00000030: 6bb8 7f3f 72e2 7f3f 93d9 843f 72f5 7a3f
00000040: c1f4 803f 20bb 6d3f c6a1 7e3f 341b 7f3f
00000050: 365d 793f dd11 7f3f 69da 783f e123 853f
00000060: e23a 7e3f 3737 813f 21ad 783f fede 7b3f
00000070: aaf8 853f 8f5e 803f c723 7d3f 5e8c 713f
00000080: fecb 7d3f 378d 743f 6920 803f f215 743f
00000090: 5566 7b3f 4d82 783f f11d 713f cc1a 783f
000000a0: ec11 843f 33db 813f ee4a 833f 0940 7b3f
000000b0: b976 7b3f 6e40 7a3f e8f7 7f3f cc53 803f
000000c0: caa1 743f fa33 7b3f 7dc7 7a3f b17d 753f
000000d0: fffe 7f3f 388d 813f 92e2 763f 19d7 7d3f
000000e0: 9e53 7f3f bec4 803f f436 7d3f 7a78 853f
000000f0: d71c 823f 2205 723f 7ad8 7a3f ffd3 773f
00000100: 0bbc 803f 6bd0 793f 5812 823f 8d46 773f
00000110: f52c 813f edeb 7d3f fbbf 6d3f 404a 7a3f
00000120: 8bf9 7c3f d639 7a3f 2bac 723f 581f 883f
00000130: a0ea 7a3f 916b 823f 9c75 873f 0378 803f

conv3.2.bias f4 [80]
-0.012569305 0.041798864 -0.04592973 -0.020085717 -0.009772755 0.047265906 0.067751445 0.052370038
-0.013721884 0.061195344 0.10129002 -0.0051826476 0.09258549 0.02567086 0.0016897557 0.076102674
-0.020385187 0.053592842 0.06453348 0.10981639 0.055963356 -0.0054853754 0.092100814 0.07973286
-0.11329158 -0.06274687 -0.056137733 0.047280002 0.04367628 -0.077048756 0.011295407 0.011198606
-0.014698392 0.017335081 -0.0007109785 0.02507179 -0.07024559 0.06416729 0.084838465 0.10722375
-0.04617848 0.013680303 0.106933504 -0.07873259 0.033232737 0.039675824 0.14594518 0.10824096
-0.040792633 0.060281765 0.071434215 0.01341056 -0.05246998 0.07036035 0.016853107 0.08365437
-0.044169612 -0.09890732 -0.08209092 -0.09157485 -0.057083305 -0.01150982 -0.046502385 0.042381633
-0.011732353 0.095063604 -0.087989815 -0.036037896 -0.013424622 0.008416453 0.005678981 -0.054768577
0.01776923 -0.026894554 0.08987765 -0.05149089 0.09942843 0.13406283 -0.106114194 0.03811618
00000000: 7cef 4dbc 4935 2b3d d020 3cbd cd8a a4bc
00000010: e81d 20bc e599 413d 45c1 8a3d f781 563d
00000020: c1d1 60bc f8a7 7a3d 2471 cf3d 33d3 a9bb
00000030: 769d bd3d b24b d23c cb7a dd3a b8db 9b3d
00000040: d6fe a6bc 2b84 5b3d 212a 843d 6ae7 e03d
00000050: d539 653d aabe b3bb 5a9f bc3d fb4a a33d
00000060: 6a05 e8bd 6e81 80bd aef0 65bd ada8 413d
00000070: e6e5 323d bdcb 9dbd 5f10 393c 5c7a 373c
00000080: 86d1 70bc 4d02 8e3c f660 3aba 5b63 cd3c
00000090: ebdc 8fbd 246a 833d cabf ad3d 2098 db3d
000000a0: a525 3dbd 5923 603c f4ff da3d 8d3e a1bd
000000b0: 0d1f 083d 1e83 223d a772 153e 70ad dd3d
000000c0: 2d16 27bd 03ea 763d 1a4c 923d f7b7 5b3c
000000d0: c3ea 56bd 1619 903d 870f 8a3c fb52 ab3d
000000e0: 32eb 34bd ec8f cabd 491f a8bd 988b bbbd
000000f0: 2fd0 69bd af93 3cbc 4979 3ebd 5d98 2d3d
00000100: 0e39 40bc b5b0 c23d 0134 b4bd 799c 13bd
00000110: f2f2 5bbc 2ae5 093c bf16 ba3b 0455 60bd
00000120: c790 913c f851 dcbc c611 b83d 1de8 52bd
00000130: 22a1 cb3d c447 093e 6652 d9bd b61f 1c3d

conv3.2.running_mean f4 [80]
0.3056395 0.3421715 0.88725954 0.8925414 0.78205323 0.432148 0.7181066 0.48336208
0.74869466 0.6999879 0.74671626 0.3796547 0.67402065 0.7680498 0.085598834 0.6878208
0.67958933 0.7987995 0.60320437 0.77154785 0.5612979 0.45016167 0.38835618 0.29269633
0.3666635 0.51912993 0.4858938 0.52013975 0.26269537 0.73682314 0.4419361 0.4979297
0.3610653 0.6228034 0.36679786 0.57320625 0.17872974 0.9907638 0.6796771 0.4659849
0.73215353 0.17590076 0.22743073 0.6653194 0.6250309 0.49259022 0.9715331 0.45631623
0.4577331 0.7574475 0.74832994 0.48434865 0.5657655 0.42254 0.31387144 0.41985667
0.36982253 0.58033097 0.5632977 0.3470502 0.23000228 0.6758879 0.83876777 0.38400212
0.24001724 0.7781875 1.0375562 0.2814872 0.57735527 1.0318861 0.36424336 0.9086653
0.41328502 0.2535295 0.37891588 0.39023897 0.9644612 0.4635871 0.06658659 0.45046228
00000000: c87c 9c3e 1a31 af3e 7123 633f 987d 643f
00000010: a434 483f 8142 dd3e d6d5 373f 3c7b f73e
00000020: 74aa 3f3f 6832 333f cc28 3f3f 1a62 c23e
00000030: 9e8c 2c3f e99e 443f 714e af3d 0615 303f
00000040: 91f9 2d3f 207e 4c3f 9a6b 1a3f 2984 453f
00000050: 38b1 0f3f 977b e63e 9fd6 c63e 4bdc 953e
00000060: 51bb bb3e b3e5 043f 12c7 f83e e127 053f
00000070: 0280 863e 71a0 3c3f 7345 e23e a4f0 fe3e
00000080: 8ddd b83e 0b70 1f3f eecc bb3e a5bd 123f
00000090: ee04 373e b2a2 7d3f 52ff 2d3f 9395 ee3e
000000a0: 6a6e 3b3f 541f 343e 9ae3 683e 5f52 2a3f
000000b0: 0602 203f c934 fc3e 65b6 783f 48a2 e93e
000000c0: fe5b ea3e 14e8 413f 8d92 3f3f 8cfc f73e
000000d0: 02d6 103f 2a57 d83e c2b3 a03e 74f7 d63e
000000e0: 6159 bd3e 9290 143f 4734 103f 90b0 b13e
000000f0: b885 6b3e fd06 2d3f 7cb9 563f ed9b c43e
00000100: 14c7 753e 4c37 473f a4ce 843f 171f 903e
00000110: 8ecd 133f d814 843f 1b7e ba3e 4a9e 683f
00000120: 189a d33e 9ece 813e 4301 c23e 67cd c73e
00000130: eee6 763f 4a5b ed3e 8d5e 883d fea2 e63e

conv3.2.running_var f4 [80]
0.5165229 0.6491632 3.4176927 3.2211297 1.7405914 1.3970636 1.7625004 1.215363
0.96590966 2.3336675 2.0512884 0.8021558 1.847329 2.111435 0.25191215 1.5659746
1.8067715 1.6317756 2.4863408 1.9703996 2.1926694 1.7226633 0.993086 0.61544204
0.9316775 0.8575914 0.64252126 1.3633915 0.51912844 1.2371662 1.5365369 0.6810448
1.6360065 1.8991522 1.3507787 2.389961 0.28067535 1.4697452 1.4230013 1.8485389
1.8116093 0.3899606 0.41253117 1.4795779 1.8449911 1.259192 2.058868 0.62794274
0.92984605 1.3186924 1.783693 1.9987583 1.9998745 0.81007475 1.032477 0.9036139
0.55643314 1.4566104 1.3526424 0.61932635 0.34957033 1.0629894 1.5013573 1.66105
0.535115 1.899198 3.6083364 0.2808047 1.3797936 1.6915634 0.44185078 2.205734
1.6900859 0.35433543 1.4573497 0.6909546 2.0485868 0.89706194 0.22182806 1.1640851
00000000: d83a 043f 8f2f 263f 7abb 5a40 fd26 4e40
00000010: b3cb de3f fbd2 b23f 9d99 e13f 0491 9b3f
00000020: db45 773f cf5a 1540 4f48 0340 155a 4d3f
00000030: 4775 ec3f c021 0740 a1fa 803e db71 c83f
00000040: 4a44 e73f 06de d03f 3520 1f40 0e36 fc3f
00000050: b254 0c40 3b80 dc3f e23a 7e3f 9c8d 1d3f
00000060: 6b82 6e3f 1c8b 5b3f 467c 243f 9d83 ae3f
00000070: 9ae5 043f 765b 9e3f 3ead c43f f458 2e3f
00000080: a968 d13f 6b17 f33f 51e6 ac3f 1ff5 1840
00000090: aeb4 8f3e 9c20 bc3f e824 b63f ec9c ec3f
000000a0: d0e2 e73f eaa8 c73e 4937 d33e cf62 bd3f
000000b0: ab28 ec3f 342d a13f 7ec4 0340 dbc0 203f
000000c0: 640a 6e3f eaca a83f 0d50 e43f 50d7 ff3f
000000d0: e3fb ff3f 0f61 4f3f 3528 843f 3e53 673f
000000e0: 6772 0e3f 3672 ba3f 6323 ad3f 2c8c 1e3f
000000f0: e2fa b23e 0910 883f 7a2c c03f 499d d43f
00000100: 4cfd 083f ec18 f33f fcee 6640 a2c5 8f3e
00000110: 149d b03f 2685 d83f 443a e23e bf2a 0d40
00000120: bc54 d83f 746b b53e 6f8a ba3f 67e2 303f
00000130: 0c1c 0340 daa5 653f e526 633e be00 953f

conv4.0.weight f4 [120, 80, 3, 3]
0.013112964 -0.031644046 -0.04254849 0.021398265 0.035555128 -0.025421841 0.008626607 -0.02553909
0.009898151 -0.020395633 -0.0005060727 -0.016205553 -0.012441923 0.0047069956 0.0115385605 -0.006837487
-0.014700386 0.0024814038 -0.026024293 0.0360066 0.0062553687 0.051164117 -0.007608271 -0.018938016
-0.008011688 0.031375833 0.020029798 -0.020854615 0.020543782 -0.0013712639 0.01011763 0.009110885
0.017374037 0.03321956 -0.020331481 0.033401135 0.0116117615 -0.004396799 -0.02981536 0.021885708
0.037256014 0.005764574 -0.03166975 -0.0105569605 0.018201297 0.039342713 0.046432447 -0.009653671
-0.012588875 0.014145272 -0.004653095 0.010088529 0.024356779 0.034391813 -0.033530544 0.006160009
0.012735625 0.006060841 0.02449144 -0.039633732 -0.015521225 0.02064383 -0.03192516 0.042917594
0.0089537 0.020173367 0.02836905 -0.0020720365 0.03437642 -0.0012382847 -0.0107931765 -0.0080057215
0.006455283 -0.004295821 -0.026277365 -0.040041965 -0.04628904 -0.03896526 0.01167189 -0.031087002
0.0054262555 -0.013634017 -0.018787382 -0.009156704 0.0095564425 0.0296633 -0.002144964 0.008380868
-0.012292369 0.024517084 0.0346736 -0.028721238 0.0066212327 -0.007754923 -0.0077078245 0.04176981
0.004253962 0.010748451 -0.01967392 -0.012665678 0.031301897 -0.029485675 0.0053349645 0.010990531
-0.02203865 0.020632984 -0.006027327 0.024195725 0.051858917 0.03792915 0.041060675 0.021162558
0.02477921 -0.008047819 0.039057177 -0.00922087 0.014043491 0.02845081 0.020876694 0.051872116
0.023602165 0.028654976 -0.013960054 0.0074784127 0.021074388 0.015114633 0.042805806 0.026792346
0.0021330218 0.020666668 -0.03159374 -0.021327216 -0.06169225 0.0050728978 -0.012928979 0.017684896
0.014802832 0.055612694 0.026371522 0.035106186 0.049659304 0.03248769 0.0075692213 0.033804506
-0.0054180385 -0.00604266 -0.009221443 0.029979793 -0.027643548 -0.006752355 -0.052394263 -0.0026783296
0.020367483 0.028438052 0.019470567 0.014041851 0.028004557 0.009474044 -0.018450474 0.011538797
0.040484995 0.01758933 -0.0046268306 0.006388261 0.009359521 -0.015216717 0.04030017 0.01366226
-0.0064438023 0.02885117 -0.017597565 0.0039081885 -0.0104689365 -0.017633043 -0.0003258801 0.029484814
-0.02576367 -0.013531558 0.040260848 0.031598914 0.03862851 -0.031022834 0.011949393 0.020696826
0.034563452 0.039469216 -0.025497437 -0.0035203563 0.018151777 0.027255792 -0.0029775545 0.009898545
0.0050679054 0.0055830614 0.022250218 0.024200654 -0.0063700527 0.00060949405 0.032780312 0.032327153
-0.0017714688 -0.0062690144 0.0054909387 -0.0055293827 0.011214694 -0.016860895 -0.026151918 -0.010873679
0.0064338027 -0.011578896 0.0070264484 0.014393025 0.010809492 -0.012352288 -0.0035662598 0.033214837
-0.043546103 0.011898143 0.014737731 0.013027782 0.03185672 0.056832783 0.021939741 0.040899273
-0.007978818 -0.0018471339 -0.0026264417 -0.0028269815 0.012666084 0.029050028 -0.02719969 0.00575148
0.026376205 -0.0011868941 0.00041333586 0.0062912973 0.0227472 0.013979615 0.03122481 0.032411076
-0.0132986205 -0.018185947 -0.0092629865 -0.029800698 0.012486354 0.006856066 0.03731751 0.030786235
0.00037795087 0.0338019 -0.0059322617 0.03097135 -0.0412674 -0.034652796 -0.033890106 -0.04479885
00000000: c2d7 563c 309d 01bd 5347 2ebd 6a4b af3c
00000010: 41a2 113d 7741 d0bc 9d56 0d3c 5b37 d1bc
00000020: db2b 223c be14 a7bc f7a9 04ba 82c1 84bc
00000030: 35d9 4bbc 243d 9a3b 3b0c 3d3c 000d e0bb
00000040: e3d9 70bc 0c9f 223b e630 d5bc a87b 133d
00000050: d6f9 cc3b 7791 513d ce4e f9bb e623 9bbc
00000060: 7443 03bc f283 003d 8815 a43c 4cd7 aabc
00000070: 6f4b a83c fbbb b3ba 6ac4 253c d245 153c
00000080: ff53 8e3c 3c11 083d 358e a6bc a1cf 083d
00000090: 423f 3e3c 0613 90bb 583f f4bc a849 b33c
000000a0: c399 183d c0e4 bc3b 24b8 01bd 1af7 2cbc
000000b0: e31a 953c d325 213d f32f 3e3d 6e2a 1ebc
000000c0: 9241 4ebc 92c1 673c fd78 98bb 5c4a 253c
000000d0: de87 c73c 6ede 0c3d 5357 09bd e7d9 c93b
000000e0: 15a9 503c 059a c63b 46a2 c83c fb56 22bd
000000f0: bc4c 7ebc 401d a93c f5c3 02bd 5cca 2f3d
00000100: 8ab2 123c 9e42 a53c 3666 e83c 01cb 07bb
00000110: 4ace 0c3d f14d a2ba ddd5 30bc 6e2a 03bc
00000120: d786 d33b f5c3 8cbb a143 d7bc 0b03 24bd
00000130: 9499 3dbd 099a 1fbd 743b 3f3c 2baa febc
00000140: bbce b13b 3661 5fbc ffe7 99bc 0006 16bc
00000150: a092 1c3c 7300 f33c 8692 0cbb e84f 093c
00000160: ef65 49bc 0dd8 c83c e805 0e3d cd48 ebbc
00000170: edf6 d83b 021d febb eb91 fcbb d216 2b3d
00000180: d264 8b3b 451a 303c 332b a1bc b483 4fbc
00000190: 6b36 003d f18b f1bc edd0 ae3b a111 343c
000001a0: 668a b4bc 8106 a93c e280 c5bb 1d36 c63c
000001b0: 046a 543d 995b 1b3d 3d2f 283d 1a5d ad3c
000001c0: c5fd ca3c 00db 03bc 6bfa 1f3d 2213 17bc
000001d0: ac16 663c ac11 e93c 9a05 ab3c db77 543d
000001e0: 5459 c13c d7bd ea3c b6b8 64bc 790d f53b
000001f0: 32a4 ac3c 5ea3 773c 2455 2f3d 9f7b db3c
00000200: 2bca 0b3b 254d a93c 7068 01bd 6ab6 aebc
00000210: 03b1 7cbd 8d3a a63b 11d4 53bc eadf 903c
00000220: 9487 723c 23ca 633d 1709 d83c 81cb 0f3d
00000230: 8e67 4b3d d011 053d 3b07 f83b 9876 0a3d
00000240: cd89 b1bb 8201 c6bb 8915 17bc 2f98 f53c
00000250: b974 e2bc dc42 ddbb 5e9b 56bd ea86 2fbb
00000260: b5d9 a63c ebf6 e83c bd80 9f3c cb0f 663c
00000270: d069 e53c 0539 1b3c 7325 97bc 390d 3d3c
00000280: 98d3 253d 8017 903c ab9c 97bb 9e54 d13b
00000290: ad58 193c 894f 79bc cb11 253d acd7 5f3c
000002a0: 8826 d3bb 4a59 ec3c c528 90bc 4310 803b
000002b0: e785 2bbc 2c73 90bc e3da aab9 238a f13c
000002c0: 550e d3bc 78b3 5dbc 8fe8 243d dd6d 013d
000002d0: ee38 1e3d 9923 febc 63c7 433c 648c a93c
000002e0: 6892 0d3d 79aa 213d 00e0 d0bc c7b5 66bb
000002f0: 09b3 943c 8a47 df3c 1323 43bb 822d 223c
00000300: ac10 a63b 1df2 b63b 1746 b63c 7340 c63c
00000310: e0bb d0bb 74c6 1f3a a644 063d 7a69 043d
00000320: a130 e8ba 4e6c cdbb 55ed b33b d32f b5bb
00000330: d6bd 373c dc1f 8abc 8c3c d6bc 8427 32bc
00000340: a6d2 d23b 69b5 3dbc 1f3e e63b b9d0 6b3c
00000350: 4c1a 313c 4061 4abc e9b7 69bb 480c 083d
00000360: 665d 32bd 6ef0 423c 8676 713c 7a72 553c
00000370: 317c 023d 7ec9 683d f9ba b33c ff85 273d
00000380: 97b9 02bc 871b f2ba 6120 2cbb e144 39bb
00000390: 6885 4f3c 53fa ed3c e2d1 debc e976 bc3b
000003a0: e912 d83c 8f91 9bba 00b5 d839 3a27 ce3b
000003b0: 5658 ba3c c10a 653c 2ccb ff3c 7ac1 043d
000003c0: 75e2 59bc b2fa 94bc c8c3 17bc 9820 f4bc
000003d0: 9193 4c3c daa8 e03b 3fda 183d 6a33 fc3c
000003e0: b527 c639 dc73 0a3d 6b63 c2bb a1b7 fd3c
000003f0: 0108 29bd 17f0 0dbd 5ad0 0abd 007f 37bd

conv4.0.bias f4 [120]
-0.029346284 0.004554593 0.005641262 0.0154486 0.032989267 0.0492264 0.020507837 0.062025897
-0.09153546 -0.03184134 -0.015512373 0.010572323 0.009716235 -0.02050145 0.05333192 -0.028393501
-0.0015523933 -0.0012942824 -0.027656004 -0.033165976 0.03785497 -0.11028358 -0.022414777 -0.066667
0.011536736 -0.12248306 0.035070006 -0.016613593 0.003101295 -0.030918078 -0.054714497 0.019333936
0.037403997 -0.056699626 -0.103345625 -0.025939798 0.020287545 -0.0020065063 -0.02882831 -0.05775407
0.025555896 0.0002538181 -0.052111883 -0.07576555 0.05258056 -0.027856687 0.02801744 0.032735564
-0.031810146 -0.030005842 -0.07420561 0.0041771084 -0.08163774 -0.035403892 -0.08807514 -0.0126568815
0.011112082 -0.047262143 0.023274142 -0.0015401527 -0.025537416 0.057166167 0.06411481 -0.11867269
0.10415574 0.021835417 -0.022112092 -0.03568976 0.023244591 -0.0110833645 0.023868298 0.020364415
-0.021966422 -0.10030783 0.03322214 -0.012884165 0.00955287 -0.09564257 -0.021513956 0.025245717
0.026525712 -0.087872624 -0.020146808 0.002540716 0.0008040127 -0.101077385 0.035973262 0.010836699
-0.009996056 -0.01233039 -0.014355083 -0.049306385 -0.030702997 0.032272562 0.027044652 0.005529037
0.032955226 -0.0041759247 0.021563599 0.047998644 0.038211983 -0.058216088 -0.017425746 0.06279017
0.013004268 0.010135774 -0.02860111 0.0020529113 0.041901115 -0.0028292174 -0.017286053 0.003926495
-0.012760255 0.02715324 0.0070323846 0.04739189 -0.018297873 0.005435545 0.00852816 0.0145456605
00000000: 9e67 f0bc b23e 953b 56da b83b 201c 7d3c
00000010: c11f 073d 9fa1 493d 0d00 a83c de0e 7e3d
00000020: f176 bbbd 116c 02bd 9c27 7ebc 8937 2d3c
00000030: d830 1f3c a8f2 a7bc 9272 5a3d 7d99 e8bc
00000040: ad79 cbba e9a4 a9ba d88e e2bc 0cd9 07bd
00000050: d00d 1b3d 5cdc e1bd 329f b7bc b588 88bd
00000060: 9404 3d3c 66d8 fabd 91a5 0f3d 3b19 88bc
00000070: 193f 4b3b e947 fdbc 4f1c 60bd 3462 9e3c
00000080: ef34 193d de3d 68bd dfa6 d3bd b37f d4bc
00000090: 1132 a63c 977f 03bb 5929 ecbc 888f 6cbd
000000a0: 995a d13c e412 8539 4573 55bd f82a 9bbd
000000b0: b75e 573d b533 e4bc d584 e53c ba15 063d
000000c0: 5b4b 02bd d0ce f5bc 1cf9 97bd 20e0 883b
000000d0: b031 a7bd ac03 11bd bd60 b4bd cf5e 4fbc
000000e0: 730f 363c f395 41bd 6aa9 be3c f3de c9ba
000000f0: d833 d1bc 1227 6a3d a04e 833d ab0a f3bd
00000100: 9b4f d53d 30e0 b23c 6b24 b5bc 6d2f 12bd
00000110: 716b be3c 0097 35bc 7387 c33c 46d3 a63c
00000120: edf2 b3bc 316e cdbd f013 083d 1b18 53bc
00000130: a483 1c3c 40e0 c3bd 093e b0bc 1bd0 ce3c
00000140: 734c d93c 90f6 b3bd eb0a a5bc 2482 263b
00000150: 61c4 523a a901 cfbd b358 133d 698c 313c
00000160: 7fc6 23bc 6705 4abc 9531 6bbc 7ef5 49bd
00000170: da84 fbbc 3c30 043d bf8c dd3c ed2c b53b
00000180: 0ffc 063d 32d6 88bb 25a6 b03c 3a9a 443d
00000190: 2b84 1c3d fe73 6ebd 70c0 8ebc 2298 803d
000001a0: da0f 553c 8410 263c e04c eabc 238a 063b
000001b0: 81a0 2b3d 646a 39bb 7b9b 8dbc d4a9 803b
000001c0: 6310 51bc 7970 de3c eb6f e63b 001e 423d
000001d0: 6ce5 95bc a81c b23b b2b9 0b3c ec50 6e3c

conv4.2.weight f4 [120]
0.98312265 1.0508461 1.0122 0.9610149 0.97030187 0.95707434 1.0039793 0.9870376
1.0121706 0.9697602 1.0205132 1.0602807 0.9358878 0.99636614 0.98794967 0.996599
0.9792814 1.035244 1.0183887 1.0175699 1.004893 1.009208 0.9838506 1.0139676
1.0336428 1.0041248 0.9640643 1.0270454 0.99441266 1.0052966 1.0110086 1.005862
0.96915734 1.0310243 1.0134444 0.9747395 0.9773294 0.98504645 1.0174925 1.0065559
0.99113655 0.9692748 0.993199 1.009283 0.9754904 0.97997993 0.97701573 0.978087
1.0263392 0.9750735 1.0165906 0.98140943 1.0274246 0.9655707 1.0047693 1.0432625
0.98415613 0.9843362 1.0171124 0.9563732 1.0179005 0.95853186 0.9831648 0.99415916
0.9829023 1.0517873 0.97149605 0.98187625 1.0411643 1.0233618 0.94907546 0.96335495
0.9922168 1.0124689 0.9971175 1.0375459 0.9743625 1.0005131 1.0111268 1.0101136
0.98549384 1.0119925 1.0151266 0.964307 0.9796104 0.9993047 0.9795874 0.97887677
0.9690383 1.0228453 0.98040515 0.9890675 0.98995614 0.99106115 0.9731564 0.9800263
0.96306485 1.0112877 0.9676276 1.0510916 0.97835284 1.0100198 0.94701874 0.98101175
0.9912894 0.98191625 1.0137159 0.96907145 0.9793166 1.0512078 0.9714774 1.0059437
0.97427547 0.98605233 0.9872382 0.99617815 0.9850918 0.9918938 0.9667727 0.97431284
00000000: edad 7b3f 2082 863f c58f 813f 1305 763f
00000010: b465 783f d302 753f 6582 803f 7fae 7c3f
00000020: ce8e 813f 3442 783f 2da0 823f 47b7 873f
00000030: 5896 6f3f da11 7f3f 45ea 7c3f 1d21 7f3f
00000040: 30b2 7a3f e082 843f 905a 823f bb3f 823f
00000050: 55a0 803f ba2d 813f a2dd 7b3f b1c9 813f
00000060: 684e 843f 2987 803f ebcc 763f 3976 833f
00000070: d491 7e3f 8fad 803f bb68 813f 16c0 803f
00000080: b21a 783f 9bf8 833f 8cb8 813f 8788 793f
00000090: 4232 7a3f 012c 7c3f 323d 823f d3d6 803f
000000a0: 20bb 7d3f 6522 783f 4a42 7e3f 2f30 813f
000000b0: bdb9 793f f7df 7a3f b41d 7a3f e963 7a3f
000000c0: 155f 833f 6b9e 793f a41f 823f a63d 7b3f
000000d0: a682 833f a42f 773f 489c 803f a089 853f
000000e0: a8f1 7b3f 75fd 7b3f bd30 823f e0d4 743f
000000f0: 904a 823f 5862 753f b0b0 7b3f 3781 7e3f
00000100: 7c9f 7b3f f7a0 863f f7b3 783f 3e5c 7b3f
00000110: df44 853f 85fd 823f 9cf6 723f 6e9e 763f
00000120: ec01 7e3f 9598 813f 1843 7f3f 4ece 843f
00000130: d26f 793f d010 803f 9a6c 813f 674b 813f
00000140: 5349 7c3f f888 813f abef 813f d3dc 763f
00000150: bfc7 7a3f 6fd2 7f3f 3dc6 7a3f ab97 7a3f
00000160: e512 783f 98ec 823f d5fb 7a3f 8733 7d3f
00000170: c46d 7d3f 2fb6 7d3f c720 793f 01e3 7a3f
00000180: 6b8b 763f e071 813f 71b6 773f 2b8a 863f
00000190: 5575 7a3f 5448 813f d26f 723f 9623 7b3f
000001a0: 24c5 7d3f dd5e 7b3f 71c1 813f 1115 783f
000001b0: 7eb4 7a3f fa8d 863f beb2 783f c3c2 803f
000001c0: 1e6a 793f ed6d 7c3f a5bb 7c3f 8805 7f3f
000001d0: fa2e 7c3f c1ec 7d3f 6a7e 773f 916c 793f

conv4.2.bias f4 [120]
-0.0082739005 -0.04761238 -0.007724138 -0.0422103 -0.016405256 0.012792093 0.025863606 -0.0028452
-0.012313898 -0.011277871 0.03971103 0.020423664 -0.049590312 0.023352275 -0.032042794 -0.018285502
0.010944755 -0.010179136 -0.010982216 -0.044564687 -0.014143551 0.020185022 -0.025547192 0.028056683
-0.01322266 -0.0014558035 -0.013493872 -0.03489065 0.008809829 -0.014510286 -0.034695383 -0.045564134
-0.04132906 -0.0561504 -0.040322464 -0.015865078 -0.0038250405 -0.0017285432 -0.01798294 -0.0022897483
0.035014175 -0.020055521 0.023882855 -0.060487594 0.0007737152 -0.054461766 0.019447494 0.0072230524
-0.00578603 -0.004528898 0.050312955 -0.04017588 -0.0028687324 0.04405201 0.037443496 -0.03499023
-0.01298165 -0.0324579 0.035339206 0.025531601 0.056678522 0.004045092 -0.019142117 0.014104713
0.010561175 0.004006581 -0.0119766425 -0.00776357 0.06609352 0.01941537 0.01740212 -0.0036424692
-0.05460264 -0.016124047 0.034317076 -0.012860744 0.01576639 0.015294142 -0.00512925 -0.015894836
-0.028663533 0.0014905398 0.008690128 -0.011360846 0.021221425 -0.0075249635 0.018700408 -0.041861005
-0.0073372163 -0.010910527 0.009491615 -0.003211311 0.007411168 -0.035742026 -0.03202179 -0.024622455
-0.04373866 0.01836325 -0.02317012 0.002817578 -0.040268432 -0.013751661 -0.021517185 -0.0070562004
-0.036560316 0.0008674609 -0.019927694 -0.010489302 0.01357462 -0.02741233 -0.0045502363 0.032440748
0.05649028 -0.02549199 0.0011434956 0.032370634 -0.007876358 -0.006937882 -0.023934705 -0.009720987
00000000: 418f 07bc 3305 43bd c41a fdbb b5e4 2cbd
00000010: 5164 86bc ed95 513c eadf d33c 8976 3abb
00000020: 3bc0 49bc d2c6 38bc 08a8 223d 874f a73c
00000030: 361f 4bbd 454d bf3c 4e3f 03bd 7acb 95bc
00000040: a151 333c 64c6 26bc c1ee 33bc 7689 36bd
00000050: 5aba 67bc 0f5b a53c 5848 d1bc 21d7 e53c
00000060: dba3 58bc a9d0 beba 6715 5dbc 80e9 0ebd
00000070: 1a57 103c 8dbc 6dbc bf1c 0ebd 75a1 3abd
00000080: a948 29bd f6fd 65bd 2b29 25bd 7bf7 81bc
00000090: 88ad 7abb 4990 e2ba f550 93bc 9a0f 16bb
000000a0: 066b 0f3d 7a4b a4bc faa5 c33c d7c1 77bd
000000b0: 26d3 4a3a 4d13 5fbd 5a50 9f3c 5baf ec3b
000000c0: bd98 bdbb 2667 94bb f514 4e3d 778f 24bd
000000d0: 5801 3cbb e16f 343d 5a5e 193d ea51 0fbd
000000e0: fdb0 54bc 93f2 04bd d8bf 103d a627 d13c
000000f0: bd27 683d b18c 843b eecf 9cbc 7417 673c
00000100: c708 2d3c a349 833b ae39 44bc 8c65 febb
00000110: 0a5c 873d fb0c 9f3c e48e 8e3c 7eb6 6ebb
00000120: 05a7 5fbd 9416 84bc 1090 0c3d dfb5 52bc
00000130: 8428 813c 4894 7a3c 4513 a8bb e335 82bc
00000140: c9cf eabc 375e c33a 0a61 0e3c d822 3abc
00000150: 8ed8 ad3c f893 f6bb 9931 993c 7276 2bbd
00000160: 086d f0bb 11c2 32bc b882 1b3c dc74 52bb
00000170: 62d9 f23b 3b66 12bd 4829 03bd 08b5 c9bc
00000180: 4f27 33bd 876e 963c 43cf bdbc 1da7 383b
00000190: 83f0 24bd a64e 61bc cf44 b0bc b337 e7bb
000001a0: 45c0 15bd 5166 633a 673f a3bc 52db 2bbc
000001b0: 1568 5e3c d38f e0bc 261a 95bb 97e0 043d
000001c0: 5a62 673d 94d4 d0bc 58e1 953a 1297 043d
000001d0: d70b 01bc 2c57 e3bb b712 c4bc c644 1fbc
