BackCNN_best_weights.pth (torch, 426447 bytes, 8 tensors)

conv1.0.weight f4 [10, 3, 5, 5]
00000000: 8ce1 a83d 188f d7bd 1090 483d 87d5 9fbc
00000010: 33f0 de3b 81ca 69bd afd7 e4bc c172 c33d
00000020: 33fc 0e3d 5d88 923d 7637 36bd a131 683b
00000030: e765 26bd d6a1 823d 09c9 e33c b5b3 b8bc
00000040: cc8e debd 60cb 84bd ef9e bc3c 632b a8bd
00000050: 618f 88bc 13e0 cfbd 330a a33c 2158 aebd
00000060: 3c3a 803d 1959 b53b ff41 c53c 2db7 3ebd
00000070: dda1 4b3d 5d0b 23bd 1f3d 863c d1c1 acbd
00000080: 104a e0bd 8e18 8a3a 67a8 2d3d fb10 1b3d
00000090: 6bd8 d0bc 9203 4bbd 6192 813d ea74 a13d
000000a0: d88e b6bc d4d6 c83d 9151 91bd d4cc e8bc
000000b0: 6bc1 bb3d 72f2 013d 3d73 1c3d de5f 9abd
000000c0: 6d33 a13b 6008 183d 8541 abbd cd93 5bbd
000000d0: 1111 b63d d838 5bbd ba70 a4bd d208 b2bd
000000e0: 9097 033c f15e dfbd bd44 1cbd 191b a4bd
000000f0: efb8 98bc af54 d5bd ef86 5b3d a342 95bd
00000100: 29e9 8bbd 4e0c e53c 0f13 c03d 2c72 263c
00000110: a24c 9b3d 3b11 71bd 70ab c9bd 6926 d03b
00000120: e48c 453c 8e26 a5bd 90a6 78bc 20df 5f3d
00000130: d48a 38bd 57e3 00be a4b9 793d 4291 8ebc
00000140: 49ea a9bd 7e2f 77bd 66d4 683d fd52 6dbd
00000150: f724 073d 567f 8d3d ddff d9bd 4f8d 343d
00000160: 66a6 b93d eb81 a3bc 52ac 8b3d 1a14 acbd
00000170: 12ba 3a3c 0c54 773c 035b feb9 72f9 893c
00000180: 2e29 843d 85bc 15bd c821 9a3d f289 92bd
00000190: 1743 663d 4727 aabd 55f4 c13d 7045 cb3c
000001a0: def6 5bbd 15c5 ae3d d3cb e83d b86f 40bd
000001b0: a1df 40bd 17c3 8bbd b885 953d 539f d8bd
000001c0: 318d 033d f240 c13c dda0 933d 939e 56bc
000001d0: b5b2 6a3d e8a5 e93d 77af 1ebc 438e cabd
000001e0: f130 d6bc 8abc c2bd bde7 d53c 3241 96bd
000001f0: cbbd c73d 411c 14bd d4d9 f6bd 2c20 b4bd
00000200: 8f20 ebbd cf0c cdbd 6cd7 d2bd 9424 83bd
00000210: 0253 9ebd aef7 303d e2ab 74bd 3436 88bc
00000220: 5ddf 91bd 3bae 0cbd cb4a c5bc 01d1 80bd
00000230: e264 a33d 063a 7a3d 1f24 31bd 41ab 843d
00000240: f44f d13d b479 993c 6e34 d8bd e3db d7bb
00000250: 2915 46bd 9555 6cbd 3713 07bd 3efc 3b3d
00000260: 9359 d1bc f814 4ebd 76e2 dcbd 5cb0 b73d
00000270: 8d79 f0bb e24b cd3d 0f99 cdbd 2132 aebd
00000280: 8b50 22bd 6e6d d13d cffe 9abd 4b2a 52bd
00000290: 1084 543c eb78 ba3d 4292 ba3d 1791 733d
000002a0: 2143 52bd 0e74 923d 5f0b 1c3d 0c5e debd
000002b0: 1809 293d 9460 8a3d a0af f4bd f4ed a8bd
000002c0: b9bd a03d 9124 f3ba 6039 973c 4937 3e3d
000002d0: e208 8c3c 7374 b8bd e9dd 0b3c d561 64bd
000002e0: b353 8139 f5cc 333d 09cd 3e3d fe8f efbd
000002f0: 7368 3b3d 07e8 713d 32cb d3bd 8fbf a53c
00000300: ac8c 73bd 9ebe 8fbd e60c 26bd 6b3f c23d
00000310: 2d42 6dbd 1315 86bc e3b7 9bbd ea3b 953c
00000320: de01 28bd b587 87bd eee6 dfbd 485c f4bd
00000330: e48f 8d3d 0670 ddbd 358a e8bd f4be df3c
00000340: c284 8a3d 53ff b8bc 6721 d0bd 3ae8 b9bd
00000350: 68ef 183d 21f0 45bd 63dc a9bc 7da7 c9bc
00000360: 3c9d 2abd f003 7c3d 598c 843d 36b5 8cbd
00000370: 6c1b d53d 328e 4bbd d461 b5bd e00b 563c
00000380: a44b f8bc 1aa5 bfbd e11e e1bd 36d9 e3bd
00000390: 3237 8fbb 2ad7 acbd 03ff d2bd ebde 94bc
000003a0: b52c 2bbd 4be0 34bd 59e7 a2bd b185 263d
000003b0: b636 d53d 4a2d 173c 4135 733d c770 803c
000003c0: 5942 5a3d a654 5c3b 7a52 a13d 4c22 d0bd
000003d0: 2bc2 743d 3e7c 633d 9d83 8e3d be75 b03d
000003e0: 001e 3b3d 9681 bc3d 234f 5a3d 5c6a 333c
000003f0: 9e08 d2bd ad9c c93c 5bf3 dcbd 51c0 b7bc
0.08246145 -0.1052534 0.048965514 -0.019510997 0.0068035363 -0.05707789 -0.027934877 0.09543372
0.034908485 0.071549155 -0.044486485 0.0035429972 -0.040624525 0.06378524 0.027805822 -0.022546628
-0.1086708 -0.06484103 0.023025004 -0.082114 -0.01666993 -0.10150161 0.019902324 -0.08512903
0.06261107 0.005534303 0.024079321 -0.04656141 0.04971491 -0.03980576 0.016386567 -0.08435405
-0.10951626 0.0010535882 0.04239693 0.03785799 -0.025493821 -0.04956395 0.06326748 0.07883628
-0.02228491 0.098066 -0.07095636 -0.028417982 0.09167751 0.031725354 0.038195837 -0.075378165
0.0049194605 0.037117362 -0.08362106 -0.05360775 0.08889974 -0.053521007 -0.080293134 -0.086930886
0.008031741 -0.109067805 -0.03815149 -0.08012981 -0.01864287 -0.10416543 0.05359548 -0.072881006
-0.06831581 0.027959969 0.09378635 0.010159057 0.07582976 -0.058854323 -0.09847152 0.006352235
0.012057517 -0.08063994 -0.01517643 0.054656148 -0.04505427 -0.12586723 0.060968056 -0.017403249
-0.082966395 -0.060348026 0.056843184 -0.057940472 0.032994237 0.06909053 -0.10644505 0.044080075
0.09064941 -0.01995941 0.06819977 -0.084022716 0.011396902 0.015095722 -0.00048514464 0.016842578
0.06453167 -0.03655674 0.075259745 -0.07155217 0.056216326 -0.08308273 0.09470431 0.024813384
-0.053702228 0.08533684 0.113670014 -0.046981543 -0.04708827 -0.0682432 0.073008955 -0.10577264
0.032117072 0.023590539 0.072084166 -0.0130993305 0.057299335 0.11408597 -0.009685389 -0.098904155
-0.026146384 -0.09508617 0.026111478 -0.07336654 0.09752997 -0.036159758 -0.12053266 -0.08795199
-0.114808194 -0.10012209 -0.10294995 -0.06403461 -0.07730676 0.043204956 -0.059734233 -0.016627409
-0.07122681 -0.034345847 -0.024083516 -0.06289864 0.07978226 0.06109049 -0.04324734 0.064779766
0.10220328 0.01873479 -0.10556875 -0.006587492 -0.048360024 -0.057698805 -0.03297731 0.045894854
-0.025555408 -0.050312966 -0.107853815 0.08969185 -0.0073387087 0.10024239 -0.10038959 -0.08505655
-0.039627593 0.1022595 -0.07568132 -0.051309865 0.012970939 0.091050945 0.09109928 0.05946454
-0.05133355 0.07151042 0.03809678 -0.10857782 0.041268438 0.06756702 -0.1194756 -0.08248511
0.07848687 -0.0018550326 0.018459976 0.046439443 0.01709408 -0.09006586 0.008536794 -0.055757362
0.00024667158 0.043896634 0.046582256 -0.11697386 0.045753907 0.05905917 -0.10341491 0.020232944
-0.059460327 -0.07018779 -0.040539645 0.09484752 -0.05792444 -0.01636747 -0.07603433 0.018217046
-0.041017406 -0.06617681 -0.10932718 -0.11931664 0.069122106 -0.108123824 -0.11354486 0.027312733
0.06763603 -0.022582686 -0.10162621 -0.09077497 0.03733769 -0.048324708 -0.020734971 -0.024615997
-0.041653857 0.061527193 0.06472082 -0.06870501 0.10405621 -0.049696155 -0.0885655 0.013064355
-0.030309506 -0.093576625 -0.10992218 -0.11125414 -0.0043705935 -0.08439477 -0.10302546 -0.018172702
-0.041790683 -0.044159215 -0.07954282 0.04065484 0.10410826 0.009227106 0.05937696 0.015678776
0.05328593 0.003361979 0.07877059 -0.101627916 0.059755486 0.05553841 0.06958697 0.086162075
0.045682907 0.09204404 0.053298127 0.010950651 -0.1025555 0.024610842 -0.10788604 -0.02243057

conv1.0.bias f4 [10]
00000000: e7cd ab3d fd8d bf3d ee53 e43d 8080 afbc
00000010: 4fb6 46bd 9170 a0bb 6d59 d0bd 0115 57bc
00000020: 85c0 ee3d 4ca7 3d3d
0.08388882 0.09353254 0.11148821 -0.021423578 -0.048513707 -0.0048962315 -0.101733066 -0.013127566
0.11657814 0.046302125

conv2.0.weight f4 [20, 10, 5, 5]
00000000: fc81 d43c 3e77 64bd 973d 5f3d a920 49bd
00000010: e8e2 e63b f475 3cbc facf 73bd af98 8bbd
00000020: b5ab 06bc 2b99 f33c f994 c0bc 7c2a 30bd
00000030: e44c 40bc 290e 263d 59be 45bd 0b8b 1ebd
00000040: f2af 083d 425c 0f3d 2cfc a6bc e2dd 60bd
00000050: 8c8a fcbc 29ad 71bd a5ba 1f3c a1e1 b7bc
00000060: 21e7 283d a49a be3c 4fa9 343d dd50 4bbd
00000070: 13cc 0fbd cf5e 54bd ee55 a4bc f4d7 2abc
00000080: 3878 7abd aa49 c63c 6150 993c 872b 3bbd
00000090: f4ee 143d 91d2 9ebc abf2 73bd 1b43 ca3c
000000a0: 17ae 93bd 7665 933b c2c3 9939 128d 85bd
000000b0: 7ac1 97bd da68 d23a c2fc fb3c d873 a5bc
000000c0: c9a2 023c 8cbd 01bc c0bb e63b 66c7 97bd
000000d0: 6695 c03c bfb3 293d 0464 b1bc a0a6 99bd
000000e0: 5779 82bd fc47 9fbc 33b6 333d 324b 9fbd
000000f0: 6716 4ebd 2a42 8ebd ae5b 65bd 2076 a3bd
00000100: da2a a0bd e434 2e3d ff80 0cbd 33de 99bd
00000110: ff73 013d 72fd 22bd 4c9e 09bd b180 553c
00000120: a6b3 2cbd fe8c 0e3d cdb2 85bd 56a7 09bd
00000130: 6cc0 77bd a509 9c3c dc45 7cbd 35b4 323d
00000140: 9cbf 563c 4ce0 1abd 535a c43c 4b81 573d
00000150: e79d d63b 077d 5fbd 7ac0 7fbc 43f3 b43c
00000160: 69d6 253d 6ebc 173d 2d11 a63c 2cce 04bd
00000170: d873 5abd f0e9 20bc 2a56 113d 6785 493b
00000180: c3f5 f6bc 73c4 c33c a2ca dd3c 259d 66bb
00000190: e16d 29bd d418 8d3d d5eb 763c a1c1 fcb9
000001a0: 055d 6bbc a5bf 3ebd a649 08bd 8e95 853d
000001b0: db08 673d 5d02 583c 4ea4 333d b2f5 36bd
000001c0: 0930 cbbc 802b 10bd c1b1 843c 40d5 50bd
000001d0: 26f0 7f3d 4828 7c3c bf50 ba3c aa8a 273d
000001e0: e7cb 853d 01e4 c53c 737e 3cbd af6a f7bc
000001f0: 80e5 0d3c e270 873b 9287 be3c 8c7c 58bd
00000200: 38dc dd3c d15a 5ebd 97f7 253d bc25 043d
00000210: 9de4 5fbd e120 203d ac15 14bc 22fd 50bd
00000220: 8556 21bd 2744 c3bc b23c 1c3d e68b 413d
00000230: 142d 45bd 7b10 17bd 98c6 c33c 0600 fe3c
00000240: d532 ddbc d677 083d d003 17bc 234d 2c3d
00000250: 4939 563d 2c93 683d 31bd 343d 2588 afbb
00000260: 4815 c33c fc8c 34bd 02e3 35bd 5705 69bc
00000270: 2668 8dbc b4e2 a4bc 59c7 593c 4ab7 ddbc
00000280: 57eb f1bb 9a29 823d 0235 4ebd 4a6e f53a
00000290: 4d12 15bd 72ce 663c b9b1 50bc cb0a dbba
000002a0: 9ffa a5bc 08e2 46bd e35e cebc f65a 2e3d
000002b0: 8da4 353d 1389 09bd bb38 8d3b 6567 28bc
000002c0: 3d4c 02bd 2824 aabc 8a9f 97bd 6e02 373d
000002d0: 4db2 163d 320f 17bd 6650 0b3d 41f1 0fbd
000002e0: baad 923c 5783 ba3b 526e 58bd 83bb 8dbb
000002f0: 7b46 90bd 0a48 943c 7195 97bd f02b 643b
00000300: a302 3b3c cf09 ce3c 67de 08bd a1b7 57bd
00000310: 28b5 d6bc d1a3 8dbc bcbf 6938 1957 59bd
00000320: db89 423d f73b 1dbd b1af 033c 5148 f5bc
00000330: c016 743b 27ab 85bc ff6e 1c3d 3c4c a1bc
00000340: 2a8f 3ebd 6c22 513d bdf9 8bbd 6738 6fbc
00000350: 3b31 05bd 2926 573d 7ded fc3b 724a 8c3c
00000360: 64e9 65bd 8cc4 c83b 8085 90bd 803e 5a3c
00000370: 26bd 69bd 8756 7bbd 03a7 343d dbfa 86bd
00000380: 8cc2 03bd 8908 503d 6643 173d 2a29 52bd
00000390: 7513 2d3d c1e5 ea3c 9a34 0dbb 43a1 82bc
000003a0: 5d45 653c 45e2 673d daf8 d63c 04df 19bd
000003b0: 48c9 613d 63c8 91bc 11ee 2b3d e23a f5bc
000003c0: ccf1 87bd a5c5 6cbd 2bbe 253d 9441 3ebd
000003d0: ffb3 34bd 0e26 3e3c 15c8 f23c 0587 74bd
000003e0: 74de 043d 8903 81bd 5a88 5fbd d865 8dbc
000003f0: 1aa2 1a3d 3827 0bbd 1011 68bc d1cf 113d
0.025940888 -0.05577778 0.054502096 -0.049103413 0.0070460923 -0.011502732 -0.059524514 -0.068162315
-0.008219649 0.029736122 -0.023508536 -0.043009266 -0.011737082 0.040540848 -0.048277233 -0.03870682
0.03337092 0.035000093 -0.020383917 -0.054899104 -0.030827783 -0.05900303 0.009749089 -0.022446455
0.041236047 0.023267098 0.044106778 -0.049637664 -0.03510673 -0.05184823 -0.020060506 -0.010427464
-0.061149806 0.024205048 0.018715085 -0.045695808 0.036360696 -0.019387515 -0.059557598 0.024690202
-0.072109394 0.004498179 0.00029328285 -0.06521048 -0.074099496 0.0016052977 0.030760173 -0.02019684
0.007973381 -0.007918727 0.0070414245 -0.07411079 0.023508739 0.041431185 -0.021654136 -0.07502484
-0.063708 -0.019443505 0.04387493 -0.07778014 -0.050314333 -0.069462135 -0.055995636 -0.07981515
-0.07820673 0.04253091 -0.034302708 -0.07513084 0.031604763 -0.039792486 -0.03359823 0.013031171
-0.042163514 0.03480243 -0.06528244 -0.03360685 -0.060486242 0.019047568 -0.06159006 0.04362889
0.013107207 -0.037811562 0.023968851 0.052613538 0.006549585 -0.054562595 -0.015609855 0.022088652
0.04048768 0.037044935 0.020271862 -0.032423183 -0.053333133 -0.0098214 0.035482563 0.003074968
-0.030146485 0.023897385 0.027074162 -0.003518888 -0.041364554 0.06889501 0.015070875 -0.0004820945
-0.014365439 -0.046569485 -0.03327336 0.06522666 0.05640493 0.013184157 0.043857865 -0.044667907
-0.024803178 -0.035197735 0.01619804 -0.05098462 0.062484883 0.015390463 0.02274358 0.040903725
0.06533032 0.024156572 -0.04601903 -0.030202238 0.008660674 0.0041333297 0.023258004 -0.052853152
0.027082548 -0.054285828 0.040519323 0.03226255 -0.054661382 0.039093856 -0.00903837 -0.051022656
-0.039389152 -0.023836209 0.03814382 0.04725256 -0.048138693 -0.03688095 0.023898408 0.03100587
-0.027001778 0.03331741 -0.009217218 0.04206575 0.052300725 0.05678098 0.04412574 -0.005356806
0.023813859 -0.044079766 -0.044405945 -0.0142224645 -0.017261576 -0.020127632 0.013292157 -0.027064938
-0.007382791 0.06355591 -0.05034352 0.0018724885 -0.036394406 0.014087306 -0.012737685 -0.001671159
-0.020261107 -0.048555404 -0.02519173 0.042567216 0.04434638 -0.03357799 0.0043097413 -0.010278557
-0.031810988 -0.020769194 -0.074034765 0.04468005 0.036791135 -0.036879726 0.03401222 -0.035142187
0.017905105 0.0056919265 -0.052839585 -0.0043253317 -0.07044693 0.018100757 -0.074015506 0.0034816228
0.011414203 0.025151161 -0.033415224 -0.052665357 -0.026209429 -0.017290028 5.5730095e-05 -0.05306158
0.04749475 -0.038387265 0.008037494 -0.02994171 0.0037245005 -0.016316963 0.03819179 -0.019689672
-0.04652325 0.051058218 -0.06834743 -0.01460085 -0.032517653 0.052526627 0.0077187405 0.017125342
-0.05613078 0.006126946 -0.07056713 0.013320565 -0.05706515 -0.061361816 0.044104587 -0.06590816
-0.032167956 0.05078939 0.03692951 -0.05130879 0.042254884 0.028674008 -0.0021546246 -0.015946036
0.013993588 0.05661227 0.026241709 -0.0375662 0.055123597 -0.017795747 0.041975085 -0.029935304
-0.06637916 -0.057805676 0.04046456 -0.04644926 -0.04411697 0.011605753 0.029636422 -0.059699077
0.03243871 -0.062995024 -0.054573394 -0.017260477 0.03775225 -0.03397295 -0.014164224 0.03559858

conv2.0.bias f4 [20]
00000000: 5142 3abc 6b33 3e3d c015 32bd 6405 e4ba
00000010: 879b 673d d075 093a 3220 7a3c 9c5c 51bd
00000020: 72a3 2fbd 4227 24bd 73ca 54bd a578 abbc
00000030: 75d9 41bd 90f5 153d cc52 88bd 8000 1bbc
00000040: 1b62 8bbd 7d1a a9bc 63f1 933c 31ed 67bd
-0.01136835 0.046435755 -0.043477774 -0.0017396626 0.056544807 0.00052436907 0.015266465 -0.05111371
-0.042880483 -0.0400765 -0.051950883 -0.020931551 -0.047326524 0.03661114 -0.06656417 -0.009460568
-0.068058215 -0.020642513 0.018059438 -0.056622688

conv3.0.weight f4 [40, 20, 5, 5]
00000000: b34f 13bd 4ae2 803a cc62 29bd 8acd 2b3b
00000010: 895d 9d3c d5f3 5e3c b882 ee3c 47d8 213c
00000020: b35a 5ebd 02a3 2cbd 73eb 18bd 3832 59bd
00000030: ed51 66bc 777d 0dbd b5c2 00bd 7757 1abc
00000040: 2938 4cbd 625c ff3c dfac 123c f19c a53a
00000050: c77b f0bc 5ebb 133d 3e6b 53bc 5099 5fbc
00000060: 313e 013c c6e1 273d 15fc 173d 1b54 1a3d
00000070: 1033 043c 6918 8cbc 5558 4fb9 9c60 9f3b
00000080: 0aad a63b fbbd bbbc 5f63 ac3c db6a e1bc
00000090: d3ab 023d 26d0 29bd 96ef d73c 6f5e 0a3d
000000a0: a460 55bc f962 25bd a13a 4a3c e920 1c3d
000000b0: af45 3d3d 69f1 623c 98fd 42bc 6c92 19bd
000000c0: 8c1a c23c 2598 7b3b 51fa 1f3d 69e5 a4bc
000000d0: e1d7 c2bc 8e60 8ebc 07c9 c1bc 52c2 46bc
000000e0: cbc7 73bc bf62 a53c 4e9b 193d 96fb 153d
000000f0: 5e4a 193c cc2a 723d fe16 053d 5218 803d
00000100: c282 00bc 0e5a 6b3d e222 1a3c 83cf 6e3c
00000110: a018 593d c9a4 16bc 37d2 e7bb b75f 80bc
00000120: cb70 4c3d 5cb1 29bc 9781 afbc 9ba0 a53c
00000130: 595c 073c 0f4b c93c 7a67 2f3d 8544 ce3c
00000140: 6176 edbc ca6b 0f3d 3c5e fe3c 2c77 013c
00000150: 5a83 d5bb 4593 203d a08f e5bc ee37 eebc
00000160: 569b e93c 6125 6d3c 0962 b0ba 1d87 463c
00000170: b2ed d1bb d858 2dbc bbed 5a3d 994b 033d
00000180: 20ff 893c 871f 2f3c bb76 b03b 7e65 d9bc
00000190: 43fb cd3c 815d 1a3d de13 9f3c 4e21 c43c
000001a0: 3276 ba3c 93bb 403c 0d28 4d3d 7d85 683d
000001b0: 66f2 773d 8158 2f3d f88b 6dbb 4385 1d3d
000001c0: 3be7 683b 60dc 003c 040e ff3c 3b28 593d
000001d0: 9de5 853c f62d 773d f0be 33bb a5e7 9639
000001e0: dcc1 183d f150 673c 8f61 3f3d 683b 4d3d
000001f0: 8b61 0d3d 0d12 d33c c571 d43c 207e 2bbc
00000200: 21b2 efbc 238c 09bd f0a6 053c ddea bbbc
00000210: 0216 4dbd df04 abbb 026f 52bc d54c 8f3c
00000220: ae3c f33b 51d8 23bd 84d9 1abc 1188 cabc
00000230: 237c a3bc da6d 4a3c 8cfa 87bc 926d 1bbb
00000240: 4858 3ebd 8871 c63c d5bc 7eba db48 813c
00000250: 9a17 573c 8b8e 2bbd fd31 0c3c e488 233d
00000260: badb ab3c 7885 4c3d b6b0 cb3c e519 b43c
00000270: 6dc8 803c 70e4 cdbc 184d fbb9 ac1f 293d
00000280: 5c19 073d 8f43 2d3d 081a 493a a01c e13b
00000290: 86db fb3c 7b27 49bc 1a7a ea3c c7f8 033d
000002a0: 52ab 1c36 10ae 103d 9982 743d 8ac0 9f3c
000002b0: 2372 4a3d 9137 07bc 43e0 283d 8eb8 18bd
000002c0: a955 70bd e52a 6ebd 90ff 7ebd 47ba 25bd
000002d0: 49e1 66bc f217 89bd cc59 9239 43f6 4dbd
000002e0: d903 d73b 6a3a 59bd 2e58 87bd 0a44 693b
000002f0: 71f6 96bc ee9e 5abc 754f 5abd 14ba 55bc
00000300: fa4b 58bc 697d 52bd 6bc4 b7bc 2e0c f53a
00000310: ec50 933b 14ae 62ba 79e2 82bd dcd1 233c
00000320: 1bdb 05bd d758 08bd 322f d5bc 4612 63bd
00000330: a1db 5bbd b8f7 24bd e374 c8bc 3cd0 d43b
00000340: 9c6d 44bd 4d0a a03b 23cc fb3b cc99 67bd
00000350: 0ea1 bebc 448b 65bc 74f4 d7bc 0779 41bd
00000360: 5457 5abd ca1f a73b a09e 56bd bd3b b4bc
00000370: 2d34 8f3c cb95 833c 8673 263c a7e9 2bbd
00000380: 5105 21bd 0a59 ed3c 8001 113d 6ea0 a43c
00000390: e7be bc3c 6358 0f3c 0c9e 35bc dfd0 d93c
000003a0: d858 db3c 0333 f1bb 422f 3e3d ac15 d9bc
000003b0: 8f15 b33c ee0a 953c bc2a efbc ce0f c6bb
000003c0: 2afe c83c d4f1 773b 6b8f fcbc 2b68 0b3b
000003d0: dc90 4a3d 869b f43c 3a7a 083b c445 443d
000003e0: 4ff6 523d 9154 d1bc 48c5 1bbd a33f 803c
000003f0: c99f 1cbd 7326 d0bc d5de 4ab9 c6a5 97bc
-0.03596468 0.0009833064 -0.041353986 0.002621504 0.01920964 0.013607939 0.029115066 0.009878225
-0.054285716 -0.042147644 -0.037333917 -0.053026408 -0.014057619 -0.03454348 -0.031435687 -0.009420267
-0.049858246 0.031171981 0.0089523485 0.0012635273 -0.029355897 0.03606736 -0.0129039865 -0.013647392
0.007888363 0.0409868 0.03710564 0.037677865 0.008068815 -0.017101483 -0.00019773965 0.0048638117
0.005086546 -0.022917738 0.021043478 -0.027516773 0.031902146 -0.04145827 0.02635936 0.033781465
-0.013023529 -0.04037759 0.01234308 0.038117323 0.046209034 0.013851502 -0.011901282 -0.037493154
0.0236943 0.0038390246 0.03905708 -0.020128923 -0.02378458 -0.017380025 -0.023655428 -0.0121312905
-0.014879177 0.020188687 0.037501626 0.036616884 0.009356109 0.059122846 0.03249263 0.06254639
-0.007843675 0.05745893 0.009407731 0.014575842 0.053002 -0.009194561 -0.00707462 -0.01567064
0.049912255 -0.010357227 -0.021424098 0.020218184 0.0082617635 0.024571924 0.042823292 0.025179157
-0.028987112 0.035014905 0.031050794 0.007901948 -0.0065159025 0.039202947 -0.028022587 -0.029079404
0.028516453 0.014474244 -0.0013456951 0.012117174 -0.0064065093 -0.010580264 0.053449374 0.032054517
0.016845286 0.010688669 0.0053852475 -0.026537653 0.025144225 0.03768683 0.019418653 0.023941662
0.022761438 0.011763471 0.050087024 0.05676793 0.060533904 0.042809013 -0.0036246758 0.038457166
0.0035538215 0.0078650415 0.031134613 0.053016882 0.01634484 0.060346566 -0.002742704 0.00028782818
0.037294254 0.014118419 0.0467239 0.050105482 0.034516852 0.025765443 0.025933156 -0.010467082
-0.029259743 -0.03358091 0.008157477 -0.02293914 -0.050069816 -0.0052190865 -0.012843849 0.017492691
0.007423005 -0.040001217 -0.009451274 -0.024723085 -0.019956654 0.012355292 -0.016598962 -0.0023716432
-0.04647091 0.024224058 -0.0009717469 0.01578181 0.013128186 -0.041883986 0.00855684 0.03992547
0.020978797 0.049931973 0.024864536 0.021985004 0.01572057 -0.025133342 -0.0004793189 0.04128997
0.03298317 0.042300757 0.00076714205 0.0068698674 0.030744325 -0.012277479 0.028622676 0.032219674
2.3345533e-06 0.03532225 0.05969486 0.01950099 0.049425256 -0.008252994 0.041229498 -0.03728538
-0.058675442 -0.058146376 -0.062255442 -0.04046085 -0.014091798 -0.0669402 0.00027914194 -0.05028368
0.006561738 -0.053034224 -0.06608616 0.0035593533 -0.01842806 -0.013343556 -0.053298432 -0.013044853
-0.013201708 -0.05138913 -0.022432527 0.0018695646 0.0044957306 -0.00086471555 -0.063908525 0.009998765
-0.03267966 -0.03328785 -0.026023481 -0.05543735 -0.05367625 -0.040275306 -0.024469798 0.00649455
-0.047956094 0.0048840404 0.007684247 -0.056543157 -0.023270156 -0.014010254 -0.026361682 -0.04723456
-0.05330594 0.005100225 -0.05239737 -0.022001142 0.017480934 0.016062638 0.010159379 -0.041970875
-0.03931171 0.028973121 0.03540182 0.02009603 0.023040248 0.0087491 -0.011085045 0.026588855
0.026775762 -0.0073608174 0.046431787 -0.026499592 0.021860866 0.018193688 -0.029195182 -0.0060443645
0.024535257 0.003783335 -0.030830106 0.0021271806 0.049454555 0.029859316 0.0020824806 0.047918096
0.05150443 -0.02555302 -0.03802994 0.015655344 -0.03823832 -0.025408959 -0.00019347233 -0.018511664

conv3.0.bias f4 [40]
00000000: 642e 35bc dd53 8cbb 480c dc3c b0b0 01bd
00000010: f55c 803c 56a1 8fbc 38cc 53bc a7a3 183d
00000020: e125 4fbb 460f 813d 20b2 93bc 163f e73c
00000030: 5359 8d3b bb39 0b3d 405e e1bc fd71 333c
00000040: e235 4dbb b20e 1c3d 0b10 f6bb 5f44 a1bc
00000050: f287 463d 7fbd 983c fba2 613d d7d1 c6bc
00000060: bf9c 1f3d d89a 0f3d 86ae 013c d081 813b
00000070: 411d 9cbc c9b0 8a3c 8256 1239 1aa0 4a3c
00000080: 04db 59bc 5092 0f3d 1159 27bc 33c9 30bd
00000090: 8af5 11bd cb46 773d d427 bd3b eb47 fabc
-0.011058424 -0.004282458 0.026861325 -0.031662643 0.015669325 -0.017532986 -0.0129271075 0.037265446
-0.003160827 0.06301741 -0.018029273 0.028228324 0.004313627 0.033990603 -0.027510762 0.01095247
-0.0031312634 0.038099952 -0.0075092367 -0.019685922 0.04846949 0.018645046 0.05508707 -0.024269981
0.038967844 0.03505978 0.007915145 0.0039522424 -0.019056918 0.01693 0.00013955872 0.012367273
-0.013296846 0.035051644 -0.010214106 -0.04316063 -0.035634555 0.060370248 0.00577257 -0.030551871

conv4.0.weight f4 [80, 40, 5, 5]
00000000: 1f14 f33c 5e35 bdbc 1431 b8bc 0df4 6fbb
00000010: 8c2a 163d 8f52 503c 7dc7 e83b 8aa1 63bc
00000020: 29f5 c2bc c170 19bc 5a39 6bbc 2ffd c9bc
00000030: 96b4 d9bc f688 9abc f982 973c 7626 72bc
00000040: 79e2 ca3c e2b3 b1bc 93e9 0f3c db0c ecbc
00000050: 3674 86bc 19d8 fd3c 0630 a43c 2513 76bc
00000060: 3ba2 35bc 981c 893c e72c 82bc b3a6 b1bb
00000070: 04bc 18bc 1bc8 afbc 1d4c 493c 2f12 383c
00000080: 9732 ae3c 4f68 dcbc 9bcc 31bc de52 4bbc
00000090: a412 993c 31cb c5bc a2e8 15bc 72a8 b9bc
000000a0: f21c 653c dada 06bd cc6d b7bb 63bd b3bc
000000b0: 25a3 d1bc 165f a63b c906 00bd c2f2 eebb
000000c0: b6d9 6dbc 7d7a c2bc 25fe d0bb 294b b43c
000000d0: 6247 50bc 50d1 cfbc aa0c cb3c b79c 3bbc
000000e0: 17ad 8dbc 1ae8 fc3c 68a0 85bb df93 363c
000000f0: 253c abbb 80bf 9dbc 9a6d 783c 2ac2 a2bc
00000100: 588e 85bc cf1b c4bb 054e 51bc bcce 093c
00000110: 2794 9ebc 12e2 09bc e0ec 773c 6d36 aabb
00000120: f9f3 97bc f173 533c 1d3e 5dbc 9891 643c
00000130: 3abd 543c f624 bbbc 68a4 d93c ee62 193d
00000140: 1cd6 013b a3e0 233c 78ca 1c3d 3921 5abb
00000150: c500 bcbc 9908 143d b25e adbc e0b9 d83b
00000160: b762 5ebb 077e 0d3b 189e 053d a244 2f3b
00000170: c9b4 96ba 0c41 b93c dbbf c739 6fdf 4fbb
00000180: 66f1 b03c 3ec2 85bb 8dcd 393c 4bf0 fe3c
00000190: 69c5 d6ba ad7d a3ba 5198 853c 6966 e23b
000001a0: c0ae bebc 8e0c fd3b 9049 cdbc 5eff 90bb
000001b0: a36e a0bb 7fa1 d4bc 7a45 b7bc 4dd5 45bc
000001c0: 5289 e13c 4d75 37bb 64f2 983c 6e25 063c
000001d0: 23be 08bd 8f4e 2cbc abc4 36bc 17ec 263c
000001e0: 1898 2bbb 4c69 ea3c 6c61 03bd 9305 4abc
000001f0: 213b c8bb 87a2 b6ba 5338 763c 7233 a1bc
00000200: b3ce 6c3c ed8f 57bc f24f 47bb 3189 bd3c
00000210: 0e3c dcbc 2615 e6bc a60d f13c d048 61bc
00000220: fd87 883a f05c 003c bfcf e23c 71a0 d83c
00000230: b38a 0dbc ab98 42bb 7ea4 d73c 8cb2 2f3b
00000240: 163a b7bc 7239 d33c 1807 6a3c 467d 953c
00000250: 7b77 acbb 750d 313c b7ff e53b d2e8 5b3c
00000260: a163 cbbb 5993 6cbc 3818 cbbc 5fac a6bc
00000270: 3248 efbc bb29 9dba bf4c 53bb 9b20 5e3c
00000280: d40e d6bc ab6c 00bd b9f0 8e3c 95c0 0fbd
00000290: 116a 43bc 6a0d fdbb 2c97 8c3c 2c8c f4bc
000002a0: 7389 7cbb 77ff 0a3c 42a2 d63b 17e6 883c
000002b0: a770 813c abd9 deba 645e 423b f381 223d
000002c0: 9f64 16bc 048d 46bc 78c1 b3bb 9acd ca3c
000002d0: b0ab 8f3c d049 373d 9707 9f3c 65df 4cbb
000002e0: 1eb9 123d 3ee7 8f3b 3fb0 3c3a 5da1 2f3d
000002f0: a5a2 943c b177 803a cc3d 023b 114e 44ba
00000300: d960 0c3c 2415 64bc aaa2 963c d885 a03c
00000310: 0d39 5b3b 968c c13b bc13 2f3d f347 b33b
00000320: 7c86 1c3c 9237 19bb cde4 c2bc 2088 08bc
00000330: a0f8 c2bc 4044 8bbc 6b89 a4bb f7c7 8ebc
00000340: 4305 2c3c 5287 a33c 1385 0d3c 8035 343c
00000350: 4a2f 8cbc 2980 d7bc 44e6 f83c cc19 27bc
00000360: 5694 d43c 5608 653a c7de dfbb a17a ba3c
00000370: 1dd8 cd3c 6735 94bc b3c5 df3a ca57 e73c
00000380: 7c0e e73c 516f 0b3d fdfa 1e3c 8dac 18bc
00000390: b24e d03b 4601 6a3c c450 123d f359 93bc
000003a0: bdc2 1a3d 896b 29bc f727 0ebc 6955 fd3c
000003b0: c1f9 df3c 40e9 1b3d cad7 203d 4224 5a3c
000003c0: 4a0e c33c dd70 ba3c 1f10 a3bc 69b6 493c
000003d0: 0226 5d3c fa85 013d ac9b 94ba 46fa b8bc
000003e0: db02 e23c 351b fa3c 2cc5 bdbc 7458 b5bb
000003f0: 9956 04bd 37d2 a9bc c4ba 26bd 3b58 2a3c
0.02967268 -0.023096737 -0.02248434 -0.0036613971 0.03666167 0.012714996 0.007103859 -0.013893494
-0.023798542 -0.0093652615 -0.014356935 -0.02465686 -0.026575368 -0.018864136 0.01849507 -0.014779678
0.024766194 -0.02169222 0.008783716 -0.028814724 -0.016412836 0.030986832 0.02004243 -0.015019213
-0.011086042 0.016737267 -0.015890552 -0.0054214834 -0.00932217 -0.021457722 0.012286213 0.011234804
0.021264357 -0.026905207 -0.010852004 -0.012409894 0.018685646 -0.02414474 -0.009149702 -0.022663329
0.013983952 -0.032923557 -0.0055978056 -0.021940893 -0.025590489 0.005077253 -0.03125647 -0.0072921226
-0.014517238 -0.023740048 -0.0063779526 0.022008495 -0.0127123315 -0.025368363 0.024786312 -0.011450938
-0.01729445 0.030872393 -0.00407796 0.011143654 -0.0052256756 -0.019256353 0.01516285 -0.019867975
-0.016303226 -0.0059847604 -0.012774949 0.008411106 -0.019357754 -0.008415716 0.015132159 -0.0051944763
-0.018548952 0.012906061 -0.0135035785 0.013950728 0.012984568 -0.022844773 0.026567653 0.037447862
0.0019811457 0.010002288 0.038279027 -0.0033283962 -0.022949586 0.036141012 -0.021163318 0.006613955
-0.003393335 0.002159001 0.032621473 0.002674379 -0.001149797 0.022614025 0.0003809918 -0.003171887
0.021599483 -0.0040819934 0.011340511 0.03112044 -0.0016385737 -0.0012473367 0.016307982 0.006909181
-0.023276687 0.007722444 -0.025059491 -0.0044249734 -0.0048960014 -0.025955914 -0.022371996 -0.012074781
0.0275313 -0.00279935 0.018670268 0.008187635 -0.033384454 -0.010516777 -0.011155288 0.010188124
-0.0026183184 0.028614663 -0.03207533 -0.012330431 -0.0061105643 -0.0013933935 0.015028077 -0.019677851
0.014453578 -0.013156873 -0.0030412641 0.023136707 -0.026884105 -0.028086256 0.029425453 -0.01375027
0.0010416504 0.007834658 0.027686952 0.026443692 -0.0086390255 -0.0029693048 0.026323553 0.0026809303
-0.022366565 0.025784228 0.014283918 0.018248212 -0.0052632666 0.010806431 0.007019009 0.013422208
-0.006206945 -0.014439427 -0.024791822 -0.020345865 -0.02920923 -0.0011990586 -0.003224179 0.013557578
-0.026130117 -0.031353634 0.01744877 -0.03509577 -0.011927144 -0.0077225463 0.017161928 -0.029851995
-0.0038534075 0.008483759 0.0065501044 0.016711278 0.015800787 -0.0017002126 0.0029658312 0.03967471
-0.009179263 -0.012118582 -0.0054857098 0.024756242 0.017537922 0.044748127 0.019412799 -0.0031261083
0.035821073 0.00439158 0.00071978936 0.042878497 0.018143961 0.0009801296 0.001987326 -0.00074884394
0.008568012 -0.013921056 0.018388111 0.019595072 0.0033450753 0.0059066517 0.04274343 0.0054712235
0.009553548 -0.002337907 -0.023790741 -0.008333236 -0.023800194 -0.017000318 -0.0050212643 -0.017429335
0.010499301 0.019961987 0.008637684 0.0109990835 -0.017112393 -0.026306229 0.030383237 -0.010199022
0.025949638 0.0008736899 -0.006831977 0.022763552 0.025127465 -0.01809187 0.0017072469 0.028240103
0.028205149 0.034041706 0.009703395 -0.009318483 0.0063570375 0.01428253 0.035721555 -0.017987227
0.037783373 -0.01034058 -0.008676521 0.030924516 0.027340772 0.03806424 0.039268292 0.013314309
0.023810524 0.022758896 -0.019905148 0.012311556 0.013497831 0.03162191 -0.0011337898 -0.022580277
0.027589252 0.030530551 -0.023165308 -0.005534226 -0.03230915 -0.020730121 -0.040705457 0.010397012

conv4.0.bias f4 [80]
00000000: 6088 d1bc e961 1a3c c6aa e73b c2a8 e13b
00000010: 55c3 ed3c 5777 023c b3b6 8f3b 4990 f8bb
00000020: 2965 72bb 30aa 8ebb b55c bdbb d227 033d
00000030: 2fd2 0b3d 111a 463d d2be 0cbd 46c9 c4bc
00000040: 5419 4f3c 10e7 1e3c 962d 13bd a03a ce3c
00000050: 2f56 2b3d 81b5 1bbc 47a5 563c 2c03 ddba
00000060: 3b48 52bb e21c 233d 382a 063d f95e 25bd
00000070: e96d 243c 8757 24bc 5327 383c b822 193d
00000080: ebd8 083d 76b8 153d 72e4 a3bc 2cd4 af3c
00000090: bd93 0e3d 2743 72bb 5c8d 88bc fb53 113d
000000a0: 6c9e c83b 9ae0 213d 2e33 e33c 02cd e03c
000000b0: fb7e 1c3c 5e88 683c a974 553c 359f 6d3d
000000c0: 0e80 7b3c 893e b2bc 75a7 84bb 71f4 10bd
000000d0: 7cfd 133d 7dcb 80bc bca8 a13b 1c87 1d3c
000000e0: 569e 033d d7cc 9bbb 88be 233c 589d 003d
000000f0: d161 afbc 0529 d83c adfe 80bc cbbc aabb
00000100: a1fd 553c 0004 5b3c 7907 723c e23e dc3c
00000110: eee4 013d 497c 2a3c 13ab 44bd 02b0 1c3c
00000120: 1d75 d73c 3b67 0b3c f924 bf3c 5b06 c53c
00000130: 4694 0c3d b8a1 e63b f023 cb3c e5d8 6abc
-0.025577724 0.009422758 0.0070699183 0.0068865726 0.029023806 0.007963023 0.004385793 -0.0075855595
-0.0036986566 -0.004353784 -0.005778874 0.032020397 0.034135994 0.048364703 -0.034361668 -0.024021756
0.012640316 0.009698644 -0.035932146 0.025174439 0.041830238 -0.009503723 0.013100929 -0.0016861907
-0.003208651 0.039822467 0.032755107 -0.040373776 0.01003597 -0.010030634 0.011239844 0.037386626
0.033409994 0.03655287 -0.020006392 0.021463476 0.034808863 -0.0036966295 -0.016668968 0.03548048
0.006122401 0.039520837 0.027734365 0.027441505 0.009551759 0.014192669 0.013028302 0.05801316
0.015350355 -0.021758335 -0.0040482827 -0.035389367 0.036130413 -0.01572203 0.004933445 0.009614732
0.032133423 -0.0047546434 0.009994157 0.031400055 -0.021408947 0.026386747 -0.015746439 -0.005210494
0.013060958 0.013367653 0.014772289 0.026885454 0.031712465 0.010405608 -0.04801471 0.009563448
0.026300961 0.008508499 0.02333306 0.024050882 0.034321092 0.0070383213 0.02479741 -0.014333938
