BackCNN_finetuned_best_weights.pth (torch, 647347 bytes, 32 tensors)

conv1.0.weight f4 [3]
00000000: 3d2d 5f3f dbab 7f3f 9763 763f
0.87178403 0.99871606 0.9624571

conv1.0.bias f4 [3]
00000000: b90c 0d3e 479d 893e 3828 183e
0.13774385 0.26877806 0.14859092

conv1.0.running_mean f4 [3]
00000000: 4bea 533e 86b6 6f3e 63ca 603e
0.20694844 0.23409471 0.21952204

conv1.0.running_var f4 [3]
00000000: c378 6a3d 043f 493d 08c9 273d
0.057244074 0.049132362 0.040963203

conv1.1.weight f4 [20, 3, 7, 7]
00000000: 2d63 d7bc 8ccf 10bd 7c41 9cbd 18f6 e33c
00000010: a3de 84bc c56f a9bc e6fd b53c aa18 023d
00000020: 7fbe fabc 7f95 f33c 5c9e 34bc 3e83 aa3a
00000030: 3ade 61bb a6a6 38bb 20c4 87bd 05ae 913b
00000040: 5de5 d63b ddfb 40bd e8a9 44bb f99b 78bd
00000050: 3a44 0f3d a390 07bc 738d 92bd 42f2 9cbc
00000060: b989 e53c 0804 0bbd 96e7 b3bc b3ad a1bc
00000070: 5d0b 933c 90e3 b0bc bf3a 15bd 8ad4 273d
00000080: 1cf0 7dbd 0d5b 8cbc 073c 6c3d 31d4 69bc
00000090: ac1d 2c3c c2c5 443d 5b71 0fbd d455 91bd
000000a0: 76c8 123d 2c39 523b 95fe 04bb f2aa 9abc
000000b0: 2652 0cbd dcb4 ecbc 9b0f 20bd 8854 d6bb
000000c0: 8c35 fcbc 4094 7e3c fd79 273c 800a 473c
000000d0: 8a0c f4bc dd6e 233e d45c 6f3c 380a b1bb
000000e0: 2478 70bd 211f 9fbd 28e6 a2bd dbc1 c33d
000000f0: afda c53d 7ae3 d73d 654a bc3d 2358 1bbd
00000100: a88d aabb 9fe5 8abc 1988 4b3d 03d5 ee3d
00000110: 762d 423e 9175 633c 962e 533d 6da4 883c
00000120: 6f35 97bc 2211 8e3d 7c37 f33d 39b5 203e
00000130: a8c4 ef3d 6dc8 12bd 702e 3bbc 1bb9 debc
00000140: e6dd fd3d c0a0 c33d 4752 0d3e 217b 513c
00000150: 73a1 c33c b776 023d 51d5 79bd 43ee ce3d
00000160: 4110 113e 3511 3c3d 0558 6abc d267 56bb
00000170: fd9f 4939 c480 053d b11e d93d b8b6 193e
00000180: d9e6 1c3e 71e2 e73d 9f95 1abb 3e85 5e3d
00000190: 935b 853d 67fd 16bd e900 e5bd f58d 58bb
000001a0: ee94 2cbd 649d 173d d9c9 a43d 1723 0d3c
000001b0: 5cd8 6cbd 9bf6 21be 4207 29be ac05 61bd
000001c0: f3e6 7d3d 7a17 373d d762 6cbb a06f 36bd
000001d0: 6979 27be 46d8 00be a346 c4bd f5b7 27bd
000001e0: 01ac 123d 4ca9 443c 584f a0bd 9bdb 8cbd
000001f0: 78f5 1dbe f53c d2bd 3378 633b e878 8c3d
00000200: 1bcd 143d 1c37 02be c80f a7bd 47df 00be
00000210: 02fa 7dbd 5309 5bbc 686a f2bc f047 a03b
00000220: db7e d6bd 0a2f bebd c4fe 0dbe 3459 b33c
00000230: 488e babb 2807 4f3c 74d5 34bb 7b56 acbd
00000240: d95b 0cbe 2f7a 01be cf2d 6abd 6c25 86bd
00000250: ca28 80bd 840f 17be 97a4 3ebe 9f90 19be
00000260: a0d1 21be b0da 94bb b4f2 7ebd d1e5 51be
00000270: 2c85 eabd 6c3b 28be 1c9e 61be 7e23 29be
00000280: c970 24be 7fe9 3cbe 8e75 44be 48f2 80be
00000290: 1272 15be a4b5 08be e9be 3fbe c2e9 19be
000002a0: 725b d3bd 04bf 3ebe 7c46 60be 4d6a debd
000002b0: f757 bebd 7c55 91bd cacd 0ebe 06f7 d2bd
000002c0: 1ded 93bd b2ba cfbd 0e43 26be 7dea f4bd
000002d0: e8a2 95bc a648 6339 6134 46bd f930 32bd
000002e0: fdd6 0abd 9634 92bc 3f26 dabd 188e bcbd
000002f0: 99ed 7dbc 9c93 8f3b cb07 e4bb f175 05bd
00000300: 06a1 2dbd fc93 b63a 11b7 113c 0409 8abd
00000310: 073a d03d 66c7 ef3d 3152 9dbc a378 ab3d
00000320: b5c6 d23c 14e2 273d 621c c43d 28e0 863d
00000330: e1c8 55bc 4dd3 fdbc 7f0e 9c3d b5e7 753d
00000340: c1a5 ae3c f376 353d 1462 4d3d ec3c c9bd
00000350: b00b 803c db12 993d c055 113c d8ae 993d
00000360: d991 8ebc 3db1 243d 4364 b5bd 6616 90bd
00000370: afd1 34bd 3239 05bb 295f 843d 3236 dd3c
00000380: 0478 ccbd 05f5 ca3b 4e61 9a3d c29c 493b
00000390: ce5b 4d3c f596 923d 1eb0 b93c 773b 3f3d
000003a0: 6fed b0bd b053 5e3c 820a 59bd 6cc6 82bc
000003b0: 6612 aa3c 92f3 88bd 7c73 10bd 9a22 b8bd
000003c0: c3e0 05bd f4d9 1a3d f995 36bc c4cb 473c
000003d0: c5c9 7abd 3ac0 87bd f5fa 89bd 355f 62bd
000003e0: 3731 873d f0da 293d 44fd 5fbd 2c7d 5e3d
000003f0: 9739 8e3d 5ec1 b03d 1a41 c73d f322 803d
-0.026292408 -0.035354182 -0.07629678 0.027827308 -0.016219443 -0.020683179 0.022215795 0.031761803
-0.030608414 0.029734371 -0.011024084 0.0013009084 -0.0034464733 -0.0028175502 -0.06629205 0.0044457936
0.006558104 -0.047115196 -0.0030008499 -0.060695622 0.034977175 -0.00827423 -0.071558855 -0.019158486
0.028019773 -0.03393939 -0.021961015 -0.019736147 0.017949754 -0.021592885 -0.036432978 0.040974177
-0.061996564 -0.01713326 0.057674434 -0.014271782 0.010505121 0.04804016 -0.035020214 -0.070964485
0.035835706 0.0032077534 -0.0020293344 -0.018880341 -0.03425803 -0.028894834 -0.039077383 -0.0065408386
-0.030787252 0.015538275 0.010221955 0.0121484995 -0.029791135 0.1596026 0.014609534 -0.0054028295
-0.058708325 -0.07769609 -0.07954055 0.09558459 0.09660851 0.105414346 0.09193877 -0.03792585
-0.005204875 -0.016955195 0.04969034 0.116617225 0.18962654 0.0138830105 0.0515581 0.016679967
-0.018458096 0.069368616 0.11875817 0.15694131 0.11707431 -0.035835672 -0.011424646 -0.027187875
0.123958394 0.09552145 0.13800918 0.012785704 0.023880696 0.031851497 -0.06099445 0.101040386
0.14166357 0.045914847 -0.014303212 -0.003271569 0.00019228454 0.032593504 0.10601557 0.15011108
0.15322436 0.11322487 -0.0023587716 0.05432629 0.06511607 -0.036862757 -0.11181814 -0.0033043597
-0.042134218 0.037015334 0.08046312 0.008614323 -0.057823524 -0.15816729 -0.16506675 -0.05493705
0.06198783 0.044700123 -0.0036069655 -0.044540048 -0.16354908 -0.12582502 -0.095837854 -0.04094692
0.035808567 0.012003254 -0.078276336 -0.06877824 -0.1542567 -0.10265533 0.0034709095 0.068589985
0.036328416 -0.12716335 -0.08157307 -0.12585174 -0.062006004 -0.013368922 -0.029591754 0.004891388
-0.104734145 -0.09286316 -0.13866717 0.021893121 -0.005693231 0.0126359835 -0.0027593048 -0.08414932
-0.13706912 -0.12644266 -0.057172593 -0.065501064 -0.0625778 -0.14752012 -0.18617474 -0.14996575
-0.15802622 -0.004542671 -0.06224318 -0.20497824 -0.11451182 -0.16428918 -0.2203297 -0.16517445
-0.16058649 -0.18448447 -0.19185469 -0.25184846 -0.14594296 -0.1335054 -0.1872517 -0.15030578
-0.10320176 -0.18627554 -0.21901888 -0.10860119 -0.09294122 -0.07096383 -0.1394569 -0.10301022
-0.0722296 -0.10143031 -0.16236517 -0.119587876 -0.018266156 0.0002167547 -0.048389796 -0.043503735
-0.033896435 -0.01784734 -0.10651826 -0.0920679 -0.015498542 0.00438161 -0.006958937 -0.03258318
-0.042389892 0.0013929601 0.008893744 -0.06740001 0.10167318 0.11707954 -0.019204231 0.08372619
0.025729517 0.04098709 0.09575726 0.06585723 -0.013048382 -0.030984545 0.076199524 0.060035426
0.021319272 0.044302892 0.050142363 -0.09826073 0.015630573 0.074742995 0.008870542 0.07504052
-0.01740353 0.04020809 -0.08857014 -0.07035522 -0.044145282 -0.002032828 0.06463463 0.027003381
-0.09983829 0.0061937594 0.07538091 0.00307636 0.012534095 0.07157699 0.022666987 0.04668757
-0.08639037 0.013569757 -0.052988537 -0.015963756 0.020760726 -0.06687082 -0.035266384 -0.08990975
-0.032685053 0.037805513 -0.011144155 0.012194578 -0.06122758 -0.06628461 -0.067373194 -0.055266578
0.06601184 0.04146856 -0.054684892 0.054318592 0.06944578 0.08630632 0.09729214 0.06256666

conv1.3.weight f4 [20]
00000000: 9a3c 673f 6997 843f 6a00 7f3f 6b15 523f
00000010: efcb 5a3f 3369 673f 0b23 6e3f db29 5e3f
00000020: 4a6d 753f 68b6 723f 172c 853f 2fa8 763f
00000030: ebe1 7b3f d76b 753f 73d3 5e3f 2748 843f
00000040: 057a 703f c9ee 7c3f b04a 6c3f eea3 823f
0.90326846 1.0358707 0.99610007 0.8206393 0.8546743 0.90394896 0.9302222 0.86782616
0.95869887 0.9480958 1.040408 0.9635038 0.983916 0.95867676 0.87041396 1.0334519
0.9393619 0.9880186 0.92301464 1.0206277

conv1.3.bias f4 [20]
00000000: 6f2b 88be 545f 45be 276f efbd 3dc7 bc3d
00000010: a8b2 abbd d9ee 15bd 9068 a83d b9d4 c9bc
00000020: ef61 9cbd 3bd7 5fbe 47f4 5abe 2b64 a9bb
00000030: 4ad5 9abd 7c40 a8bd 76ad 2fbe 2588 ae3c
00000040: 156c a0be 737d a6bc 3f60 a1be 2b54 1abe
-0.26595637 -0.19274646 -0.116911225 0.09217689 -0.08383685 -0.036604736 0.08223069 -0.024637567
-0.07635867 -0.21859448 -0.21382247 -0.0051694117 -0.07560213 -0.082154244 -0.17156014 0.021305153
-0.3133246 -0.02032349 -0.31518742 -0.1507117

conv1.3.running_mean f4 [20]
00000000: de01 a73e b0eb 3a3f 20c7 a63e 846e ff3f
00000010: a724 6a3e dc47 373d feaf ec3e a6af a63d
00000020: da5d a33e a041 303e bba1 1e3f f15d 653e
00000030: 84a3 083f 1538 bf3e 82c1 713e 3824 853e
00000040: 4a36 693e 0b4c 813e 1f89 d93d dd12 b63e
0.32618612 0.7301588 0.32573795 1.9955602 0.22865544 0.044746265 0.4622802 0.08138971
0.3190754 0.17212534 0.6196553 0.22399117 0.53374505 0.37347475 0.23608974 0.26004195
0.22774616 0.2525333 0.10621857 0.35561267

conv1.3.running_var f4 [20]
00000000: 6a7e b23e 7e3d 2e3f e769 003f eca2 7d41
00000010: 2be5 903e 62ad 1f3e 6800 f83f 7656 023e
00000020: 8250 db3e c358 b03d 474e 243f 9c1a 023f
00000030: f7b7 1d3f 547c 0f3f 185d 0b3f 0aa8 e63e
00000040: 3bc7 0c3e d5e8 b73e 9efb 883d 8b07 623f
0.3486207 0.6806258 0.50161594 15.852276 0.2829984 0.15593484 1.9375124 0.12728295
0.4283486 0.0861068 0.6418194 0.5082185 0.61608833 0.56049085 0.54438925 0.4505008
0.13747875 0.35919824 0.06688617 0.8829276

conv2.0.weight f4 [40, 20, 7, 7]
00000000: 0104 c5bd 06eb 03be b14a 0dbe 86c2 23be
00000010: b812 edbd 1b56 6ebd 6349 b5bb 74d9 febc
00000020: aa56 acbd ced3 04be 4a79 37be ee94 e1bd
00000030: 1c1c a3bd 0b0b 96bd 35e3 4a3b 61a7 b5bd
00000040: 62ce edbd 6548 31be f522 f7bd 55a5 79bd
00000050: 7255 33bd 0236 29bb 9a8b f9bc a21b 68bd
00000060: b35a d2bd 3798 92bd d0a0 8abc 41fc b0bc
00000070: 074e 1d3d e450 9c3c e48e e4bc ecde 23bd
00000080: a6bd 57bd d343 c6bc b54f ab3a 1a29 5e3d
00000090: f95c 3e3d 98dd 9a3c c748 88bb 3004 183d
000000a0: c4db 603d 21ed 4c3d 0d4a fa3d f627 c43d
000000b0: 937b 2a3d d36a 313d f6d1 b73c 579e 853d
000000c0: deb1 e33d 3d27 fdbc c23f 9bbd 4e81 28bd
000000d0: eb4b 3cbd 36c7 52bd 6664 11bd 178b 24bd
000000e0: 54d9 e9bb 17ce 0bbb e4b1 15bd 178e e3bc
000000f0: 83ce 20bd e1ab 06bd b88f 5ebd 2323 583c
00000100: 862c 523c 88a2 9d3c ac1b aa3c 265c c4bc
00000110: d578 b5bc 3ebd 18bc 92cf a53d 50b8 623d
00000120: 9f5d 893d b931 573c c50b e83c dcc6 143c
00000130: a0b0 c53b 4352 943d b0db c73d cce0 b13d
00000140: a849 2a3d ada3 083d 6900 563d 2ba4 f7bb
00000150: 47af 303d d0f9 cc3d 7107 ba3d c493 853d
00000160: 7196 753d a3e6 983d 531a 123d 0948 7d3d
00000170: e0c7 893d a5e5 8d3d b1bf ae3d d508 a13d
00000180: d6de 643d 4496 683c 1b10 d33c 40f4 02bc
00000190: 5012 3dbd 8fbb ecbd d954 f4bd 7097 febd
000001a0: 359f 05be 3843 113d de9c b5bc b933 2ebd
000001b0: 5776 41bd 4d10 00be fbd2 d3bd 59bd 06be
000001c0: 1e22 dc3d f54d 843d 903c 3e3d fe7f 9f3c
000001d0: a4d8 79bd 7a42 a7bd 4cf7 0dbe 8993 d33d
000001e0: d455 ba3d ad75 b03d 6431 e03c 536c adbb
000001f0: efa8 90bd a0a2 f1bd 83e3 ea3d d448 5d3d
00000200: 0128 953d b838 5e3d 3fe7 26bd 9315 c4bc
00000210: 0dcd cbbd 19af e03d a3ce d03d 8b6d f63c
00000220: 8395 1b3d d152 e3bc 40d7 7cbd 8039 e1bd
00000230: d872 b53d 1fd9 bd3d 3c6d 383d 7d00 2b3d
00000240: 61cd 4cbd 3ff6 f0bc 7b2e e5bd 0e3e 453d
00000250: 4e0a 11ba da54 f7bb 6e87 b73c eee5 c13c
00000260: 5a74 553d 6caa 0dba 75d0 303a 23f2 8fbc
00000270: 9cb2 093d 88fa a5bc 1706 df3c 96ae e73c
00000280: eafc bc3c 20f5 973c ced3 073d 0e55 bd39
00000290: 8699 96ba 0108 1d3c f708 5a3c 3695 bf3c
000002a0: 9e42 093d 86e6 d23c 4c6f 9638 b37d 20bd
000002b0: cdd6 8cbc f62e 38bc 49d4 41bd 5159 4638
000002c0: ccdd 523b 13bb 2abd f665 33bd f55c 09bd
000002d0: c2e4 edbc 07ca 1fbd cf89 d4bc 7320 46bd
000002e0: 2854 66bc a156 63bd e669 2fbd fb2f 5fbd
000002f0: dffc 37bd fc1d dfbc 3535 45bd 5ed2 1fbd
00000300: b94c 18bd b082 7dbd 8654 0ebd 01df 8cbd
00000310: 544e 6bbc 41d2 6cbd 216e 39bd 2a5d e4bc
00000320: face 10ba e64d 73bc 8414 16bd 19a6 46bd
00000330: 686d 2fbd a6f0 b9b9 0671 9ebb e108 a0bc
00000340: 2b74 f6bb 5d8f 90bc 39f3 0ebd 3562 4cbc
00000350: 7e7f 923c 54f3 8e3d 5831 843d 661e 2f3d
00000360: 4810 51bd 1dd1 473c e90f ab3b 3b4b 393d
00000370: df88 723d a143 413c ba93 c8bc 27a6 85bd
00000380: 04ff 12bb f5d7 173d 4cbe 143d 49f6 1f3d
00000390: 3fef a23c 41b1 efbc 9fa5 d2bd a21b 1d3d
000003a0: de7d 163d e9cc 633d 0f45 e63b 4c3f 6e3c
000003b0: 7fc0 e83b 0d5e 97bd d76c 923c 6deb 2a3c
000003c0: b392 273c a113 d2bb cef5 b1bc 42d1 99bd
000003d0: d87c eebd 433c bcbc 6f1d 603b 9b26 9bbb
000003e0: 5d2b 213d 8166 e8bc b7cc fdbb 2686 d1bd
000003f0: 4eed 8abc 9cfb b0bc b706 2a3d d088 e23d
-0.09619904 -0.12882623 -0.13798024 -0.15992174 -0.11575836 -0.058187585 -0.00553243 -0.03110955
-0.08414967 -0.12971422 -0.17917362 -0.11014734 -0.07964346 -0.07326325 0.003095818 -0.088698156
-0.1161163 -0.17312773 -0.120672144 -0.06094869 -0.04378266 -0.0025819545 -0.030462075 -0.056666978
-0.10271206 -0.07157939 -0.016922385 -0.021604659 0.03840449 0.01908154 -0.027900167 -0.040007517
-0.052671097 -0.024202263 0.0013070019 0.054238416 0.046475384 0.018904492 -0.0041590664 0.03711337
0.054897085 0.05003083 0.12221155 0.095779344 0.041621756 0.043314766 0.022438984 0.065243416
0.1111791 -0.0309025 -0.0758052 -0.04113894 -0.04597084 -0.051459514 -0.035496138 -0.04017171
-0.0071365032 -0.0021332556 -0.036546603 -0.027777715 -0.039259445 -0.03287876 -0.05433628 0.013191971
0.012827998 0.01924254 0.020765148 -0.023969721 -0.022152344 -0.009322463 0.080962315 0.055351555
0.0670731 0.013134413 0.028325925 0.009080615 0.006033018 0.07242253 0.09758699 0.08685455
0.04157415 0.03335922 0.052246485 -0.007557412 0.043135908 0.100085855 0.090834506 0.06522325
0.059957925 0.074658655 0.035669636 0.061836276 0.06727576 0.06928567 0.08532656 0.07863013
0.055876575 0.014195982 0.025764516 -0.007992804 -0.046160042 -0.115592115 -0.11930246 -0.12431228
-0.13049014 0.035464495 -0.022169527 -0.042529795 -0.047232 -0.12506218 -0.10342976 -0.13158168
0.10748695 0.064601816 0.046444476 0.019470211 -0.06099762 -0.08166976 -0.13863868 0.103308745
0.09098402 0.08616195 0.027367301 -0.0052924543 -0.070634715 -0.117985964 0.11469176 0.054024532
0.07283021 0.05425331 -0.040747877 -0.023936069 -0.0995122 0.10970897 0.10195663 0.030081531
0.037984382 -0.02774945 -0.061728716 -0.109972954 0.08859795 0.09269928 0.04502605 0.041748513
-0.050000552 -0.029414294 -0.11190506 0.048154883 -0.00055328466 -0.007547957 0.022403445 0.02366921
0.052112915 -0.0005404118 0.00067449297 -0.017571514 0.0336176 -0.020261064 0.027224584 0.028281491
0.023069818 0.018549502 0.033160977 0.0003611226 -0.0011489845 0.009584428 0.013307801 0.023386579
0.033510797 0.025744688 7.173288e-05 -0.039182376 -0.017192269 -0.011241665 -0.04732159 4.729006e-05
0.0032175658 -0.041682314 -0.04379841 -0.033535916 -0.029039744 -0.039011028 -0.025944619 -0.04837079
-0.01405815 -0.055502538 -0.042825602 -0.054489117 -0.04491889 -0.027235977 -0.048146445 -0.03901898
-0.037182543 -0.06189221 -0.034748577 -0.06878472 -0.014361937 -0.0578177 -0.045271043 -0.027876455
-0.0005524006 -0.014850115 -0.03664066 -0.048498247 -0.042828947 -0.00035465247 -0.004835251 -0.019535484
-0.0075211725 -0.017646486 -0.034899924 -0.012474586 0.017883059 0.06980005 0.06454724 0.0427536
-0.051040918 0.012195853 0.0052204025 0.04523776 0.05921256 0.011795909 -0.024484504 -0.06525832
-0.0022429833 0.037071187 0.036314294 0.039053235 0.019889472 -0.029259326 -0.10285496 0.03835643
0.03674113 0.05561534 0.0070272754 0.014541458 0.0071030254 -0.07390986 0.017874165 0.010432106
0.010227847 -0.0064110314 -0.021723654 -0.07510616 -0.11644906 -0.022977954 0.0034197231 -0.0047348267
0.039347995 -0.02836919 -0.007745351 -0.10230665 -0.016958859 -0.021604352 0.04151031 0.11061251

conv2.2.weight f4 [40]
00000000: 40ea 643f 227a 6f3f ed9a 793f 433d 7b3f
00000010: 7505 4f3f 1084 633f 96ad 573f 7265 733f
00000020: 2a5e 803f b2fb 753f a32d 613f 3091 763f
00000030: 11e5 713f 6d44 5c3f efee 803f 7777 843f
00000040: ec4e 7a3f fa22 583f 2321 633f 1d02 5f3f
00000050: 0fdc 753f 7652 6e3f 60c0 6c3f 7f56 553f
00000060: 597f 643f 068e 603f b0a7 823f 9490 803f
00000070: 5cda 783f 84fb 793f 7647 683f 2082 853f
00000080: 1f99 603f 0a67 593f dbdd 7c3f af60 6c3f
00000090: 0ffd 8f3f 07fd 803f 2adf 813f fb52 5d3f
0.8941994 0.93545735 0.97502023 0.9814035 0.808677 0.88873386 0.84249246 0.9507667
1.0028737 0.9608718 0.8796026 0.9631529 0.9449015 0.8604191 1.0072917 1.0348958
0.97776675 0.8442837 0.8872244 0.871126 0.9603891 0.93094575 0.9248104 0.8333511
0.8925682 0.8771671 1.0207424 1.0044122 0.9720819 0.9764941 0.9073404 1.0430336
0.87733644 0.8492285 0.98776025 0.9233503 1.1249102 1.0077218 1.0146229 0.86454743

conv2.2.bias f4 [40]
00000000: 96e6 203e 549f 36be a299 2e3e bade b43e
00000010: 9d88 60be 8734 b23e 65b7 2c3e 6f50 223e
00000020: 95cd a63e 6ea0 7a3e e6b5 08be c245 52be
00000030: 3a8a 433d 0cb7 8abb 7e86 813e f389 843e
00000040: 4d78 0dbd a2b0 0abe 63f2 963d 3d91 533e
00000050: 6830 02be 1f0e 6f3e 2c5e 6fbc 2083 8cbd
00000060: b449 523e a8b1 ba3d 2668 713e a0ac 023e
00000070: d96a 02be 618c 233e 41ad d43d 410f 993e
00000080: fa06 3ebd e023 913c 6c94 3fbd e90a 853e
00000090: f4e0 983e 96d6 6a3e fe37 f13d 0c99 a13e
0.15712962 -0.17834216 0.17050794 0.35326177 -0.21927114 0.348057 0.16866834 0.15850995
0.32578722 0.24475262 -0.13350639 -0.20534423 0.047739245 -0.0042332467 0.25297922 0.25886497
-0.034538556 -0.13543943 0.0737045 0.20660873 -0.12713778 0.2334523 -0.014609855 -0.068609476
0.20535928 0.091159165 0.23574886 0.12761164 -0.12736072 0.15971519 0.10384608 0.2989445
-0.046393372 0.017717302 -0.046772406 0.25984886 0.29859126 0.2293342 0.11778258 0.31562078

conv2.2.running_mean f4 [40]
00000000: c6e5 4e40 cedb 0840 8e32 9940 53ef 3940
00000010: 881c 3340 15cd 9240 cdaa 7540 ddd7 5a40
00000020: e506 8f40 3864 aa40 77cb 2f40 3648 3940
00000030: c14a 3340 3b57 5540 8102 3d40 5867 1c40
00000040: 1781 e63f 2af9 d93f 2ecd 3e40 78f7 d640
00000050: fd46 3c40 b427 1440 7065 9b40 ed72 2640
00000060: c977 6140 a1af 8f40 128e 5240 5920 8940
00000070: 15b2 3240 f283 d740 a1d5 b840 bfe0 8340
00000080: be1c b940 eab1 6d40 b15b fc3f 2b37 dd40
00000090: ff81 3440 c9b1 6a40 8bfd e140 1a9a 7840
3.2327743 2.1384158 4.787421 2.9052322 2.7986164 4.5875344 3.8385499 3.4194252
4.4695916 5.3247337 2.7467935 2.8950324 2.8014376 3.3334491 2.9532778 2.4438076
1.8008145 1.7029164 2.9812732 6.7177086 2.9418328 2.3149233 4.8561325 2.6007645
3.522936 4.490189 3.2899213 4.2851987 2.7921193 6.7348566 5.7760777 4.121185
5.7847586 3.713984 1.9715482 6.9129844 2.8204343 3.6671011 7.0622 3.8844056

conv2.2.running_var f4 [40]
00000000: cc37 2742 65f8 6e41 e3b8 ff42 ef1c 8242
00000010: 04d8 6141 594a 3042 42de 6d42 2005 7842
00000020: 63a7 a642 b84f 5042 697d 9c41 e672 3242
00000030: 47a5 1f42 3db3 1c42 39ce 4f42 063c 2642
00000040: 7eeb 3241 f515 2341 d2a9 9941 4f8e 5642
00000050: 8a21 2c42 1000 a441 eeae f842 fcdd 6a41
00000060: e44d 9042 5149 bf42 9bd7 2442 4de0 c842
00000070: 772d 9541 14c7 9442 e5db c742 80ee e442
00000080: 42da d742 ddcc 3d42 270e 3741 66d6 f042
00000090: 7c59 8b41 f3a8 1942 d7df bb42 0412 4842
41.80449 14.935643 127.86111 65.05651 14.115238 44.072605 59.46705 62.005005
83.32693 52.07785 19.561235 44.612206 39.911404 39.175037 51.95139 41.558617
11.182493 10.192861 19.20792 53.638973 43.032753 20.50003 124.34166 14.679195
72.15213 95.643196 41.210552 100.43809 18.6472 74.388824 99.92948 114.46582
107.926285 47.45006 11.440955 120.41875 17.418694 38.41499 93.93719 50.017593

conv3.0.weight f4 [80, 40, 3, 3]
00000000: 4aa9 fabd 9f07 05be 3760 b13b 5649 03bd
00000010: b359 6cbd ae2c c3bc 647e 30bc 350d f9bc
00000020: 72e5 b73c 8d73 5ebd bbbd 9ebd 6b5d edbd
00000030: 4322 02be ba72 65bd 60ad b3bd 0fd5 ccbd
00000040: 1a71 4ebd d566 71bd a441 0e3d 0a73 b3bc
00000050: cfe2 6dbd f0e7 5bbd 594e b2bb a993 84bc
00000060: b8d7 093d 9822 9f3d 93af 853d 7313 27bd
00000070: 5df2 d1bd e65c 1abe 3730 82bd f5fd c5bd
00000080: de8c e5bd 488c a43c 566f 953d 583a 27bd
00000090: 8f1c c93d ff35 b6bc 3448 75bc 883c 52bc
000000a0: cc08 b63c e724 d1bd 1c2f ba39 7e5c 7bbd
000000b0: cd4b 1cbe 407b fb3b 1b1f 66bc 8deb 703d
000000c0: b52e 143d 335b 0cbd 06da c5b9 309c d9bc
000000d0: 392d 923c 8b9d da3c 6379 46bc 3540 40bd
000000e0: e61e a3bd ab6c a9bc 63f1 84bd 9e40 03be
000000f0: db0d f1bd 89b6 bfbd 49b0 dcbd 0b29 acbd
00000100: 402a 39be d38b e3bd 7f85 debd f8bd e0bd
00000110: daab ddbd babc adbb 5b0a 9fbc bd16 7b3c
00000120: acaa 763d aa9f 8bbc 9f29 4d3b 2aa0 063b
00000130: 3f35 5c3d 7596 373d 9360 a13d 4e4b 863d
00000140: 95c8 f43d e593 f9bd 9da3 fcbd e898 e2bd
00000150: 18e6 debd 409f 04bc 0c61 02bd 787b 9ebc
00000160: d10e 79bd fc8e 84bd 4100 e2bc 2dca 76bd
00000170: 1d90 80bd 0a38 dbbc bd62 9bbd 113e 24bd
00000180: a13c 8fbd 6432 0dbe 989e 06be 4e86 e2bc
00000190: 3e39 0bbd ff97 98bd 298d cf3b ea3b b83b
000001a0: 95a0 0bba 631c bb3c f6fa 19bd b6d6 703d
000001b0: 11a5 c2bd cd7d 02be 4632 23bd 70cd 29bd
000001c0: ec5e 73bd 2019 0cbd 8e33 babd 5e66 a9bd
000001d0: d866 01be 814a 88bd b290 3ebd 325f a9bd
000001e0: 5c25 17bd b651 1bbe 2148 15be fa9b acbd
000001f0: 5e5d 22be 47e0 bfbd 1ec4 b2bd d8ba 99bd
00000200: a69a d5bd 7998 79bd d812 8ebd 2852 17bd
00000210: ca89 32bd 1f5f 82bc f85f 6a3c 5a2c fabc
00000220: 2e63 6abd 9905 b0bb e761 1cbe ce5c 2bbe
00000230: 3760 69bd 0b00 5cbd 1a68 08be 2e66 b0bd
00000240: 6980 143c eb01 273c 7d28 603d 448d 08be
00000250: 31ff d3bd 2301 bfbc 6436 1bbe 43a4 2abe
00000260: 9ed3 92bd 9648 85bc 84c1 3abc cdca 01bd
00000270: 1bb8 b5bd 4947 90bd 69c8 00be d076 85bd
00000280: 43c0 e7bd cb3a ccbd 83af 763d 5cbd 223d
00000290: 6ac3 1cbc 7d00 1fbd 13f6 843d c65b 9f3b
000002a0: bcff 46bd 2b63 6e3c 997b 89bc 7866 453d
000002b0: 318c b23d 354d 703d 6e14 64bc bed7 433d
000002c0: af24 8c3d 8324 a23c 5650 353d 96b9 0b3d
000002d0: 7ce6 0fbd 76e8 35bd 2ccc 8e3d d3ff e13c
000002e0: b490 86bd 8cd7 8e3b b8e8 ddbc d6f8 98bd
000002f0: 6a14 dd3c 7b18 8ebd afa6 7abd c3fa 29bd
00000300: d3e3 803c 123a d3bb 9e41 0f3d c4e3 e53c
00000310: 8b80 6ebd 7ed0 0a3d c202 0fbd 3762 38bd
00000320: fba2 7d3d 0753 cfbc 7ada 5bbd 476f 543b
00000330: 4d6e 30bd 5304 c7bd 146d 88bb 357b f23d
00000340: 1899 883c 5d30 9fb9 79ec 8d3d f129 433d
00000350: 2667 9d3d 0c1a 333d c3be bd3b 3ca4 3a3d
00000360: dc67 d0bc 3579 bebd b1d5 10bd f23d debd
00000370: 03ff cdbd d52d b6bd 61ac abbd 39c7 03be
00000380: 73a1 d73b f028 12bb 10e2 c9bd 0341 bbbd
00000390: d171 383d ca51 2ebd 51d6 cdbd f8b4 ad3b
000003a0: 1c31 f4bc e5ba 3dbc 5f12 babc 38e3 efbd
000003b0: cc23 debd 8577 36bd 4338 84bd 80f7 bcbd
000003c0: 5fcf 91bd d28a 1a3d e232 883d 0068 f6bd
000003d0: 09c9 cabd b51f f9bd a2de 2cbd dc51 88bc
000003e0: baf7 8abd b4f8 5b3c 111e a33a 79f0 323c
000003f0: c374 13bb d766 9bbd ffe6 9dbc 920f b2bd
-0.122393206 -0.12991188 0.005413081 -0.03205236 -0.05770273 -0.023825016 -0.010772321 -0.030401805
0.022448275 -0.054309417 -0.07751032 -0.11590084 -0.12708382 -0.056017615 -0.08773303 -0.10001575
-0.05040083 -0.05893596 0.03473057 -0.02190544 -0.05807763 -0.05368799 -0.0054414687 -0.016183691
0.03365299 0.0777027 0.06527629 -0.040790033 -0.10251305 -0.150745 -0.063568525 -0.09667579
-0.11208509 0.020086423 0.07296626 -0.040827125 0.098199 -0.022242544 -0.014970828 -0.012831815
0.022220992 -0.10212117 0.00035511784 -0.061367504 -0.1526329 0.0076746047 -0.014045502 0.05881839
0.036177356 -0.03426666 -0.00037737208 -0.026563734 0.01784383 0.02668645 -0.012113902 -0.046936233
-0.07964878 -0.0206817 -0.06491353 -0.12817618 -0.11770221 -0.09360988 -0.10775811 -0.08406266
-0.18082523 -0.11110654 -0.10865306 -0.10973734 -0.10823794 -0.005302039 -0.019414118 0.015325245
0.06022136 -0.017043907 0.0031305326 0.0020542243 0.053761717 0.04482122 0.07879748 0.06557332
0.119523205 -0.12186412 -0.12335894 -0.11064321 -0.10883731 -0.008094609 -0.031830832 -0.019345984
-0.060805146 -0.064725846 -0.027588012 -0.060251404 -0.062774874 -0.02676012 -0.07587192 -0.040098254
-0.06993986 -0.13788754 -0.13146436 -0.027651932 -0.033990137 -0.07450866 0.0063339663 0.0056223767
-0.0005326358 0.022840684 -0.03759285 0.058798514 -0.0950414 -0.12743302 -0.039842866 -0.041455686
-0.059416696 -0.03420365 -0.090918645 -0.08271478 -0.12636888 -0.066548355 -0.04652471 -0.0827011
-0.036900863 -0.15167889 -0.14578296 -0.08428188 -0.1585593 -0.093689494 -0.08728813 -0.07506341
-0.104298875 -0.060936425 -0.06937188 -0.036943585 -0.043588437 -0.015914498 0.014305107 -0.030538727
-0.05722349 -0.005371761 -0.15271722 -0.16734621 -0.056976523 -0.05371098 -0.13320962 -0.08613239
0.0090638185 0.010193328 0.054726113 -0.13335139 -0.10351408 -0.023315972 -0.15157467 -0.16664223
-0.07169269 -0.016269963 -0.011398677 -0.031687547 -0.08873006 -0.070448466 -0.1257645 -0.06516802
-0.11315968 -0.09972151 0.060225975 0.03973137 -0.009568075 -0.038818825 0.064922474 0.004863235
-0.04858373 0.014550011 -0.016782569 0.048193425 0.08718146 0.05866738 -0.013920886 0.04781317
0.06842934 0.0197928 0.044266067 0.034112535 -0.035131916 -0.044411145 0.069725364 0.027587807
-0.06570569 0.0043591913 -0.027088508 -0.07469337 0.026987273 -0.06938263 -0.061194118 -0.04149891
0.015733635 -0.0064461315 0.034974687 0.028062709 -0.058228057 0.03389024 -0.03491474 -0.04501554
0.06192301 -0.025308145 -0.053675152 0.003241496 -0.04307394 -0.09717622 -0.0041633938 0.11839906
0.016674563 -0.00030362877 0.06929869 0.04764742 0.0768569 0.043726012 0.005790563 0.045566782
-0.025440149 -0.09300462 -0.035360042 -0.10851659 -0.10058405 -0.088954605 -0.08382488 -0.12868966
0.0065805255 -0.0022302233 -0.09857571 -0.091432594 0.04503042 -0.04255847 -0.10050643 0.005301114
-0.029808573 -0.011580204 -0.022713838 -0.117132604 -0.108466715 -0.044547576 -0.064560436 -0.092268944
-0.07119631 0.037730046 0.0665033 -0.12031555 -0.09901626 -0.12164251 -0.042204507 -0.016640596
-0.06785531 0.013425995 0.0012444874 0.010921591 -0.0022500015 -0.075879745 -0.019275187 -0.08694376

conv3.0.bias f4 [80]
00000000: 981a 793d ec24 90be 1820 44be 692f 3cbe
00000010: 90b8 94bd 22cf 79be 12a1 ccbd 2af2 bc3c
00000020: 6f74 483d 3492 21be 2938 5dbc 0c8a c0be
00000030: 6065 9cbd cceb 75be 71f3 9ebe 3f92 84bd
00000040: 6518 9dbd 7d80 26be 9779 bebe 9191 05bc
00000050: 1777 85be bbe2 b5be 018e 95be 54bc f5bd
00000060: ddcc 90be e29e 30be 52f5 43be 2971 09be
00000070: f519 16be 744c 383e fac5 55be b69c a43d
00000080: 6baa 07be 225f f5bd ffd3 51bb 586c 393d
00000090: 8ef9 afbe e6a2 393e f41e 863b 61b6 5bbd
000000a0: d0c2 dbbb 0a24 37be 850c e9bd 17bf 553d
000000b0: 680f bbbd d079 59bd 7c3a e8bd 8233 9e3d
000000c0: 44a2 34be dab8 69bd 38b5 e2bc a0c0 84be
000000d0: 8a39 6bbe 4d67 40bd 7a25 46be 5e96 febd
000000e0: ff63 4abd e162 2ebe 4e74 51be f0b1 24be
000000f0: a33e cfbd 138b 0dbd 0b01 5a3d 4cbc 22be
00000100: 435d 59be 83e1 8ebd 12a9 2f3d 1837 b13e
00000110: 7a41 b4bd 760c 3e3e 153c be3d e72b 8b3d
00000120: 9b82 60be 706f 88bd 1120 7abe df38 95be
00000130: c3d3 0c3d a088 e5bd 1106 fcbe 70f0 ccb9
0.060816377 -0.2815317 -0.19152868 -0.1837746 -0.07261765 -0.24395421 -0.09991659 0.023064692
0.048939165 -0.15778428 -0.013502159 -0.3760532 -0.07636523 -0.2401573 -0.31045106 -0.06473207
-0.076706685 -0.16259952 -0.3720214 -0.0081523815 -0.2606742 -0.35524544 -0.29209903 -0.11998811
-0.28281298 -0.17248109 -0.19136551 -0.13422073 -0.1465834 0.17997915 -0.20876303 0.08037703
-0.13248603 -0.11981036 -0.0032017229 0.04526934 -0.34370083 0.18128547 0.0040930454 -0.053640727
-0.006706573 -0.17884842 -0.11379341 0.05218419 -0.09133798 -0.053094685 -0.1133928 0.07724668
-0.17640024 -0.057061054 -0.027674302 -0.2592821 -0.22971168 -0.046973515 -0.19350234 -0.12431024
-0.04941177 -0.17029907 -0.20454523 -0.16083503 -0.10119369 -0.03455646 0.05322365 -0.15892142
-0.21226983 -0.06976607 0.042885847 0.34612346 -0.08801551 0.18559441 0.092888035 0.06795483
-0.21924822 -0.0666188 -0.24426295 -0.29144952 0.03438164 -0.112077 -0.49223378 -0.00039089052

conv3.2.weight f4 [80]
00000000: 8ab8 793f f0d2 633f 0638 453f 6ec4 593f
00000010: 386f 763f bf3b 453f 3479 623f c24f 513f
00000020: 09f7 613f de49 5b3f 1354 613f 926a 6f3f
00000030: 34f7 783f 1f88 5a3f 9243 843f 09aa 6d3f
00000040: 349d 4e3f ffe7 4d3f 5af8 653f 1c86 583f
00000050: c984 693f c0f4 723f 57fe 603f 21a6 853f
00000060: 5b72 683f defb 623f 2e35 593f b579 483f
00000070: 2817 883f 76d9 4a3f 67ff 4f3f fe70 713f
00000080: 8591 573f 34db 3b3f 01ac 653f 9925 6a3f
00000090: ff83 7b3f a6c8 583f fa0a 4c3f 2c4e 6c3f
000000a0: 8518 603f 2af0 7c3f 39b2 823f c681 4d3f
000000b0: 233c 703f 10da 583f 2158 683f bd9d 673f
000000c0: 8231 583f 5b4f 703f 0cbf 7b3f 96d2 643f
000000d0: 6f4c 483f ee33 673f ef26 563f 74ed 803f
000000e0: a2f7 5c3f 2002 483f c95c 5c3f 3aa4 7b3f
000000f0: d73a 7f3f be9c 443f 3766 5d3f f29c 623f
00000100: 4ffc 813f 3eac 413f 50fb 4e3f 0b5a 523f
00000110: 3ba1 773f 3b06 7f3f 3dad 703f 8676 5d3f
00000120: 33e0 6e3f cadd 483f 772c 5c3f 0668 833f
00000130: 0cb8 5c3f 9de5 833f be1e 853f 9758 413f
0.9754721 0.8899374 0.7703861 0.8506535 0.96263456 0.7704429 0.8846619 0.81762326
0.8826757 0.8565959 0.8801891 0.9352199 0.972522 0.85363954 1.0333121 0.9283758
0.8070862 0.8043212 0.8983208 0.84579635 0.9121824 0.9490471 0.8788809 1.0441324
0.9079949 0.8866557 0.8484677 0.7831071 1.0632067 0.7923807 0.8124909 0.9431304
0.8420642 0.7338135 0.8971558 0.9146362 0.98248285 0.84681165 0.7970425 0.9230678
0.87537414 0.9880396 1.0210639 0.80276144 0.9384176 0.84707737 0.90759474 0.90475065
0.8445054 0.93871087 0.9833839 0.8938383 0.7824163 0.90313613 0.8365316 1.0072465
0.8631536 0.7812824 0.8607908 0.98297465 0.9969916 0.7680167 0.8648409 0.8852073
1.0155123 0.75653446 0.8085222 0.82168645 0.96730393 0.9961888 0.9401434 0.8650898
0.9331085 0.78463423 0.8600535 1.026612 0.86218333 1.0304447 1.0400007 0.755258

conv3.2.bias f4 [80]
00000000: 912d 4a3e 34ae bb3e 59ee 11be 3477 a93d
00000010: ea36 b93e 79f3 ce3d 0565 c73d 9711 d33e
00000020: 4242 cc3d a363 a83e be16 cd3e 2488 6ebe
00000030: ecd1 123e 4137 85bc d350 c73d aef8 663e
00000040: 6a82 d9bd 8007 b03e ea3f f33e 3f87 ce3e
00000050: 0b1e ec3e c80a b43e 0039 f23e e32c b43e
00000060: 1aa9 12bf 9f91 80be d3bd a0be 7b96 fe3e
00000070: 89cf c23e 2d8b 15be c9df a33e e2b8 983d
00000080: 8f3d f0bd a739 73be 04bf fa3d d18a 323e
00000090: ba9e b7be c060 053f 8264 a33e 8c10 073f
000000a0: 1030 32be 3337 203e fae1 af3e 3d97 7bbe
000000b0: 44ab b33d 8c70 3e3e 3b0e 0e3f ba2b 053f
000000c0: 65a7 2dbe 02a7 b33e 32bd bf3e b22a d73d
000000d0: 3974 ddbd 872a 993e 7bea a43e 12a5 c83e
000000e0: c0f1 21be 878a b6be 08c6 98be 07b2 a1be
000000f0: 0d1f 913e 880e e23e b350 2a3e a22a 303e
00000100: f867 3a3e b463 963d 0ca3 abbd bb8c 6b3e
00000110: 6020 f2bd 03d5 aa3e 6ab1 8c3e d980 a3be
00000120: 5463 c33e 0092 1abe a9d3 ec3e 5661 6d3c
00000130: e6a2 f03e b1b8 003f 2e1e 16bf 1ab7 ce3e
0.19743945 0.36656344 -0.14251079 0.08274689 0.3617471 0.101050325 0.09736065 0.41224357
0.09973575 0.32888517 0.40056413 -0.23294121 0.14337891 -0.016261699 0.09732213 0.22555801
-0.10620578 0.34380722 0.475097 0.4033756 0.4611667 0.35164475 0.47309113 0.35190496
-0.5728928 -0.251111 -0.31394824 0.49724182 0.38048962 -0.14603873 0.32006672 0.074571386
-0.11730491 -0.23752461 0.122434646 0.17435767 -0.35863286 0.52100754 0.3191262 0.52759624
-0.17401147 0.15646057 0.34352094 -0.24569412 0.08772901 0.1859762 0.55490464 0.52019846
-0.16958387 0.35088354 0.37449032 0.1050619 -0.10813183 0.29915258 0.32210144 0.3918844
-0.15814877 -0.35652563 -0.29838586 -0.31581137 0.28344002 0.4415171 0.16632347 0.17203763
0.18203723 0.073432356 -0.08380708 0.23002903 -0.11822581 0.3336564 0.27479106 -0.3193424
0.3816172 -0.15094757 0.46255234 0.014488539 0.46999282 0.50281817 -0.586398 0.4037407

conv3.2.running_mean f4 [80]
00000000: 37bf d13f a9cd 613f 50ae 693f 7efc 803f
00000010: d2c2 a03f 56d1 8c3f aa0d 8b3f a60c e63f
00000020: e734 bb3f 57cf 7d3f e7b6 fa3f 839a 4d3e
00000030: 784d 193f af96 2c3f 1633 cb3d ca84 d13e
00000040: 9d60 be3f a6f0 883f 319f 0840 db81 bd3f
00000050: fd38 f53f 3649 873f bc46 af3f b502 ad3e
00000060: 8178 983e 063a cf3e b47e b43e f601 d53f
00000070: 3aac 733e c353 f13f 5c91 0c40 310e 0540
00000080: 94ce ff3f 29e2 683f 56c7 013f a8a5 c13f
00000090: f28d 7b3a 9e00 1f40 3959 0340 339c ab3f
000000a0: 69cd 0a40 6766 cd3e 626b 983e 359b b03f
000000b0: 10f9 8c3f 7fbd aa3f c9dd 0740 11cf c33f
000000c0: 2499 653f 0663 823f a7da ba3f b793 9a3f
000000d0: ad1f 2a40 0992 e43e 3981 1440 cd18 103f
000000e0: 39cf 913f c737 d53f 3a11 c03f 8207 0f3f
000000f0: 58f8 3d3f a79d 9c3f 178d d83f 3d97 863f
00000100: 90d8 b53e 66b9 673f a92c d53f d9eb d63f
00000110: df9b 9d3e 9f78 8f3f 6fe9 fd3f fe85 a63f
00000120: ab3d c63f 215c 443f 53dd d63f 7727 e53e
00000130: 6a13 0140 9b96 9c3e 2e47 10bd 8f01 ed3f
1.6386479 0.8820444 0.91281605 1.0077055 1.2559454 1.1001384 1.0863545 1.797261
1.462552 0.991445 1.9587067 0.20078473 0.5988383 0.67417425 0.09921853 0.40921623
1.4873234 1.069844 2.1347163 1.4805254 1.9158016 1.0569217 1.3693461 0.33791128
0.29779437 0.40473956 0.35252917 1.6641223 0.23796168 1.8853687 2.196372 2.0789912
1.9984918 0.90970093 0.5069479 1.5128679 0.00095960416 2.4844127 2.0523207 1.3407043
2.1687872 0.4011719 0.29769427 1.3797365 1.1013508 1.333908 2.1229117 1.5297567
0.896868 1.018647 1.4597977 1.2076329 2.6581833 0.44642666 2.3203871 0.56287843
1.1391364 1.6657647 1.5005257 0.5587083 0.7420707 1.2235612 1.6918057 1.0514904
0.35516787 0.9051727 1.6654254 1.6790725 0.30782983 1.1208686 1.9836863 1.3009641
1.548757 0.7670308 1.6786293 0.44756672 2.01681 0.30583653 -0.035224132 1.8516101

conv3.2.running_var f4 [80]
00000000: ee27 8040 f332 9940 4754 7840 22a0 8d40
00000010: 27c0 2d40 af05 e840 0ae2 3e40 10e3 9b41
00000020: 3eba 4940 4c9d 6840 319e e040 00bb 403f
00000030: 16e0 e43f 7ea3 3b40 e3aa 393f 32e1 4e3f
00000040: bbff a440 1339 c440 e89a df41 a49a 2d41
00000050: bf4b f241 5bd0 fe40 a9ac 4241 8545 623f
00000060: 6ed2 333f 6b4b 5b3f 40e7 213f c799 9441
00000070: d02a cb3f 9956 8940 e2eb f541 8c73 ab40
00000080: c755 7041 17e8 6c40 2b53 823f e2da 0641
00000090: b7e9 9d3e 1ea2 4a41 3093 5441 a262 0d41
000000a0: 70ae e140 4668 5b3f f8f4 1a3f 4d4c 8c40
000000b0: f234 a440 25cc bd40 26e7 f540 df6f 8f40
000000c0: 15fe 4e40 f3d2 3f40 3aba 7140 a9fa 1541
000000d0: c074 2542 8843 693f c408 1442 df06 9f3f
000000e0: 9cd1 3140 0d7e bb40 ebce aa40 b312 933f
000000f0: 5649 2b40 33d3 9340 52a0 a840 a70f be40
00000100: aa5d ab3f aee3 a340 27c2 3441 9ed5 a040
00000110: 1d7c 0e3f cb68 1a40 eaf6 af40 579e 7b40
00000120: dede 4441 142e d83f da93 4941 8759 8a3f
00000130: e9a5 4641 7c26 583f ea63 4e3e 94b2 0241
4.004874 4.7874694 3.880144 4.4257975 2.714853 7.250694 2.9825463 19.48587
3.1519923 3.6346006 7.0193105 0.7528534 1.7880886 2.9318538 0.7252638 0.8081237
5.156217 6.131967 27.950638 10.850254 30.286985 7.962934 12.167153 0.8838733
0.70242965 0.85661954 0.63243484 18.575087 1.587244 4.291821 30.740177 5.357855
15.020942 3.7016656 1.0181631 8.428438 0.30842373 12.664579 13.285934 8.83658
7.0525436 0.85705984 0.6053004 4.384314 5.131463 5.93117 7.6844664 4.482406
3.234258 2.9972503 3.7769914 9.373696 41.364014 0.9111867 37.00856 1.2423972
2.7784185 5.859137 5.3377585 1.1490082 2.676351 4.619531 5.2695704 5.9394107
1.3387959 5.121543 11.2974 5.0260763 0.5565813 2.412646 5.498891 3.9315393
12.304411 1.6889062 12.598597 1.0808572 12.415505 0.8443372 0.20155302 8.168598

conv4.0.weight f4 [120, 80, 3, 3]
00000000: 5c61 683c e447 2fbd d8d6 36bd 799a 753c
00000010: 1ffe a63c 377e e3bc faa6 4ebc b8cf 87bd
00000020: be39 6abd e61c 5a3d 3b48 263d c4cf b93b
00000030: b141 933c 31c0 183d 49fd eb3c 1bfb 143d
00000040: ee7c e03c 930b a5ba 4175 8fbc 56cd f93c
00000050: 99b3 50bc cb57 b43b 2907 3cbd 3d01 153c
00000060: 92f5 74bd 4426 313c a39b a33c 282b fcba
00000070: 500e 9f3c bdf1 57bc c58c cabc 2f46 e3bc
00000080: c18f 5d3d 12e6 223c 04a2 c7bc ab0a 683d
00000090: f1b0 903d 1f15 103d e7b5 a33a 93e0 07bd
000000a0: 8569 eebc b6f4 49bd a546 a3bd 2493 ddbd
000000b0: ba4f b0bd 09f5 0d3e 123c d43d 004a 5e3d
000000c0: 4145 943b 2e30 af3c de64 89bc e958 a63c
000000d0: 9d95 ab3d 2201 3b3d 4dd7 413c acdc bdbc
000000e0: b259 92ba cb1c bebc dd9a ec3c 9fcc 5cbd
000000f0: 7e56 68bd 2fe5 243d 5544 29bd 547a 9b3d
00000100: e752 063d eac9 9f3c 14d0 1b3d 3894 593c
00000110: b11b 383c 6039 01bd 7277 05bd 090e 66bd
00000120: bca7 35bd be96 9fbd 9593 9fbd 8e90 88bd
00000130: 7067 02be 9b1d e4bd fcf5 8cbc 906f f6bd
00000140: ec94 c2bd 4424 99bd ecc2 ccbd 7a85 89bd
00000150: d321 b03b c52e 373c cc1d 0a3c 12d9 00bc
00000160: 404a 2bbd 06e7 c33c 4717 af3d ce41 393c
00000170: 1fdb 773d 0249 d63a f755 163b 2caa 2c3d
00000180: 4639 033a ceb6 f73c ac25 62bc 1c98 6d3d
00000190: e735 083d 71eb 9f3d 56d0 b53d c818 37bc
000001a0: cdda 733d ff8c fb3d 62b6 383d 4d6d d33d
000001b0: 63ff 3d3d e9ce d03d 4270 b33d 13be 323c
000001c0: f331 363d 9fe2 31bc bfa1 653d 4f22 113d
000001d0: 90db 0b3d 41d0 c53b 29da 1c3c 3206 923d
000001e0: 9902 5b3d 7119 2f3b 5047 2e3c 9801 683d
000001f0: 23c6 853d a697 fb3c 2fe0 49bd de8d c9bd
00000200: 146d 1bbd cf8d e83d 35ba e73b 9e19 a53d
00000210: 45af aabd 87b6 b2bd 7cf7 7fbd d1d7 2b3d
00000220: 2795 2c3d 9ac4 f03d 3ee4 493d b7ca e83b
00000230: 538d 9b3c b3f2 6a3d ac2c 2d3d e917 cc3d
00000240: 7c4e 27bd 9d91 12bd 456c aebc 0ffe 51bc
00000250: a430 3ebd a236 a73c 4a9a 8cbd 8746 73bb
00000260: 3107 e33c 8e26 2d3c 3729 283c 503b 943c
00000270: e273 553d f145 0b3d 5fcf 02bc 9a58 573d
00000280: a004 583d 4775 5a3d 9082 2b3d de7a 193c
00000290: 74bc 14bc 2889 14bc b149 823c da24 13bc
000002a0: 6480 803c 5bae 0f3d b4e3 4abd fa86 913c
000002b0: 3619 82bd 240e 5bbd 0688 2c3c 71de cebc
000002c0: 8a9d 48bd 8bf3 3fbd b30f e3bc 6c21 05bc
000002d0: f832 c43d dc8d c4bb 6680 cf3b 217f 1c3d
000002e0: 878b 213d cce0 c33c 883a 02bd 6087 f2bc
000002f0: a8ee 8abd 25c2 293d 05c6 08bc bffa 75bd
00000300: bb22 343c fa46 e5ba ef08 c0bc 46c8 363d
00000310: 057e c93b ac7d 50bd 69e5 093d bc4c 343c
00000320: 1545 41bd 5103 c3ba 141e e8bc 6951 44bd
00000330: dbc6 fc3b b71b bcbc 64b5 97bd 0ad3 74bd
00000340: 98c2 ad3b a309 893c 5c63 db3c 1cfd 073d
00000350: 2638 0c3d 5df4 bf3c afb6 ed3d e62e c93d
00000360: aa46 22be e600 79bd 995f c1bc d172 8abd
00000370: ec90 95bd b238 983c 8a3a 9db9 bd9e 2bbd
00000380: f4d4 00bd f16b f1bc 80e3 3fbd 0d73 83bd
00000390: 99f7 7c3d 2881 873d 6d2e 8e3c cc6e ce3d
000003a0: defc f83d 0131 2c3d 4622 0abc 4552 7cbc
000003b0: 6e20 b03c e83d b9bd b3a7 aabd 74bd adbc
000003c0: 4ccf 21be d696 19be 102f ddbd 5624 ddbd
000003d0: fd8b 1fbd 0335 83bd 272d 31bd adbe 14bd
000003e0: a715 dcbd bc85 10bd 0c12 f1bd 2df1 d7bd
000003f0: bd4b f8bd 5890 35bd 5f8b 4dbd 66ac 1fbe
0.0141833685 -0.04279317 -0.044638485 0.014990442 0.020384846 -0.027770145 -0.0126130525 -0.06631416
-0.057183973 0.053250216 0.040596228 0.0056705195 0.01797566 0.037292663 0.0288073 0.036372285
0.027403321 -0.001259195 -0.017511966 0.03049342 -0.012738132 0.00550363 -0.045905266 0.0090945335
-0.059804507 0.010812346 0.019971674 -0.0019238936 0.019416004 -0.0131801935 -0.024725327 -0.027743427
0.054092173 0.009942548 -0.024369247 0.0566508 0.07064999 0.035176393 0.0012490124 -0.033173155
-0.02910305 -0.04930564 -0.07972459 -0.108190805 -0.08608957 0.13863005 0.1036302 0.05426979
0.0045248573 0.021385279 -0.01677173 0.020306068 0.08378146 0.045655377 0.011831117 -0.023176514
-0.0011165647 -0.023207089 0.028882438 -0.05390608 -0.05672311 0.04025763 -0.041324932 0.075916916
0.032793906 0.01950546 0.038040236 0.013279967 0.011237071 -0.031548858 -0.032584615 -0.05616573
-0.044349417 -0.07792424 -0.07791821 -0.066681966 -0.12734771 -0.11138459 -0.017207138 -0.120329976
-0.09501061 -0.0747762 -0.09998116 -0.06714912 0.005375126 0.011180584 0.008429956 -0.007864254
-0.041818857 0.023913871 0.08549362 0.011307193 0.060511705 0.0016348662 0.0022939423 0.042154476
0.0005005788 0.030238535 -0.013802927 0.05800639 0.03325453 0.07808579 0.088776276 -0.011175342
0.059534837 0.12282752 0.04509581 0.10323582 0.046386134 0.10195715 0.08761646 0.010909575
0.04448123 -0.010857253 0.056062456 0.03543311 0.034144938 0.0060367887 0.009573498 0.07130088
0.053469274 0.0026718045 0.010637119 0.056642145 0.06531932 0.03071196 -0.049286064 -0.09841512
-0.037945822 0.11355173 0.007071758 0.08061527 -0.08334211 -0.087262206 -0.06249188 0.041953865
0.04213443 0.11756249 0.049289934 0.0071042436 0.018988287 0.057360362 0.04227893 0.09965498
-0.040846333 -0.0357834 -0.021291861 -0.01281692 -0.046433106 0.020411793 -0.06865366 -0.0037120895
0.02771339 0.010568274 0.010263733 0.018094689 0.052112468 0.03400225 -0.007984011 0.05257473
0.052738786 0.0533345 0.04187256 0.009367673 -0.009078134 -0.009065904 0.01590428 -0.008980954
0.015686221 0.035078388 -0.04953356 0.017764557 -0.06352465 -0.053480282 0.010530477 -0.025252553
-0.048978366 -0.04686312 -0.027717447 -0.008125644 0.09580034 -0.0059983563 0.006332445 0.038207177
0.039439704 0.023910902 -0.0317941 -0.029605567 -0.06783801 0.041444916 -0.008347993 -0.060053583
0.0109946085 -0.0017492466 -0.02344176 0.04462459 0.006149056 -0.0509011 0.03366605 0.011004623
-0.047185022 -0.0014878308 -0.028334655 -0.0479292 0.007714135 -0.022962434 -0.074076444 -0.059771575
0.0053027384 0.016728228 0.026780777 0.03320037 0.034233235 0.023431951 0.1160711 0.09823398
-0.15847269 -0.060791872 -0.023605155 -0.06760181 -0.07303032 0.018581722 -0.00029988989 -0.04189943
-0.031453088 -0.029470416 -0.04684782 -0.064184286 0.061759565 0.066164315 0.017356122 0.100797266
0.121576056 0.04203892 -0.008431023 -0.015400474 0.021499839 -0.09045011 -0.08332767 -0.021208502
-0.15801734 -0.14998946 -0.10799992 -0.10797946 -0.038951863 -0.064065956 -0.04325595 -0.036314655
-0.10746317 -0.03528379 -0.1177102 -0.105440475 -0.12123821 -0.04432711 -0.050181743 -0.15593109

conv4.0.bias f4 [120]
00000000: 3ffe abbd 3811 303d f62e 63be adf4 923d
00000010: 9e8b b13d 4cf7 613d 63e2 df3d 12e8 51be
00000020: 73a2 90be 104f 10be c24e 0cbe 4119 20bd
00000030: c764 bdbd fd31 06be 53d5 49bc ce67 55be
00000040: 0010 a9bd 0eb9 b5bc 167f 1abe 8b4f 7bbe
00000050: ba6b c83b c581 a4be 2517 81be 8032 62be
00000060: d9ac 113e abd0 86be 1f52 fbbc 5257 cfbc
00000070: cab0 ddbd 4ac5 cdbc 32d1 17be 2211 03be
00000080: f834 3ebc bca9 44bd e1b1 36be b206 babd
00000090: 2ce9 603d e8fc 17be f3d5 62be 53e4 4bbe
000000a0: 95c1 c73c a4e2 553d b7da a6be 22fb dbbd
000000b0: 8c71 de3c 74e5 08be 4b89 3f3d 95f0 273d
000000c0: 3a46 98bd 5f29 a6be 083a adbe c885 93bd
000000d0: 8144 52be 5441 a9bd 98b3 99be 6b95 7bbd
000000e0: 2504 17be cc8a 66be 920a 1e3d 6e73 1bbe
000000f0: d5e1 20be 48ef 1abd 8741 93bd 7cee 8bbe
00000100: db9e c83c 4518 cabc 542d e7bd 12f1 95bd
00000110: a038 b1bd ffe5 b73d d643 f8bd fafa ffbd
00000120: 43d3 67be 2ab3 4ebe 4a39 103c 6e43 9a3d
00000130: 7096 98bd f3d5 afbe 2322 36be 511e 473b
00000140: 6f60 04be 162e 3dbd 4060 3a3d 6000 1fbe
00000150: 44ba 96be df4c 9fbe 34de 1a3d 2699 c1bd
00000160: 7562 56bd 0947 12be 6a1c a6bd 3278 73be
00000170: b078 a9bd e498 513d 1188 d6bd 04ba 44be
00000180: a50f a33b e964 cf3d 1068 c9bd bda2 273e
00000190: dae4 f2bd 567e 59bd edda dabd ec1d ccbd
000001a0: 9848 2c3d 7d4f 95bb 5c18 9bbe e7dc acbd
000001b0: 654d 21bd 2958 a93d 28ae d7bd df1d 9ebc
000001c0: 1d76 35be af45 8fbc 31d5 5fbc e992 7dbd
000001d0: 0e93 81bc 0966 cf3c 5879 febc 05ce ddbd
-0.08398103 0.04298517 -0.22185883 0.071755745 0.08669208 0.05516748 0.10931852 -0.20498684
-0.2824894 -0.1409266 -0.13701919 -0.039086584 -0.092477374 -0.13105007 -0.012318927 -0.2084038
-0.08255005 -0.022182968 -0.15087542 -0.24542062 0.0061163576 -0.32130256 -0.2521297 -0.22089577
0.14226092 -0.26331076 -0.030678807 -0.025310192 -0.108247355 -0.025118489 -0.14825895 -0.12799504
-0.011609308 -0.048013434 -0.17841293 -0.09083308 0.05490987 -0.1484257 -0.22151928 -0.19911318
0.0243843 0.052218094 -0.3258874 -0.10741259 0.027153753 -0.1336878 0.046761792 0.04100092
-0.0743527 -0.3245344 -0.33833337 -0.07203251 -0.20533945 -0.082644135 -0.30019832 -0.061421793
-0.14747675 -0.22513884 0.0385843 -0.15180752 -0.15711148 -0.037825853 -0.07190233 -0.27330387
0.02448981 -0.024669776 -0.112879425 -0.07321371 -0.086533785 0.08979415 -0.12122314 -0.12499042
-0.22639184 -0.20185533 0.008802721 0.075323924 -0.07450569 -0.34342918 -0.1778646 0.003038306
-0.12927411 -0.04618653 0.045501947 -0.15527487 -0.29438984 -0.31113335 0.037809566 -0.09453039
-0.05233999 -0.1428491 -0.08110888 -0.2377632 -0.082749724 0.0511712 -0.10475171 -0.19211584
0.00497623 0.10126669 -0.098343015 0.16370673 -0.11860056 -0.053099 -0.10686288 -0.09966645
0.04206142 -0.004556595 -0.30292022 -0.08440571 -0.03938045 0.08268768 -0.105312645 -0.019301353
-0.17720838 -0.017489282 -0.013661669 -0.061907683 -0.015817191 0.025317209 -0.03106372 -0.10830311

conv4.2.weight f4 [120]
00000000: c395 633f 76f5 863f 7183 903f 6d93 653f
00000010: e037 593f 98ff 3c3f c179 843f 1bd4 703f
00000020: ac7a 743f 9599 763f 04dd 8d3f baf2 7d3f
00000030: 8d63 663f 251b 723f 35b7 653f a90a 7c3f
00000040: 49dc 733f e5fc 753f 617a 813f 80d9 723f
00000050: 2300 763f 441b 743f bc8e 733f 1a5d 8a3f
00000060: 45c5 803f 959d 733f d449 533f 1888 8c3f
00000070: 7456 7d3f 2941 753f 7e25 733f ff34 783f
00000080: d48d 5e3f 2093 873f 11b0 6d3f d1d1 613f
00000090: 50f9 6c3f c4dd 823f 8dc4 813f 1287 773f
000000a0: 55c6 6e3f 8ce6 563f 1813 823f c46a 773f
000000b0: cce7 583f 9039 6b3f 9156 613f d8cc 673f
000000c0: ca13 823f 5817 7d3f eb4f 753f 0921 6a3f
000000d0: a0bf 833f 271d 6e3f b467 813f cfe1 7d3f
000000e0: 1161 6a3f cea0 803f bf94 723f 864f 5d3f
000000f0: 0747 803f 0924 4f3f af6b 7a3f df9b 7c3f
00000100: f1a2 5f3f 5671 853f 9605 6c3f 0e9e 593f
00000110: 8c15 803f e4a4 7f3f b91e 703f e0d3 763f
00000120: eef2 663f 6e9e 7a3f 6900 753f ebd2 843f
00000130: 193e 5d3f ef70 813f 20ae 813f 502c 753f
00000140: 9627 7e3f cd0c 773f 70ef 7d3f 6ac0 783f
00000150: 0fd6 7e3f 27d9 803f 00a0 703f 6e6d 6d3f
00000160: af8d 633f 6929 753f 9067 853f c88c 713f
00000170: 2219 6c3f 6d99 793f 6184 7d3f 1816 6a3f
00000180: 1f9d 6b3f 9c57 863f 3e2a 6f3f f518 853f
00000190: 658d 5e3f a81c 723f 75ad 5f3f 983b 6f3f
000001a0: e137 763f 2657 693f 838e 823f 504b 633f
000001b0: 17db 653f 0711 8d3f 40b5 543f 29fc 6f3f
000001c0: 00e8 7d3f 289b 613f f304 763f a386 6c3f
000001d0: d1e4 6f3f 0c90 713f cf83 6e3f c72e 5c3f
0.88900393 1.0543659 1.1290113 0.8967808 0.84850883 0.73827505 1.0349656 0.9407365
0.9549968 0.963281 1.1083074 0.99198496 0.8999565 0.9457267 0.89732677 0.98453766
0.95258003 0.9608901 1.0115472 0.9486313 0.9609396 0.95354104 0.9513967 1.0809662
1.0060202 0.95162326 0.8253453 1.0979033 0.9896004 0.9580255 0.94979084 0.96955866
0.8693516 1.0591774 0.9284678 0.8821078 0.9256792 1.0223927 1.0138108 0.96690476
0.9327138 0.83945537 1.0162077 0.96647286 0.84728694 0.9188471 0.88022715 0.9054694
1.0162289 0.98863745 0.9582507 0.9145666 1.0292854 0.9301323 1.0109773 0.9917268
0.9155436 1.0049074 0.9475822 0.8644947 1.0021676 0.8091436 0.9782056 0.9867534
0.87358004 1.0425212 0.92196023 0.850068 1.0006576 0.9986098 0.9379688 0.96417046
0.9021443 0.97897995 0.9570375 1.0376867 0.8642288 1.011259 1.0131264 0.9577074
0.99279153 0.9650391 0.9919348 0.971686 0.9954538 1.006627 0.9399414 0.927451
0.88888067 0.9576631 1.042223 0.9435544 0.9222585 0.97499734 0.9903012 0.9143996
0.9203662 1.0495486 0.9342383 1.0398241 0.869345 0.94574976 0.8737405 0.9345031
0.96179014 0.911486 1.0199741 0.8878679 0.8978743 1.1020821 0.83089066 0.9374414
0.9918213 0.88127375 0.961013 0.9239294 0.9370852 0.94360423 0.93169874 0.86008877

conv4.2.bias f4 [120]
00000000: 5afc 7cbd 4d6b efbc 3bf3 28be 72b7 a6bd
00000010: 33e8 793c 7eb7 2abd f5f2 6b3d 4f3d 673d
00000020: c9fa 5cbd 1ac7 84bc 6efd 9b3c 45d9 4e3d
00000030: ca13 86bb 10e2 693d 16c1 bd3c 8c93 ccbd
00000040: 0dd0 b03d 05a9 ccbd 57b0 0dbc 05a2 903d
00000050: 795c fe3b 58b4 d1bd f0ed 46be 0e2e 1dbe
00000060: cbfb 5bbd 5685 5cbd 6604 033d a2b2 13be
00000070: d52b edbd ea51 07bd fe3e afbd 1e57 b6bd
00000080: de2d e7bc 3ded 98bd 6f93 b73b f829 10bc
00000090: 8228 3fbd 7749 a73c 17c3 82bd 0a2b d1bd
000000a0: dd9c aebb 9894 cf3b 9029 e73d 86c6 243d
000000b0: 6882 a6bc 3920 1ebd 550f c83c 1f43 b4bd
000000c0: 2068 44bd 096c 2dbe 82bd 0ebe 7c2e 5dbd
000000d0: 9e2b 99bd a717 d9bd a53f 173e 2047 8ebd
000000e0: 8bdb 2cbc 96e6 ebbd d0d1 9a3d 87aa 3dbd
000000f0: ca34 ce3d 80c1 c3bd 8a9f 33bd ace8 a3bd
00000100: 31fc dc3d 29bf 803d dcbd 843c 569f a0bc
00000110: 52ca 3fbc 0008 213d 35ef c2bd 80b6 513d
00000120: bb47 8ebd b768 94bd 4592 d93d 8e73 a73d
00000130: ab19 963b d9c9 dcbd c0fa 7e3d 0130 8f3d
00000140: 5cf2 2ebe 6cd2 3f3d 25e5 38bd 792a 49bd
00000150: 16b8 39bd b088 babd 36fe e53d dc8b 19bb
00000160: 2f0d 12bd 2d93 c73c 8489 633a baaf 42bd
00000170: 6e1f 8dbd 7393 f4bd 3926 afbd 0dd1 0fbe
00000180: cafd dbbc 805a f03c 0a29 24be e7be 273d
00000190: 447c 34bb 9cab afbd ca91 0cbd dda8 b3bb
000001a0: 1173 b8bd 69ca 963d 746d a13d 07e6 f3bc
000001b0: f8df 1dbd 7ea3 07be 9528 33bd c3d2 2fbd
000001c0: 8341 74bc 59c0 b23c a1f6 b7bd 4ab8 fe3d
000001d0: 2e45 f0bb 87f8 9ebd 223b 7dbd 1045 92bd
-0.0617641 -0.02922597 -0.16499035 -0.08140458 0.0152531145 -0.041678898 0.05760475 0.056454953
-0.053950105 -0.01620822 0.019041743 0.050500173 -0.0040917145 0.057100356 0.02316336 -0.0998908
0.086334325 -0.099931754 -0.008648 0.07062153 0.0077624884 -0.10239476 -0.19426703 -0.153496
-0.053706925 -0.053838097 0.031986617 -0.14423612 -0.11580626 -0.033037104 -0.08556937 -0.08903335
-0.028220113 -0.074671246 0.0056022923 -0.008799069 -0.04666949 0.020420773 -0.06384867 -0.10213287
-0.005328758 0.0063348524 0.11287224 0.04022839 -0.020325854 -0.03860495 0.024421373 -0.08801865
-0.047950864 -0.16935743 -0.13939479 -0.05399941 -0.074790224 -0.106002145 0.14770372 -0.0694716
-0.01055039 -0.1151859 0.0755955 -0.046305206 0.100686625 -0.095583916 -0.04385332 -0.08003363
0.10790289 0.06286461 0.016203813 -0.019607227 -0.011705952 0.03931427 -0.09518281 0.051199436
-0.06947275 -0.07246535 0.10623602 0.08176337 0.0045806966 -0.10780687 0.062250853 0.06991578
-0.1708464 0.046831533 -0.045140404 -0.04911277 -0.045341574 -0.09108102 0.112301275 -0.002342931
-0.035657104 0.024362171 0.0008679854 -0.047530867 -0.0689076 -0.11942186 -0.08552212 -0.1404459
-0.026854414 0.029340029 -0.1603128 0.040953543 -0.0027539888 -0.08577654 -0.034318723 -0.0054827766
-0.09006322 0.073628254 0.07882205 -0.029772772 -0.03854367 -0.13245961 -0.043739874 -0.042925607
-0.014908197 0.021820234 -0.089825876 0.12437494 -0.0073324656 -0.077622466 -0.06182397 -0.07142079
