BackCNN_deep_best_weights - Davide.pth (torch, 880234 bytes, 34 tensors)

conv1.0.weight f4 [3]
0	0x3f706d8e	0.9391717
1	0x3f67b223	0.9050619
2	0x3f6f850c	0.9356239

conv1.0.bias f4 [3]
0	0x3e0ecee5	0.13946112
1	0x3ed608c3	0.4180356
2	0x3edf6782	0.43633658

conv1.0.running_mean f4 [3]
0	0x3e53e1bc	0.2069158
1	0x3e69a35f	0.22816227
2	0x3e4f6f02	0.2025719

conv1.0.running_var f4 [3]
0	0x3d891867	0.066941075
1	0x3d5478cf	0.051873025
2	0x3d327ae5	0.043574233

conv1.1.weight f4 [20, 3, 7, 7]
0	0x3d86b7cd	0.06578026
1	0xbe4ffdef	-0.20311712
2	0x3e0eb754	0.13937122
3	0xbd6adb75	-0.057338197
4	0x3dc29eac	0.095029205
5	0xbe0c1275	-0.13678916
6	0x3d8677a6	0.0656579
7	0x3d5b3ce1	0.053524856
8	0x3db7ec7a	0.08980651
9	0xbe1ade6f	-0.15123914
10	0x3e1d86ca	0.15383449
11	0x3d60fbaa	0.054927506
12	0x3da8d8f4	0.082445055
13	0x3dd79783	0.105269454
14	0x3d94784b	0.072495066
15	0x3dc34749	0.09535081
16	0x3d504e5e	0.050855987
17	0xbd128c2e	-0.035778217
18	0x3e2d727e	0.16938207
19	0xbd9a6082	-0.07537939
20	0xbd2b56bc	-0.041830763
21	0xbc6ca85c	-0.014444437
22	0xbc837892	-0.016048703
23	0xbdd27a57	-0.10277241
24	0x3da9438f	0.08264839
25	0x3e0dc866	0.13845977
26	0x3cc36a53	0.02385441
27	0x3db0c359	0.086310096
28	0xbdda1f52	-0.10650505
29	0x3dbe5563	0.0929363
30	0x3e0c31ab	0.13690822
31	0xbcf3caba	-0.029759753
32	0x3e4758b3	0.1946743
33	0xbe0c691f	-0.13711976
34	0xbe0a51d0	-0.13507771
35	0xbda08bce	-0.07839166
36	0xbd1939e3	-0.03740872
37	0x3db87993	0.090075634
38	0x3d68ae99	0.056807134
39	0x3cefef72	0.029288981
40	0x3dfd4362	0.12366368
41	0x3c85f100	0.01635027
42	0xbd80a683	-0.062817596
43	0xbd241a83	-0.040064346
44	0xbe03b085	-0.12860306
45	0xbd8d2cb2	-0.068932906
46	0xbdb7b6e0	-0.089704275
47	0x3dbd29bb	0.09236475
48	0xbd2c8f0c	-0.042128608
49	0xbdc288f6	-0.094987795
50	0x3db8632c	0.090032905
51	0x3e010ce0	0.12602568
52	0x3dab079b	0.0835106
53	0x3e09faad	0.13474531
54	0xbdc2c781	-0.095107086
55	0xbd49386d	-0.049126077
56	0xbe4d9df3	-0.20079784
57	0xbe1e8c86	-0.15483293
58	0xbc80113f	-0.015633224
59	0x3e4488d5	0.19192822
60	0xbdbc100f	-0.091827504
61	0x3e1ac6ff	0.15114973
62	0xbd8c082b	-0.068374954
63	0xbdfc010e	-0.12304889
64	0x3d4fd86d	0.05074351
65	0x3dc43fd0	0.09582484
66	0x3dfbb27d	0.12289903
67	0x3dfbcb5a	0.122946456
68	0x3c2f9dbd	0.01071876
69	0xbe01af89	-0.12664618
70	0xbbe1b22c	-0.006887695
71	0x3e1e9cb2	0.15489462
72	0x3e190524	0.14943367
73	0x3d230a77	0.039804902
74	0x3ddc19b2	0.107470885
75	0x3d594990	0.05304867
76	0x3d439208	0.047746688
77	0x3dc69911	0.09697164
78	0xbddcb75f	-0.10777163
79	0xbb8cb886	-0.004294458
80	0xbda7597e	-0.08171366
81	0xbddbaea1	-0.10726667
82	0x3df39d43	0.1189523
83	0x3d486276	0.048922025
84	0x3d925443	0.07144978
85	0x3dc389a0	0.09547734
86	0xbe2c07c9	-0.16799845
87	0xbdccfda6	-0.10009317
88	0x3d910b7b	0.07082268
89	0xbe2bbb0f	-0.16770576
90	0xbc3531fb	-0.01105928
91	0xbcfd22cc	-0.030900382
92	0x3da1086e	0.07862936
93	0x3e009c1b	0.1255955
94	0xbe34f586	-0.17671785
95	0xbe62ca1d	-0.22147413
96	0x3d1bfa93	0.038080763
97	0x3ca72bb1	0.020406576
98	0x3df2dcca	0.118585184
99	0x3d605ae8	0.054774195
100	0xbe81fdee	-0.25389045
101	0xbe05ed7c	-0.13078874
102	0xbd902494	-0.07038227
103	0x3e2b478b	0.1672651
104	0xbdacf08d	-0.08444319
105	0x3cd76b0e	0.026296165
106	0x3e5074e9	0.20357098
107	0xbcf7e1c9	-0.03025903
108	0xbeaad04b	-0.3336204
109	0xbe4e14f1	-0.20125176
110	0xbe41d920	-0.18930483
111	0x3e24e6ef	0.16103719
112	0x3e0faf2e	0.1403167
113	0xbdcc7696	-0.09983556
114	0x3d8c9f5c	0.06866333
115	0xbe276d88	-0.16350377
116	0xbd27a617	-0.04092988
117	0xbd3018a5	-0.042992253
118	0xbd753b05	-0.05987074
119	0x3e5aaad3	0.21354227
120	0x3de54337	0.11194461
121	0xbe93e0a4	-0.28882325
122	0xbe8ff946	-0.28119868
123	0x3dd1ef9e	0.102507815
124	0xbdb8fca6	-0.09032564
125	0x3daf40f2	0.08557309
126	0xbe51c74e	-0.20486185
127	0xbdfd0686	-0.1235476
128	0xbdac8d7a	-0.08425422
129	0xbd2cd904	-0.04219915
130	0x3ddbbc03	0.1072922
131	0xbe2e66d5	-0.17031415
132	0x3e1602a2	0.14649442
133	0xbd8ef307	-0.069799475
134	0xbe43e3fa	-0.19129935
135	0xbbef03d4	-0.0072941575
136	0x3e5180b6	0.20459256
137	0x3d27d660	0.04097593
138	0xbde6365e	-0.112408385
139	0xbde3581e	-0.111007914
140	0x3cc51251	0.024056586
141	0xbd7e6da7	-0.06211629
142	0x3dc5f5d6	0.0966603
143	0x3e7edaf1	0.24888207
144	0x3e5da92f	0.2164657
145	0xbc6acebe	-0.014331518
146	0x3cdb2304	0.026750095
147	0x3e01ea72	0.1268709
148	0x3d32c1de	0.043641917
149	0x3d300799	0.042975996
150	0x3e404114	0.18774825
151	0xbe10d3b9	-0.14143266
152	0xbe4b761f	-0.19869278
153	0x3cc894fe	0.024485108
154	0x3d7d9e2a	0.061918415
155	0x3cd455bb	0.025919786
156	0x3dfd4b0f	0.12367832
157	0x3e2c8226	0.16846523
158	0xbdc17d8d	-0.09447775
159	0xbe24eb96	-0.16105494
160	0x3dde290f	0.10847675
161	0x3df10311	0.11768163
162	0x3e4dce81	0.20098306
163	0xbe0b6afd	-0.13615032
164	0x3e451813	0.19247465
165	0xbdc043a5	-0.09387902
166	0x3e4c0eb9	0.19927491
167	0x3e37a36a	0.17933431
168	0x3e15bbda	0.14622441
169	0x3d743e0b	0.05962948
170	0x3e8ae65d	0.27128878
171	0x3e40e707	0.1883813
172	0xbe0c25cf	-0.13686298
173	0x3e261a11	0.16220881
174	0xbd165cc8	-0.036709577
175	0xbe042541	-0.12904836
176	0x3dda14ca	0.106484964
177	0x3e6700b3	0.2255886
178	0xbdb31165	-0.08743552
179	0xbdf217ad	-0.11820922
180	0x3e0106d0	0.12600255
181	0x3c06bdbb	0.008223946
182	0xbbe5c1a0	-0.0070116073
183	0xbd98c292	-0.07458986
184	0x3e2940d3	0.16528635
185	0xbdc326ee	-0.095289096
186	0xbe618dd5	-0.22026761
187	0xbe2127ac	-0.1573779
188	0xbe44afda	-0.19207707
189	0x3ddf417d	0.10901163
190	0x3e2411a5	0.16022356
191	0xbd6ce7ea	-0.057838358
192	0xbe47d613	-0.19515257
193	0xbe2c1c44	-0.16807657
194	0xbe4ed9ec	-0.20200318
195	0xbe3b2c10	-0.18278527
196	0x3cdde70c	0.02708771
197	0xbb299bb6	-0.0025880164
198	0xbd9a86cb	-0.07545241
199	0xbd8a7774	-0.06761065
200	0x3cfff151	0.031242998
201	0xbdb6d6e4	-0.08927706
202	0x3dac6d66	0.084193036
203	0xbd0bec28	-0.034160763
204	0xbdf78d02	-0.12087442
205	0x3e1f688a	0.15567222
206	0xbdfbbc9b	-0.12291833
207	0xbddc941d	-0.10770438
208	0x3e24e220	0.16101885
209	0x3db83244	0.089939624
210	0xbdd3fd9d	-0.10351107
211	0x3da9763c	0.082745045
212	0xbe279d52	-0.16368607
213	0x3d46cde0	0.04853618
214	0x3ba75588	0.0051066317
215	0xbe211780	-0.15731621
216	0x3d4060ae	0.0469672
217	0x3de10c2b	0.10988649
218	0xbd84ebe7	-0.06490307
219	0x3e5c6c95	0.21525796
220	0x3df40fe9	0.11917097
221	0xbe0acb8c	-0.1355421
222	0xbd4a3f08	-0.049376518
223	0x3e24f25d	0.16108079
224	0xbcf66903	-0.03007937
225	0x3d95f115	0.073213734
226	0x3e2b9bea	0.16758695
227	0x3e318c5a	0.17338696
228	0xbe1ecb12	-0.15507153
229	0x3d8d80d1	0.069093354
230	0x3da50864	0.08058241
231	0x3d7e6b0c	0.062113807
232	0xbe17bdef	-0.14818548
233	0xbe06afaa	-0.13152948
234	0x3bc8f217	0.006132375
235	0x3d54ce65	0.051954646
236	0xbdff008d	-0.12451277
237	0xbe0ee55f	-0.13954686
238	0x3e06d671	0.1316774
239	0xb97d4440	-0.00024153385
240	0x3dbaf10e	0.09128009
241	0x3dcb48cd	0.09925995
242	0xbda30ea7	-0.07961779
243	0x3d251413	0.040302347
244	0xbd9975cb	-0.0749317
245	0xbdb3a0aa	-0.087708786
246	0x3de00dc2	0.10940124
247	0x3dae391d	0.08506987
248	0xbd0a01ba	-0.033693053
249	0x3e0fc4f0	0.1403997
250	0x3ca7767a	0.020442236
251	0xbe117bfa	-0.1420745
252	0xbe7a81da	-0.24463597
253	0xbe10ce5e	-0.14141223
254	0x3e3a9120	0.18219423
255	0xbe156ff1	-0.14593484

conv1.4.weight f4 [20]
0	0x3f6684cf	0.900464
1	0x3f5c91cb	0.8615996
2	0x3f62bee5	0.8857253
3	0x3f64b9ae	0.89345825
4	0x3f70646d	0.9390324
5	0x3f64e27d	0.89408094
6	0x3f5b8205	0.8574527
7	0x3f550d83	0.8322374
8	0x3f590a19	0.8478103
9	0x3f60977f	0.87731165
10	0x3f76b797	0.96373886
11	0x3f6525ca	0.89510787
12	0x3f836439	1.026496
13	0x3f626a4a	0.88443434
14	0x3f740788	0.9532399
15	0x3f65d5f6	0.89779603
16	0x3f801da5	1.0009047
17	0x3f76619d	0.96242696
18	0x3f6865a6	0.90780103
19	0x3f81676e	1.0109689

conv1.4.bias f4 [20]
0	0xbe84199c	-0.25800788
1	0x3e207053	0.15667848
2	0xbea3f992	-0.32026345
3	0xbef3b398	-0.47597957
4	0x3e31d61d	0.17366834
5	0xbd877be8	-0.0661543
6	0x3ee46827	0.44610712
7	0x3ee05641	0.43815807
8	0xbecbf314	-0.3983389
9	0x3eb07df3	0.34471092
10	0x3e0f194c	0.13974494
11	0xbea745a0	-0.32670307
12	0xbce35ecf	-0.02775517
13	0x3e0f0874	0.13968068
14	0x3e37e140	0.1795702
15	0x3dbc1205	0.091831245
16	0xbd102f37	-0.035201278
17	0x3de3dc3a	0.11125989
18	0x3c940a99	0.01807146
19	0x3df8bd31	0.121454604

conv1.4.running_mean f4 [20]
0	0xbd8d980d	-0.06913767
1	0xbdaec871	-0.08534325
2	0x3cc5a627	0.02412708
3	0xbb16c0d6	-0.0023003123
4	0x3f2edc2b	0.683047
5	0x3ecc5c43	0.3991414
6	0x3e8bd2f3	0.2730938
7	0xbb99867a	-0.0046852203
8	0x3d72e4f7	0.05930039
9	0x3ea3a398	0.3196075
10	0x3f75c90a	0.96009886
11	0xbda5db2b	-0.080984436
12	0x3d4e3a4b	0.05034856
13	0x3dbd37c4	0.09239152
14	0x3ee1f740	0.4413395
15	0x3d6fc105	0.058533687
16	0x3e213de5	0.15746267
17	0x3f15abc4	0.5846522
18	0x3e432e92	0.19060734
19	0x3dc86b40	0.09786081

conv1.4.running_var f4 [20]
0	0x3d3dc2fd	0.046328533
1	0x3d8996d0	0.06718218
2	0x3da2d07b	0.07949921
3	0x3edd925e	0.43275732
4	0x3f6fde16	0.9369825
5	0x4024fe4f	2.5780218
6	0x3fb8e578	1.4445028
7	0x3e2d14a0	0.16902399
8	0x3e44fee5	0.1923786
9	0x3fc1d599	1.514331
10	0x3fd56511	1.6671468
11	0x3d919130	0.071077704
12	0x3e86bc81	0.26315692
13	0x3f04d982	0.5189439
14	0x3ed32b5e	0.41244024
15	0x3e989593	0.29801616
16	0x3f226c86	0.63446844
17	0x3f37ca62	0.71793187
18	0x3f623a17	0.8836989
19	0x3e81ebb7	0.2537515

conv2.0.weight f4 [40, 20, 7, 7]
0	0xbc70625d	-0.014671889
1	0xbd271f1c	-0.040801153
2	0x3c2c4cb2	0.010516332
3	0xbd23c844	-0.03998591
4	0x3d8c5060	0.06851268
5	0xbd30642b	-0.043064278
6	0xbdea21fe	-0.11432265
7	0x3d6b5f23	0.057463776
8	0x3d028565	0.031865496
9	0xbcfc7c0a	-0.030820865
10	0xbd0d2ad3	-0.03446467
11	0x3da8590a	0.08220108
12	0xbce60772	-0.028079722
13	0x3b6ca84a	0.003611105
14	0x3cdfa57b	0.027300587
15	0xbd90320d	-0.070407964
16	0xbcb35bc0	-0.021894336
17	0x3d8ba52a	0.06818612
18	0x3cce400e	0.025177028
19	0x3c6c1a3c	0.014410552
20	0x3cb6dccf	0.022322087
21	0xbd370fcb	-0.044692796
22	0xbd01150e	-0.03151422
23	0x3d4cb8f5	0.049981076
24	0xbc0e5756	-0.008687815
25	0x3d0f9c93	0.03506143
26	0xbcd5ce32	-0.026099298
27	0xbdd35645	-0.10319189
28	0x3c80b4ad	0.015711153
29	0xbd1ed362	-0.03877581
30	0x3d92d6b4	0.071698576
31	0x3da4c568	0.08045465
32	0x3d23b8f9	0.039971326
33	0x3d2d5af2	0.04232306
34	0xbb142c4d	-0.0022609413
35	0x3c141818	0.0090389475
36	0x3d8475a5	0.064677514
37	0x3dad8622	0.084728494
38	0xbd5bbf4d	-0.053649236
39	0xbc4a605b	-0.0123520745
40	0x3d4386c7	0.047735956
41	0x3d32a1a4	0.043611184
42	0xbd880de0	-0.066432714
43	0xbcb773f1	-0.022394152
44	0x3b6c9d5d	0.0036104538
45	0xbd57fd41	-0.052731756
46	0xbd2a80a2	-0.04162658
47	0xbd93a757	-0.07209652
48	0xbd8b197d	-0.06791971
49	0xbb2ecc9a	-0.0026672245
50	0x3d078a80	0.03309107
51	0xbc5f3b93	-0.013625043
52	0xbcf26231	-0.029587837
53	0x3d70108f	0.05860954
54	0xbd236660	-0.039892554
55	0x3cd3e946	0.02586807
56	0xbb906672	-0.0044067437
57	0x3d575457	0.052570667
58	0x3ceeed2d	0.029165829
59	0xbd2611c9	-0.040544305
60	0x3d27ca13	0.040964197
61	0x3d9b47d3	0.07582059
62	0x3d494160	0.049134612
63	0x3d3ff4b3	0.046864223
64	0xbd2f231f	-0.042758103
65	0x3ce5f14f	0.028069166
66	0xbd6731f2	-0.056444116
67	0xb916ab3e	-0.00014368907
68	0xbce75c4d	-0.028242255
69	0x3cd5dd03	0.026106363
70	0x3d254c04	0.040355697
71	0x39ab79bf	0.0003270637
72	0xbd4f44c5	-0.050602693
73	0x3b15099e	0.0022741328
74	0xbc8c00d4	-0.017090239
75	0x3be54a11	0.006997355
76	0x3d050e88	0.03248456
77	0x3d1cc0cc	0.038269803
78	0xbdb26c15	-0.08712021
79	0x3c12877f	0.008943438
80	0xbd9dad39	-0.07699055
81	0xbd2a1d52	-0.04153187
82	0xbd3b6920	-0.045754552
83	0x3cbc4357	0.022981329
84	0x3acc2d84	0.001557753
85	0xbc1e4037	-0.009658865
86	0xbd0ab6c9	-0.033865724
87	0xbd1ad69d	-0.037802327
88	0xbd7e8eba	-0.062147833
89	0xbdac4d90	-0.084132314
90	0xbd569441	-0.05238748
91	0xbbf4b6ce	-0.007468081
92	0x3d95a1e1	0.073062666
93	0x3d01bf13	0.031676363
94	0xbc3a631d	-0.0113761695
95	0xbbc2dba1	-0.005946592
96	0xbd750f12	-0.059828825
97	0x3c61991c	0.013769414
98	0x3d66bef5	0.056334455
99	0xbd4cb6ae	-0.049978904
100	0xbd2cb9d2	-0.0421694
101	0x3c80b26f	0.015710084
102	0x3d6ce6b5	0.057837207
103	0xbd4df016	-0.050277792
104	0x3d7a84d2	0.061161824
105	0x3d61728c	0.05504088
106	0xbcf891b7	-0.03034292
107	0x3d11a9bb	0.03556226
108	0x3bfd3350	0.007727064
109	0x3b790055	0.0037994583
110	0xbcc1add7	-0.023642464
111	0x3c8d48c6	0.017246615
112	0x3cf57ee3	0.02996773
113	0x3d8b4630	0.068004966
114	0x3d2df36b	0.04246847
115	0xbd0bb3a9	-0.034106884
116	0x3c45ba06	0.012068277
117	0xbd7ba09d	-0.06143247
118	0xbc6f20ec	-0.0145952515
119	0xbcc1468c	-0.02359321
120	0x3da7247f	0.08161258
121	0x3b59304c	0.003314036
122	0xbd966bca	-0.07344778
123	0xbdaac98e	-0.08339225
124	0xbce63053	-0.028099215
125	0xbda52749	-0.08064134
126	0xbd783c6a	-0.06060449
127	0xbd484df3	-0.048902463
128	0xbd4768d6	-0.048683964
129	0x3d0ebb96	0.034846865
130	0xbd2e6733	-0.042578887
131	0x3c0c58d8	0.008566104
132	0xbd59da18	-0.053186506
133	0x3d7e68c6	0.06211164
134	0xbcef0eaf	-0.029181806
135	0xbb90502b	-0.004404088
136	0x3cb4090b	0.021976968
137	0xbcd559db	-0.026043823
138	0x3d0e4e52	0.03474266
139	0xbdc2ed78	-0.0951795
140	0xbd901ead	-0.07037101
141	0xbd79876f	-0.060920175
142	0xbd184ae4	-0.037180796
143	0x3c64c2f7	0.013962499
144	0xbcd7ad39	-0.026327716
145	0xbd81a784	-0.06330779
146	0x3c9975cf	0.018732933
147	0x3bedfc4b	0.0072627417
148	0x3df942fa	0.12170978
149	0x3a0e25e3	0.00054225157
150	0x3aa598dd	0.0012634058
151	0x3ce74ea7	0.028235747
152	0xbde635ff	-0.11240768
153	0x3c7f9e7a	0.015601749
154	0x3d0fb57c	0.035085186
155	0x3ddc1fc9	0.1074825
156	0xbbbb1c93	-0.0057101934
157	0x3bd891c8	0.0066091754
158	0x3c914e02	0.017737392
159	0xbd83e9c9	-0.06441075
160	0xbd4765bb	-0.048681002
161	0x3cf7ef22	0.030265395
162	0x3db8786b	0.09007343
163	0xbc40f8d0	-0.0117780715
164	0x3d8587d9	0.065200515
165	0xbb7ed065	-0.0038881537
166	0xba95323f	-0.0011382772
167	0xbd553e5e	-0.05206143
168	0xbd2b3e41	-0.041807417
169	0x3d0449c1	0.0322969
170	0x3dfa39b4	0.12218037
171	0xbb195d87	-0.0023401694
172	0x3d162eff	0.036665913
173	0xbd8f71ee	-0.07004152
174	0x3d0716cf	0.032980736
175	0x3d8fd83c	0.07023665
176	0xbd2c26fd	-0.04202937
177	0x3cabd167	0.020973874
178	0x3cf6afce	0.030113127
179	0x3da6e903	0.08149912
180	0x3cdb9fff	0.02680969
181	0xbcfffd31	-0.03124866
182	0x3d5ca826	0.053871296
183	0x3d977fe2	0.073974386
184	0xbcc22f9d	-0.023704344
185	0xbbb057aa	-0.005381544
186	0x3d8d281a	0.068924144
187	0xbd34cb71	-0.04413933
188	0xbd7ba54c	-0.061436936
189	0x3d0d466a	0.03449098
190	0x3d6e1ef3	0.058134984
191	0x3c3521ef	0.011055454
192	0xbc031a56	-0.008001884
193	0x3d645fc7	0.055755403
194	0xbd62bfa8	-0.05535856
195	0x3d64b9eb	0.055841368
196	0xbcf62c7d	-0.03005051
197	0xbc9ef21e	-0.01940256
198	0x3b84f1c1	0.0040571396
199	0x3d8be026	0.06829862
200	0x3d8b6bcd	0.06807671
201	0x3d47507e	0.048660748
202	0xbda5ab28	-0.08089286
203	0x3d71c668	0.059027106
204	0x3d51228e	0.051058345
205	0x3c8c34a2	0.017114941
206	0x3d479931	0.04873008
207	0x3c1e1f8a	0.009651074
208	0x3d2b2f1c	0.041792974
209	0xbd3489fb	-0.0440769
210	0xbd8e6b02	-0.06954004
211	0x3c949416	0.01813702
212	0xbc8cc074	-0.017181613
213	0xbc6f2c92	-0.014598029
214	0x3d10eb6f	0.035380777
215	0xbdb8a3fd	-0.09015653
216	0xbddd00ad	-0.107911445
217	0x3d3f2924	0.046670094
218	0xbcf00232	-0.029297922
219	0xbbb5999c	-0.0055419933
220	0xbd83838a	-0.064215735
221	0x3d598b6a	0.05311147
222	0xbdabd053	-0.08389344
223	0x3cd1af64	0.025596328
224	0xbd8ea6ad	-0.06965385
225	0xbd6823bb	-0.0566747
226	0x3cb12676	0.021624785
227	0x3d340906	0.043953918
228	0x3c9ed13d	0.019386882
229	0xbdb2e078	-0.0873422
230	0xbd8c58d6	-0.068528816
231	0x3d3052e3	0.043047797
232	0xbd9d18af	-0.07670724
233	0x3d5261ef	0.051362928
234	0x3d89a46d	0.06720815
235	0xbd9c53ca	-0.07633169
236	0xbc44ccf7	-0.012011758
237	0xbd857dda	-0.06518145
238	0xbd93e4bc	-0.07221362
239	0xbd5a578d	-0.05330615
240	0x3d360cbe	0.044445746
241	0xbd000caa	-0.031262077
242	0x3c949557	0.018137617
243	0x3cfa04d4	0.03051988
244	0xbc4b8639	-0.012422138
245	0xbb43254a	-0.0029776865
246	0x3c94b5f6	0.018153172
247	0xbcd1fd8b	-0.025633594
248	0x3d8c9b6d	0.068655826
249	0xbcfa4958	-0.030552551
250	0x3d3e0224	0.04638876
251	0xbd191148	-0.037369996
252	0xbcd91a7e	-0.02650189
253	0x3dae2504	0.08503154
254	0xbce268f2	-0.027637932
255	0x3c50cb14	0.01274373

conv2.3.weight f4 [40]
0	0x3f7424d4	0.95368695
1	0x3f74d49c	0.95636916
2	0x3f77bae0	0.96769524
3	0x3f778d6e	0.9670018
4	0x3f6da7e6	0.9283432
5	0x3f61024a	0.8789412
6	0x3f6ef89d	0.93348104
7	0x3f74e748	0.9566541
8	0x3f7ebb40	0.9950447
9	0x3f6e6c1b	0.93133706
10	0x3f7aa2be	0.97904575
11	0x3f68aa5a	0.90884936
12	0x3f7f1323	0.99638575
13	0x3f80bc68	1.0057497
14	0x3f723941	0.9461861
15	0x3f5c9b5f	0.8617458
16	0x3f671b8b	0.902764
17	0x3f73a0c0	0.9516716
18	0x3f7d2189	0.98879296
19	0x3f644fe9	0.89184433
20	0x3f6a9a49	0.9164167
21	0x3f814276	1.0098407
22	0x3f733b13	0.95012015
23	0x3f655578	0.8958354
24	0x3f832b57	1.0247601
25	0x3f788f05	0.9709323
26	0x3f71b909	0.94422966
27	0x3f742827	0.9537377
28	0x3f73fe47	0.9530987
29	0x3f66b4cb	0.9011962
30	0x3f779f51	0.9672747
31	0x3f7170d2	0.94312775
32	0x3f7ab728	0.97935724
33	0x3f666d8c	0.90010905
34	0x3f82dca2	1.0223582
35	0x3f7b7381	0.9822312
36	0x3f8364a6	1.026509
37	0x3f7094a8	0.9397683
38	0x3f7bacb4	0.983104
39	0x3f7c2c33	0.9850494

conv2.3.bias f4 [40]
0	0xbdef9268	-0.11697847
1	0x3ea0f408	0.3143618
2	0x3c9b3775	0.018947342
3	0x3cec5bcc	0.028852366
4	0xbe63cd87	-0.22246371
5	0xbc75a348	-0.014992543
6	0xbedf9029	-0.43664673
7	0xbda30f6c	-0.07961926
8	0x3ddc5bb6	0.1075968
9	0x3e8fbe13	0.28074703
10	0xbdddedac	-0.10836348
11	0x3c287b38	0.010283284
12	0x3e5a2986	0.21304902
13	0x3eb46614	0.3523413
14	0x3ced510e	0.028969314
15	0xbd9383d6	-0.0720288
16	0x3e71dc87	0.23619281
17	0x3e847524	0.2587062
18	0x3d47e8db	0.048806053
19	0xbe2cd55c	-0.16878265
20	0xbc991ef7	-0.018691523
21	0x3eca2e06	0.39488238
22	0xbe59353b	-0.21211712
23	0x3f0c9d07	0.54927105
24	0x3e128590	0.14308763
25	0x3e90a450	0.2825036
26	0xbe871295	-0.26381364
27	0x3e91ebeb	0.28500304
28	0xbd555092	-0.05207879
29	0xbedb36aa	-0.42815143
30	0x3d44aaeb	0.048014563
31	0xbe58cc88	-0.21171772
32	0x3e1e8fdb	0.15484564
33	0xbea9c64c	-0.331591
34	0x3ea4a72d	0.32158795
35	0x3c9abcd0	0.018888861
36	0x3d553ce7	0.052060034
37	0xbeb9f678	-0.36320853
38	0x3e3e1475	0.18562491
39	0x3eaa23f2	0.3323055

conv2.3.running_mean f4 [40]
0	0x3f7e1f45	0.99266464
1	0x3fdc0d58	1.7191572
2	0x3f59eb08	0.85124254
3	0x3f4f2ced	0.80927926
4	0x3fbc7266	1.4722412
5	0xbd8639ee	-0.06554018
6	0x3e98a2fe	0.29811853
7	0x3ef7b4f3	0.4838024
8	0x3f2b45ff	0.6690368
9	0x3fad0aa7	1.3518876
10	0x3efadf87	0.48998663
11	0x40020dc6	2.0320907
12	0x3ef3acf9	0.47592905
13	0x3f7179c3	0.9432642
14	0x3f966b4b	1.1751493
15	0x3d989f1c	0.07452223
16	0x400fc8cb	2.2466304
17	0x3f8a884d	1.0822846
18	0x4024a26a	2.572413
19	0x3f1cb34e	0.612111
20	0x3eaf745f	0.34268472
21	0x3f720f5c	0.94554687
22	0x3e811183	0.25208673
23	0x3e5cd93f	0.21567248
24	0x3ce998fb	0.02851533
25	0x40080da4	2.1258326
26	0x3fb6adc0	1.4271774
27	0x3f3fbac6	0.7489437
28	0x3fb44614	1.4083886
29	0x3fd4cadc	1.6624408
30	0x3fa5cb31	1.2952634
31	0x3f74db62	0.9564725
32	0x40443229	3.0655615
33	0x3f80111d	1.0005223
34	0x3fcae8fb	1.585235
35	0x3fa2b891	1.2712575
36	0x40065400	2.098877
37	0x3f1d15de	0.6136149
38	0x3f316caf	0.69306463
39	0x3f04e8e4	0.5191786

conv2.3.running_var f4 [40]
0	0x40c46141	6.136872
1	0x4109746d	8.590924
2	0x40731a22	3.79847
3	0x40a877f7	5.264644
4	0x414dcdc3	12.862735
5	0x3f1d559c	0.61458755
6	0x3fea0697	1.8283261
7	0x4011c9ee	2.2779498
8	0x4011c495	2.2776234
9	0x418951df	17.164976
10	0x3facb945	1.349404
11	0x41e0afcc	28.085838
12	0x404aed68	3.1707401
13	0x4133bc7e	11.233519
14	0x40da1b3a	6.8158236
15	0x3f093ce0	0.5360851
16	0x4135ebe5	11.370091
17	0x400d73dc	2.2101965
18	0x423f26ec	47.78801
19	0x404ca011	3.1972697
20	0x403d7593	2.9603012
21	0x40f59ffa	7.6757784
22	0x3fd3364e	1.6500947
23	0x3fe61b49	1.7977077
24	0x3f907802	1.1286623
25	0x41e38909	28.441912
26	0x41507b43	13.030093
27	0x40b955d5	5.7917275
28	0x411c93d8	9.786095
29	0x41bd365a	23.651539
30	0x41547c87	13.280402
31	0x410abbd2	8.670855
32	0x4186760b	16.807638
33	0x41180aa6	9.5026
34	0x4099b347	4.8031344
35	0x4117b5b7	9.481864
36	0x4123ed99	10.245507
37	0x40694ee3	3.6454399
38	0x40183f6d	2.3788712
39	0x40bfeeac	5.9978848

conv3.0.weight f4 [80, 40, 3, 3]
0	0x3dce5426	0.10074644
1	0x3d078879	0.033089135
2	0xbe25f119	-0.16205253
3	0x3b4d592c	0.0031333668
4	0xbd4da3ff	-0.050205227
5	0x3c461639	0.012090259
6	0xbac96f30	-0.001536822
7	0xbdcb79b3	-0.09935322
8	0xbc86ccb2	-0.016455028
9	0xbd6c8e48	-0.057752877
10	0x3ba26860	0.00495629
11	0x3c6e4519	0.014542841
12	0x3ba012ee	0.004885069
13	0x3dad5ba4	0.08464745
14	0xbd95d6e5	-0.073163785
15	0xbda5c8bb	-0.08094927
16	0x3d7ee02e	0.062225513
17	0x3dfb4937	0.12269824
18	0xbdd528f3	-0.10408201
19	0xbdd0c2bf	-0.10193395
20	0xbd0b860e	-0.03406339
21	0xbb9fd2a5	-0.0048774057
22	0xbdb913cf	-0.09036981
23	0x3dcd7352	0.10031761
24	0x3d782cda	0.06058965
25	0x3db9a248	0.09064156
26	0x3dc3c0c1	0.09558249
27	0xbe0b0963	-0.135778
28	0xbd3c3c84	-0.04595615
29	0xbdc4d80c	-0.0961152
30	0xbdfe5db9	-0.1242022
31	0xbe1c5553	-0.15266924
32	0x3d890cc3	0.06691887
33	0xbd420150	-0.047364533
34	0x3c0f4880	0.008745313
35	0xbd1f04fc	-0.038823113
36	0xbd8b28f1	-0.06794918
37	0x3e06e099	0.13171615
38	0x3e0da3dc	0.13832039
39	0xba8ae405	-0.001059652
40	0xbd87286c	-0.06599507
41	0x3c6b1a53	0.014349538
42	0xbd832f36	-0.06405489
43	0xbdff210e	-0.124574766
44	0x3d3fefca	0.04685954
45	0x3db49f74	0.08819476
46	0x3bffb865	0.007803964
47	0xbdc7400e	-0.09729014
48	0xbd65878e	-0.05603748
49	0x3d74e952	0.059792824
50	0x3cebf934	0.028805353
51	0x3dcf196a	0.10112269
52	0x3dae5711	0.085127
53	0xbda64e13	-0.0812036
54	0xbc2fa853	-0.010721284
55	0x3bb5fc9b	0.0055537946
56	0x3d8a6936	0.06758349
57	0xbc6f02d4	-0.014588077
58	0xbc4822ba	-0.012215311
59	0x3d0a70ea	0.03379909
60	0x3d51e989	0.051248107
61	0x3d17283d	0.03690361
62	0xbd0425e3	-0.032262694
63	0xbbc0fe0b	-0.0058896593
64	0xbd8f9be8	-0.07012159
65	0xbd115a18	-0.03548631
66	0xbb33a883	-0.0027413673
67	0xbdbd7a9c	-0.092519015
68	0x3d3d9133	0.04628105
69	0x3dc9b95a	0.09849806
70	0x3d3de072	0.046356626
71	0xbdab566e	-0.083660945
72	0xbd49757d	-0.04918431
73	0xbda0a1ca	-0.07843359
74	0x3b288eba	0.0025719837
75	0xbd3e9067	-0.04652443
76	0xbdaa2311	-0.0830747
77	0xbda85785	-0.08219818
78	0xbde3a563	-0.111155294
79	0xbc8e161b	-0.017344525
80	0xbd53b431	-0.051685516
81	0x3da49f24	0.08038166
82	0x3c1e9236	0.009678414
83	0xbd9c3b54	-0.076285034
84	0xbd2e72bf	-0.0425899
85	0x3cd9461f	0.026522694
86	0x3d18f02c	0.03733842
87	0x3d359c6c	0.04433863
88	0x3d0932d4	0.03349574
89	0xbd6b4548	-0.05743912
90	0x3d9660e9	0.07342703
91	0xbdf292f5	-0.11844436
92	0xbd838e96	-0.064236805
93	0xbdb67462	-0.08908917
94	0xbcd130f5	-0.02553604
95	0xbdab8eec	-0.083768696
96	0x3dfa6087	0.122254424
97	0x3df6f164	0.1205776
98	0xbd8ace5e	-0.06777643
99	0xbdc49b9c	-0.09599993
100	0x3a7117b5	0.0009196953
101	0xbca6f3ae	-0.020379867
102	0x3d509153	0.050919842
103	0x3ce8b378	0.02840589
104	0x3d139f7b	0.036040764
105	0xbddf6bf5	-0.10909263
106	0x3dc17b0f	0.094473
107	0xbc703656	-0.014661392
108	0x3d8be487	0.068306975
109	0xbbee8329	-0.007278819
110	0xbdafae07	-0.08578115
111	0x3e3d9a0c	0.18515795
112	0xbbe25a42	-0.006907732
113	0x3e10824c	0.14112204
114	0x3e0e9d8d	0.13927288
115	0xbd086501	-0.03329945
116	0x3c020fe1	0.007938356
117	0xbddc81f6	-0.107669756
118	0xbdecc549	-0.11561067
119	0x3deaa5a3	0.11457374
120	0x3df06e23	0.11739757
121	0x3daa11bc	0.08304164
122	0x3d68dcbb	0.05685113
123	0x3df5b750	0.11997855
124	0x3d8aaff6	0.06771843
125	0x3d359616	0.044332586
126	0xbd7f2a1a	-0.06229601
127	0xbdcb31c2	-0.099216
128	0x3c3d13d0	0.011540368
129	0xbc9511e7	-0.018197013
130	0x3d738eb8	0.05946228
131	0x3e01895c	0.12650055
132	0xbc49a076	-0.012306323
133	0x3e1d98fd	0.15390392
134	0x3db35a1f	0.087574236
135	0x3d815bf1	0.063163646
136	0xbc905508	-0.017618671
137	0x3d500a89	0.050791297
138	0xbdf6b16d	-0.1204556
139	0x3c9b8821	0.01898581
140	0x3be8790d	0.0070945085
141	0xbddfa386	-0.109198615
142	0x3c3594f8	0.01108288
143	0xbd1688fb	-0.03675173
144	0xbd2768e2	-0.04087151
145	0x3db5d6e0	0.08878875
146	0x3d6cffd2	0.057861157
147	0xbde749cf	-0.11293375
148	0x3d4360f6	0.04769989
149	0x3c17692b	0.009241383
150	0xbdb8305c	-0.08993599
151	0xbd36af92	-0.04460103
152	0x3c80c502	0.01571894
153	0x3d52fcbc	0.051510558
154	0x3bf06194	0.007335851
155	0x3dc0ae48	0.094082415
156	0x3d3a4f42	0.045485742
157	0xbd833c94	-0.06408039
158	0x3e068ce1	0.13139679
159	0xbab09250	-0.0013471339
160	0xbdc0f6d2	-0.09422077
161	0x3cbbe18c	0.022934698
162	0x3c680913	0.01416232
163	0x3cca5039	0.024696456
164	0xbc811985	-0.015759239
165	0x3d816c96	0.06319539
166	0xbd88e646	-0.06684546
167	0xbdaa4f39	-0.08315892
168	0xbd646223	-0.055757653
169	0x3d953338	0.0728516
170	0xbe08fdf6	-0.13378128
171	0xbe0be7e2	-0.13662675
172	0x3bf419ee	0.00744938
173	0xbdcd703e	-0.10031174
174	0xbde1cbde	-0.11025213
175	0x3c25c8ee	0.010118706
176	0xbde09d2f	-0.109674804
177	0xbccf9301	-0.025338652
178	0x3d5a95a3	0.05336536
179	0x3dc45062	0.09585644
180	0x3dae0040	0.084961414
181	0x3dc52a19	0.0962717
182	0xbd8ad21c	-0.067783564
183	0xbe306976	-0.1722773
184	0x3d4c1099	0.049820516
185	0x3db868a9	0.09004337
186	0xbd82129a	-0.06351204
187	0x3caf60df	0.021408496
188	0xbe18be87	-0.1491643
189	0x3d7a25aa	0.061071075
190	0x3c534c75	0.012896647
191	0xbdd751ad	-0.10513625
192	0x3db6e1ec	0.0892981
193	0xbd8df5f5	-0.06931678
194	0x3c815dac	0.015791737
195	0xbd8ec7ed	-0.069717266
196	0x3b8c0455	0.0042729774
197	0xbdf99be9	-0.121879406
198	0xbc558bda	-0.0130338315
199	0x3b4c8feb	0.0031213711
200	0x3d618007	0.055053737
201	0xbd1fa976	-0.03897997
202	0xbd4dc480	-0.050236225
203	0xbe174375	-0.14771827
204	0x3d8387d6	0.06422393
205	0xbe0b7bb9	-0.13621415
206	0xbd9cf586	-0.076640174
207	0x3d9b13ff	0.07572173
208	0xbdafde8c	-0.08587369
209	0xbce7063e	-0.028201219
210	0x3e1fb2ec	0.15595597
211	0x3d71910a	0.05897621
212	0x3da40eb0	0.08010614
213	0xbcf63564	-0.030054756
214	0xbce1fac6	-0.027585398
215	0xbc859c31	-0.01630983
216	0x3d408bb1	0.04700822
217	0xbdf3020f	-0.11865627
218	0xbce91bee	-0.0284557
219	0xbc9c0e0f	-0.019049672
220	0xbd577fb5	-0.052612025
221	0xbde8e722	-0.1137221
222	0xbdc2838c	-0.09497747
223	0x3dd4bee8	0.10387975
224	0x3cb3b545	0.021937022
225	0x3d833d88	0.064082205
226	0x3cde4f37	0.027137382
227	0x3ced5f41	0.028976085
228	0x3dbedca1	0.093194254
229	0x392b6ce2	0.00016348393
230	0xbdb9ead1	-0.09077991
231	0x3ce9a46c	0.028520785
232	0x3d75574c	0.059897706
233	0x3a2a42d9	0.00064949464
234	0xbe190ca8	-0.14946234
235	0xbd371f91	-0.04470784
236	0xbda590c8	-0.080842555
237	0x3c0435e9	0.008069494
238	0x3d2ad04b	0.04170255
239	0x3c0e3c64	0.00868139
240	0x3d77679a	0.060401537
241	0xbcd8ad45	-0.026449809
242	0x3e014ae0	0.12626219
243	0xbe099605	-0.13436134
244	0xbd5446dc	-0.05182539
245	0x3dd77f4f	0.10522329
246	0xbd335a6c	-0.043787405
247	0xbdca6531	-0.09882582
248	0xbdd387f1	-0.10328663
249	0x3dbb1b04	0.09136012
250	0xbdabb00e	-0.08383189
251	0x3dc6adea	0.0970114
252	0xbd8ce655	-0.0687987
253	0x3c065ffd	0.008201596
254	0x3c8f2d15	0.017477551
255	0x3d91e497	0.07123678

conv3.3.weight f4 [80]
0	0x3f632441	0.88727194
1	0x3f792c99	0.97333676
2	0x3f805109	1.002473
3	0x3f819cd8	1.012599
4	0x3f722fd9	0.9460426
5	0x3f8959b9	1.0730506
6	0x3f6e01d3	0.92971534
7	0x3f6a9c0c	0.9164436
8	0x3f6c554e	0.92317665
9	0x3f68452a	0.90730536
10	0x3f6413a9	0.890925
11	0x3f7b0470	0.98053646
12	0x3f705d4f	0.9389238
13	0x3f786175	0.9702371
14	0x3f6b3969	0.91884476
15	0x3f6085ba	0.8770405
16	0x3f81e7d0	1.0148869
17	0x3f714045	0.9423869
18	0x3f5e81b4	0.8691666
19	0x3f7340c9	0.9502073
20	0x3f78c5d6	0.97176874
21	0x3f6b8a8b	0.92008275
22	0x3f783ffb	0.96972626
23	0x3f74cf38	0.9562869
24	0x3f6e0e13	0.92990226
25	0x3f816c35	1.0111147
26	0x3f71eab6	0.94498765
27	0x3f6d0710	0.925889
28	0x3f79b52a	0.9754206
29	0x3f69fe84	0.91403985
30	0x3f74aef8	0.9557948
31	0x3f823df0	1.0175152
32	0x3f7ce639	0.9878879
33	0x3f780237	0.9687838
34	0x3f780d8e	0.9689568
35	0x3f70e414	0.9409802
36	0x3f5e3ea1	0.86814314
37	0x3f87b472	1.0601943
38	0x3f6cb263	0.92459697
39	0x3f6890cb	0.90845937
40	0x3f6b643a	0.9194981
41	0x3f6e033f	0.92973703
42	0x3f6e148b	0.93000096
43	0x3f81ba24	1.0134931
44	0x3f773d44	0.9657786
45	0x3f6b7ffe	0.91992176
46	0x3f717566	0.9431976
47	0x3f621c0e	0.8832406
48	0x3f733093	0.94995993
49	0x3f6a868d	0.9161156
50	0x3f79b359	0.9753929
51	0x3f68774b	0.90807027
52	0x3f76f528	0.9646783
53	0x3f5e0663	0.86728495
54	0x3f88972b	1.0671133
55	0x3f711377	0.94170326
56	0x3f798463	0.9746763
57	0x3f6e24fc	0.93025184
58	0x3f708c7b	0.93964356
59	0x3f794108	0.97364855
60	0x3f676ac3	0.9039728
61	0x3f6fd677	0.9368662
62	0x3f73d0c6	0.9524044
63	0x3f659be1	0.8969098
64	0x3f6b831c	0.9199693
65	0x3f6c2af9	0.9225307
66	0x3f75ded7	0.9604315
67	0x3f7a9570	0.97884274
68	0x3f680ef6	0.9064783
69	0x3f70bd90	0.9403925
70	0x3f7ab00f	0.97924894
71	0x3f71e429	0.9448877
72	0x3f809eee	1.0048501
73	0x3f589c49	0.8461347
74	0x3f729c32	0.94769585
75	0x3f6e3b47	0.930592
76	0x3f7354e0	0.95051384
77	0x3f7637be	0.96178806
78	0x3f811755	1.0085245
79	0x3f72f7e5	0.9490951

conv3.3.bias f4 [80]
0	0x3e6355f3	0.22200756
1	0x3d6bcadb	0.057566505
2	0xbe777aae	-0.24167892
3	0x3d5f2bf6	0.054485284
4	0x3e222055	0.15832646
5	0x3e099ede	0.1343951
6	0x3dcba9bb	0.09944483
7	0x3e38e0fd	0.18054576
8	0xbe0a726f	-0.13520215
9	0xbeae8f7a	-0.3409384
10	0xbe4aeb4a	-0.19816318
11	0x3ca54617	0.020175023
12	0xbda69793	-0.08134379
13	0x3cef61dd	0.02922147
14	0x3e602d46	0.2189227
15	0x3ed16d38	0.4090364
16	0x3e8aafe1	0.2708731
17	0x3e5a7ecb	0.2133743
18	0xbdc8de8b	-0.09808072
19	0x3e434509	0.19069304
20	0x3e993e44	0.29930317
21	0xbd17ee8e	-0.037092738
22	0xbe3a1ae1	-0.18174316
23	0x3e2a5308	0.16633236
24	0x3cd2a8bd	0.025715226
25	0x3eba3d40	0.36374855
26	0x3eb11bec	0.34591615
27	0x3e543dc3	0.20726685
28	0x3ea640a9	0.32471207
29	0x3ed0111f	0.40638062
30	0x3d760ad9	0.06006894
31	0x3e3acd35	0.18242343
32	0x3e1056f3	0.14095668
33	0x3eda9f03	0.4269944
34	0x3e2b373a	0.16720286
35	0x3e9d4e9e	0.30724043
36	0xbd368686	-0.044561885
37	0x3eaa1af3	0.33223686
38	0x3e681fe4	0.22668415
39	0x39c2335a	0.00037040823
40	0xbe7fae8a	-0.24968925
41	0x3d7e3e3b	0.062071066
42	0x3e174bb7	0.14774977
43	0x3e629f16	0.22130999
44	0x3db07d87	0.086176924
45	0x3dfb08ca	0.12257536
46	0xbdef0a30	-0.11671865
47	0xbe788c56	-0.24272284
48	0xbe60f785	-0.21969421
49	0x3d2511fb	0.04030035
50	0xbe1cb3b2	-0.15302923
51	0x3eda8802	0.4268189
52	0x3e63c3f5	0.2224272
53	0x3e832c28	0.25619626
54	0x3e10a319	0.14124717
55	0xbd31adf8	-0.0433788
56	0xbd92fda1	-0.07177282
57	0x3ec40ecc	0.3829254
58	0xbe329ecb	-0.17443387
59	0x3eb81122	0.3595057
60	0xbeb4df4c	-0.35326612
61	0x3d5d4705	0.054022808
62	0x3eb34b27	0.35018274
63	0xbe4f0f60	-0.20220709
64	0x3dd31757	0.10307186
65	0x3e68c418	0.22731054
66	0x3e53863b	0.20656674
67	0xbe1ee300	-0.15516281
68	0x3eb3fa30	0.35151815
69	0xbe283660	-0.16426992
70	0x3e6ce96b	0.23135917
71	0x3ea741fc	0.3266753
72	0xbe4e66aa	-0.2015635
73	0x3eb244b5	0.34818044
74	0xbe2170a4	-0.15765625
75	0x3e970e80	0.2950325
76	0x3e807f5b	0.25097165
77	0x3d6214da	0.055195667
78	0xbde21e93	-0.11040988
79	0x3e92bd54	0.2866007

conv3.3.running_mean f4 [80]
0	0x3f5899ea	0.84609854
1	0x3f407c7a	0.75189936
2	0x3f6aaef4	0.9167321
3	0x3fa8b83b	1.3181223
4	0x3e2a389b	0.16623156
5	0x3f122f07	0.5710301
6	0x3eef757f	0.4676933
7	0x3f1b3daf	0.60640997
8	0x3e36c6f9	0.1784934
9	0x3eedc347	0.46438047
10	0x3ef12d06	0.47104663
11	0x3f2a5727	0.66539234
12	0x3e02b26f	0.1276338
13	0x3f1f3ec9	0.6220518
14	0x3e634276	0.22193322
15	0x3f42ee5b	0.7614495
16	0x3edce8e4	0.4314643
17	0x3ec802e3	0.39064702
18	0x3f8d947d	1.106094
19	0x3deb7d39	0.11498494
20	0xbd170bad	-0.03687637
21	0x3e917106	0.28406543
22	0x3ea69094	0.3253218
23	0x3ed79bc9	0.42111042
24	0x3f87f459	1.0621444
25	0x3ddf1f50	0.10894644
26	0x3dcfe6b5	0.10151426
27	0x3de331dc	0.11093494
28	0x3e93c36e	0.2886004
29	0x3e3a3b45	0.18186672
30	0x3f76d900	0.96424866
31	0x3f8cfaa8	1.1013994
32	0x3e22d71b	0.15902369
33	0x3e966843	0.2937642
34	0x3f457289	0.7712789
35	0x3f35cd42	0.71016324
36	0xbe04686c	-0.12930459
37	0x3dd6e22e	0.10492359
38	0x3f7bbd72	0.98335946
39	0x3eec069f	0.46098801
40	0x3e940f2f	0.28917834
41	0x3efed610	0.49772692
42	0x3eecaaed	0.46224156
43	0xbd54ee64	-0.05198516
44	0x3ec150d3	0.37756976
45	0x3d28369c	0.041067705
46	0x3c5c6d9c	0.013453867
47	0x3d1d86d3	0.038458657
48	0x3fd8eac3	1.6946644
49	0x3e5bd20d	0.21466847
50	0x3e785adf	0.24253415
51	0x3f30f64c	0.6912582
52	0x3f168866	0.5880188
53	0x3f4e12c8	0.8049741
54	0x3f0d64ea	0.5523211
55	0xbe249271	-0.16071488
56	0x3d92d99a	0.071704105
57	0x3f1ac86e	0.6046208
58	0x3ef21a82	0.4728585
59	0x3ef05b19	0.46944502
60	0x3eef5605	0.46745315
61	0x3f7b4bb4	0.9816239
62	0x3f3fd8bc	0.74940085
63	0x3f15594e	0.58339393
64	0x3e821549	0.25406864
65	0x3f1845fb	0.5948178
66	0x3ee665b8	0.4499948
67	0x3ed67763	0.4188796
68	0x3e7fa204	0.24964148
69	0x3f1f4ac1	0.6222344
70	0x3f003e6b	0.5009524
71	0x3f05b0f9	0.52223164
72	0x3f5fbf5c	0.87401366
73	0x3ed8aebe	0.42320818
74	0x3e9fa104	0.31177533
75	0x3ee0beeb	0.4389566
76	0x3ed986f1	0.42485765
77	0x3f83a1c6	1.0283744
78	0x3f86eff8	1.0541983
79	0x3f30139d	0.6877993

conv3.3.running_var f4 [80]
0	0x40033fb9	2.0507643
1	0x402d7545	2.7102826
2	0x4010ae6e	2.2606463
3	0x4025b90b	2.5894191
4	0x3fac9187	1.3481911
5	0x3f93a0b1	1.1533414
6	0x40017f7f	2.0234067
7	0x408dfdff	4.4372554
8	0x3f72bc02	0.9481813
9	0x40192731	2.393017
10	0x3f6b3465	0.9187682
11	0x3f9b37e3	1.212643
12	0x3f725d2d	0.94673425
13	0x4043b46a	3.0578866
14	0x3f4f65a9	0.81014496
15	0x409e3f48	4.945225
16	0x3f7aac08	0.9791875
17	0x4025ea6a	2.5924325
18	0x40e7b0b0	7.2403183
19	0x3f5db255	0.8660024
20	0x3ec9939c	0.3937043
21	0x3fc498cd	1.5359131
22	0x402b363f	2.675186
23	0x3f6a1fbf	0.9145469
24	0x411893f6	9.536123
25	0x3f60e056	0.8784231
26	0x4000680e	2.006351
27	0x3ebbeef5	0.36705747
28	0x4035bc37	2.8396127
29	0x3ff0a40e	1.8800066
30	0x40d0d275	6.5256906
31	0x4060e0b7	3.5137155
32	0x3f715d52	0.9428302
33	0x40449f6c	3.0722303
34	0x40501f95	3.2519276
35	0x4014c4b6	2.3245063
36	0x3dc39915	0.095506825
37	0x3f9e0030	1.2343807
38	0x4063b102	3.5576787
39	0x3fe5259f	1.7902106
40	0x4051c546	3.2776656
41	0x4023860b	2.5550563
42	0x4075c54c	3.840167
43	0x3f421cff	0.75825495
44	0x401e20e7	2.4707582
45	0x3f7e2eda	0.9929024
46	0x3eae031c	0.33986747
47	0x3f4a9382	0.7913133
48	0x40694f07	3.6454484
49	0x3fac4909	1.3459789
50	0x4011ab4f	2.2760808
51	0x408c3f3b	4.3827186
52	0x409ee707	4.9657016
53	0x4089c93f	4.305816
54	0x3f746cab	0.95478314
55	0x3dc9e992	0.09859003
56	0x3ebd4902	0.36969763
57	0x40c7e244	6.2463703
58	0x40554c7c	3.3327932
59	0x402d9864	2.7124262
60	0x3f9f4715	1.2443568
61	0x410b4957	8.705405
62	0x4012b7fd	2.2924798
63	0x40a2be44	5.085726
64	0x40020ec0	2.0321503
65	0x409b95c7	4.8620334
66	0x3ff28e37	1.894965
67	0x400a4428	2.16041
68	0x3f94fa24	1.1638837
69	0x40588312	3.383
70	0x4013e61b	2.3109195
71	0x3fecfdfc	1.851501
72	0x40b371bc	5.6076336
73	0x3fe9a7d8	1.8254347
74	0x3fa1c886	1.263932
75	0x407500b6	3.8281684
76	0x4021c38e	2.5275607
77	0x4000ed79	2.0144942
78	0x4065d0ed	3.5908768
79	0x3fa6e83e	1.3039625

conv4.0.weight f4 [80, 80, 3, 3]
0	0x3d3d1c91	0.04616982
1	0xbd320a74	-0.043467
2	0xbbc843ad	-0.006111583
3	0xbd80bc35	-0.06285898
4	0x3d734a9d	0.05939733
5	0x3d56c8cd	0.052437592
6	0x3db09793	0.086226605
7	0x3d2ea5ad	0.04263847
8	0xbd3dd77e	-0.046348087
9	0xbadb5372	-0.0016733243
10	0x3dbed478	0.09317869
11	0x3d49602e	0.04916399
12	0xbdd354ca	-0.103189066
13	0x3b91c256	0.0044482155
14	0xbcfaf3b6	-0.030633789
15	0x3b9242f1	0.0044635464
16	0x3d3fa6dd	0.046789993
17	0x3d0d599d	0.03450929
18	0xbd626f65	-0.055282015
19	0xbd8d3773	-0.06895342
20	0x3ddb98e9	0.10722525
21	0xbe0d6665	-0.13808592
22	0x3c06ef01	0.008235694
23	0x3dfeaa3e	0.12434815
24	0x3b7793db	0.0037777338
25	0x3d9a3580	0.075297356
26	0x3d4b74de	0.049672
27	0x3d2b8de0	0.04188335
28	0xbd68e7f2	-0.056861825
29	0x3d470f95	0.048598845
30	0xbd100cf5	-0.035168607
31	0xbd0879dc	-0.03331934
32	0x3c9a6118	0.018845126
33	0x3ddc1688	0.10746485
34	0xbcd2ca3d	-0.0257312
35	0x3daf1ce0	0.08550429
36	0xbc66b173	-0.014080393
37	0xbdeffa74	-0.11717692
38	0x3da8a545	0.08234648
39	0x3cf69865	0.030101964
40	0x3c5117b0	0.012761995
41	0xbd53902a	-0.051651157
42	0xbda2d424	-0.07950619
43	0xbd20d0c7	-0.039261606
44	0xbcb64ec5	-0.022254357
45	0xbe5b64ba	-0.21425143
46	0xbdb1828d	-0.08667479
47	0x3dd978f2	0.106187716
48	0xbd98355e	-0.07432054
49	0xbde4db70	-0.11174667
50	0x3c88aa70	0.016682833
51	0x3d536279	0.051607583
52	0xbd01f45b	-0.031727176
53	0x3d2b9882	0.04189349
54	0x3d252796	0.040320955
55	0xbd61f636	-0.055166446
56	0xbd8f9875	-0.07011501
57	0x3d4a6f63	0.049422633
58	0xbd125514	-0.035725668
59	0xbd916c24	-0.07100704
60	0x3d0043ea	0.031314768
61	0xbd3caa7c	-0.046061024
62	0xbdd6cc55	-0.10488192
63	0xbd9e7e0c	-0.07738885
64	0xbcf004e9	-0.029299216
65	0x3d74d706	0.059775375
66	0x3d072244	0.032991663
67	0xbd24ec50	-0.040264428
68	0xbc8c6fdb	-0.01714318
69	0xbbb9b5b8	-0.0056674145
70	0xbd84dc1d	-0.06487296
71	0x3dbdbe1e	0.092647776
72	0xbd74ce06	-0.05976679
73	0xbd79489f	-0.060860272
74	0xbce4755a	-0.027887989
75	0x3d6d9353	0.058001827
76	0xbcc5e959	-0.02415912
77	0xbd93c0e4	-0.07214525
78	0x3d69803d	0.057007063
79	0xbc02fc7c	-0.007994767
80	0xbc9d9b47	-0.019239081
81	0xbdaf510e	-0.08560382
82	0x3d545faa	0.051849045
83	0x3c9b742e	0.018976297
84	0xbd2ae99e	-0.0417267
85	0x3da7be0c	0.081905454
86	0x3dcaf191	0.099093564
87	0x3e0503c0	0.12989712
88	0x3d980258	0.07422322
89	0xbd739749	-0.05947045
90	0xbdd91994	-0.10600582
91	0xbbc6d435	-0.0060677775
92	0x3d9739c7	0.07384067
93	0xbc3db1de	-0.011578051
94	0x3d0f8d6e	0.035046987
95	0xbd26ae90	-0.04069382
96	0x3cb42f38	0.021995172
97	0x3dc216c3	0.09476998
98	0xbb017700	-0.0019754767
99	0xbd9e431c	-0.07727644
100	0x3be8c96e	0.0071040904
101	0x3bb833e8	0.005621422
102	0xbda24791	-0.079238065
103	0xbcf1cb10	-0.029515773
104	0x39e3c5de	0.00043444237
105	0x3c409f2e	0.011756701
106	0x3c84cad6	0.016210001
107	0xbd4a55de	-0.049398296
108	0x3dbe9a5f	0.09306788
109	0x3c0c5469	0.008565047
110	0xbdc00a39	-0.0937695
111	0x3dbccfba	0.09219308
112	0xbd8622a1	-0.06549574
113	0xbc8e0fde	-0.01734155
114	0x3d7737bb	0.060355883
115	0xbd31ef5e	-0.04344117
116	0xbd639591	-0.05556256
117	0xbdf5a3f2	-0.11994161
118	0x3d26cc9f	0.040722486
119	0xbc42236e	-0.011849267
120	0xbe08569f	-0.13314293
121	0xbd8d7eec	-0.06908974
122	0x3dacb9c9	0.08433873
123	0xbd883459	-0.066506095
124	0xbd5975fe	-0.05309104
125	0x3d00174d	0.03127222
126	0x3ddbbb40	0.107290745
127	0x3b3c10c8	0.0028696526
128	0xbd3cc862	-0.046089537
129	0x3e00a0de	0.12561366
130	0xbbf8b7a9	-0.0075902534
131	0xbbb99b8b	-0.005664294
132	0x3d469d80	0.048490047
133	0xbde6e69d	-0.11274455
134	0xbd4f50ac	-0.050614044
135	0x3d89ba03	0.06724932
136	0xbd72d839	-0.059288237
137	0x3dc98088	0.098389685
138	0xbb818adc	-0.003953321
139	0x3d4e3a2c	0.050348446
140	0xbc3e5910	-0.011617914
141	0xbdcf532c	-0.10123286
142	0xb9b26e7a	-0.00034033117
143	0x3d870fdd	0.065948226
144	0x3de98202	0.1140175
145	0xbd9685f7	-0.073497705
146	0xbe295141	-0.16534902
147	0x3ddf41a1	0.109011896
148	0xbd17adea	-0.03703109
149	0xbdc7edbd	-0.09762142
150	0x3ccb7681	0.02483678
151	0xbdaa21b8	-0.083072126
152	0xbd1a9ad5	-0.037745316
153	0x3dddd003	0.10830691
154	0xbd5c71ba	-0.053819396
155	0xbd007464	-0.031361
156	0x3d85403a	0.06506391
157	0xbd89c5a4	-0.0672715
158	0xbdd12505	-0.10212139
159	0xba4267c7	-0.0007415977
160	0xbbde7fae	-0.006790123
161	0xbdbfb403	-0.093605064
162	0x3d017d38	0.03161356
163	0xbd23da58	-0.04000315
164	0x3d9188d6	0.071061775
165	0x3ce1aaa0	0.02754718
166	0x3cd6ed23	0.026236122
167	0x3ca32a89	0.019917743
168	0xbcedbd9c	-0.029021077
169	0x3dc83bf8	0.09777063
170	0xbd4710a4	-0.048599854
171	0xbd949eaf	-0.07256829
172	0xbd850869	-0.06495745
173	0x3d2c668d	0.042089988
174	0x3d95d802	0.07316591
175	0x3ce1cfc5	0.027564893
176	0xbcf0307c	-0.029319994
177	0xbde953aa	-0.11392911
178	0xbca145a4	-0.019686528
179	0xbdb272ec	-0.08713326
180	0x3df1bc3c	0.11803481
181	0x3cd2c202	0.025727276
182	0xbd634cf5	-0.055493314
183	0x3d8c7ef3	0.06860151
184	0x3baa1f0c	0.0051916894
185	0xbdeee9f6	-0.11665718
186	0xbd4cff4e	-0.050048165
187	0xbdbbdae0	-0.091726065
188	0xbd98e568	-0.07465631
189	0xbd9f95bc	-0.077922314
190	0xbd1a1667	-0.03761902
191	0xbdab8d08	-0.08376509
192	0x3ccbf023	0.02489478
193	0x3db468b1	0.08809031
194	0xbde3cd63	-0.11123159
195	0x3b9f97fa	0.004870412
196	0x3da2ce5f	0.079495184
197	0xbb8c6a67	-0.004285145
198	0x3da7889e	0.081803545
199	0xbd38bae9	-0.045100126
200	0x3d1c7e24	0.038206235
201	0x3db36e04	0.08761218
202	0x3dbaabc7	0.09114795
203	0x3cfcf89d	0.030880267
204	0x3d3e8def	0.046522077
205	0x3d8c4633	0.06849327
206	0x3db59fb0	0.088683486
207	0xbd85f579	-0.06540961
208	0xbd2ef7ea	-0.042716898
209	0xbbee7fd2	-0.007278421
210	0xbc19e184	-0.009392146
211	0x3d079353	0.033099484
212	0x3ccd2d67	0.025046064
213	0xbcb61ae5	-0.022229621
214	0x3d0fc570	0.0351004
215	0x3d5c51a7	0.053788807
216	0xbcf2f1f3	-0.029656386
217	0x3d249565	0.040181536
218	0x3d82a125	0.06378392
219	0x3d95955b	0.07303878
220	0x3d6285e7	0.05530348
221	0x3d74d1fe	0.059770577
222	0xbd41663e	-0.047216646
223	0x3bcc79e3	0.006240116
224	0x3cede61c	0.029040389
225	0x3e0500ec	0.12988633
226	0x3d543c9c	0.051815614
227	0xbd693b34	-0.056941226
228	0x3db31760	0.08744693
229	0xbdb1c716	-0.08680551
230	0xbdd813ee	-0.10550676
231	0xbca7e570	-0.020495147
232	0x3d25749c	0.04039441
233	0x3cf9cb72	0.030492518
234	0xbd4592ac	-0.04823558
235	0x3cc57bde	0.024106916
236	0xbdcbe61b	-0.099559985
237	0x3e0924ff	0.13393019
238	0xbd11aa6c	-0.035562918
239	0xbdd37a00	-0.10326004
240	0xb7370a6f	-1.0910079e-05
241	0xbb11d162	-0.0022250046
242	0xbd99c2bc	-0.07507846
243	0xbc733271	-0.014843569
244	0xbc8584b2	-0.016298626
245	0xbd92513c	-0.071444005
246	0x3bc6b539	0.006064084
247	0x3d6e0c77	0.058117356
248	0x3cde3829	0.027126389
249	0xbde3b836	-0.1111912
250	0xbd96fa15	-0.07371918
251	0xbd84e96d	-0.06489835
252	0x3d3db1e9	0.046312246
253	0xbdb73849	-0.089462824
254	0xbd21d158	-0.039506286
255	0xbdb7105c	-0.08938667

conv4.3.weight f4 [80]
0	0x3f7fd3ae	0.9993237
1	0x3f852ee0	1.040493
2	0x3f681ea8	0.9067178
3	0x3f6fcef8	0.93675184
4	0x3f860d5c	1.0472827
5	0x3f700a3f	0.93765634
6	0x3f7cb873	0.9871895
7	0x3f74687c	0.9547193
8	0x3f655174	0.8957741
9	0x3f67af15	0.9050153
10	0x3f5f175e	0.8714503
11	0x3f802667	1.001172
12	0x3f742300	0.95365906
13	0x3f658082	0.8964921
14	0x3f7a18bc	0.9769399
15	0x3f78ebb9	0.97234684
16	0x3f65f817	0.8983168
17	0x3f666032	0.8999053
18	0x3f6d0513	0.9258587
19	0x3f804a8f	1.0022753
20	0x3f82beb2	1.0214446
21	0x3f66dc8b	0.9018027
22	0x3f758014	0.95898557
23	0x3f717827	0.9432396
24	0x3f84e0e4	1.0381131
25	0x3f731fa9	0.94970185
26	0x3f77251a	0.9654099
27	0x3f7c8c56	0.98651636
28	0x3f6c81fd	0.92385846
29	0x3f82a984	1.0207982
30	0x3f6aba30	0.9169035
31	0x3f808fb4	1.0043855
32	0x3f6d5f42	0.92723477
33	0x3f5e16e1	0.8675366
34	0x3f7d35ce	0.98910224
35	0x3f5a7128	0.8532891
36	0x3f6f0756	0.9337057
37	0x3f8e21ea	1.11041
38	0x3f749859	0.95544964
39	0x3f826376	1.0186603
40	0x3f70bd1b	0.9403855
41	0x3f69d492	0.9133998
42	0x3f7efdac	0.9960582
43	0x3f7cf2ad	0.98807794
44	0x3f8215b7	1.0162877
45	0x3f780d8e	0.9689568
46	0x3f5f1d61	0.87154204
47	0x3f7888e1	0.9708386
48	0x3f6cd9eb	0.92520016
49	0x3f760d5a	0.9611412
50	0x3f6c0d87	0.9220814
51	0x3f60d4e4	0.87824845
52	0x3f6dadff	0.9284362
53	0x3f829d44	1.0204244
54	0x3f761a2a	0.96133673
55	0x3f7f351b	0.9969041
56	0x3f6b47a2	0.9190618
57	0x3f84c362	1.0372126
58	0x3f70945c	0.9397638
59	0x3f6d282b	0.92639416
60	0x3f6d22a3	0.92630976
61	0x3f6bbfba	0.92089427
62	0x3f7aa97c	0.9791486
63	0x3f68e08c	0.9096763
64	0x3f6d7fc6	0.9277309
65	0x3f7b31fb	0.9812314
66	0x3f6bb293	0.9206936
67	0x3f835e28	1.0263109
68	0x3f58b0be	0.8464469
69	0x3f6d1e0e	0.92623985
70	0x3f867437	1.0504216
71	0x3f6ebd74	0.9325783
72	0x3f5f8f1d	0.8732775
73	0x3f800fee	1.0004861
74	0x3f7c701a	0.98608553
75	0x3f6d1eae	0.9262494
76	0x3f6ca4e2	0.9243909
77	0x3f6b8a0b	0.9200751
78	0x3f82c67a	1.021682
79	0x3f6e05c0	0.92977524

conv4.3.bias f4 [80]
0	0xbed85acd	-0.42256775
1	0x3e5ef0bb	0.21771519
2	0xbdb4ebf0	-0.08834064
3	0x3e1fba0c	0.15598315
4	0x3dfbd651	0.12296737
5	0xbe460ebb	-0.19341557
6	0xbcb65890	-0.022259027
7	0x3eb3278e	0.34991115
8	0xbde98706	-0.11402707
9	0x3da13121	0.07870699
10	0xbed3252d	-0.412393
11	0x3c2da068	0.010597326
12	0x3d3c1539	0.045918677
13	0x3e99d0be	0.3004207
14	0x3cc270ca	0.023735423
15	0x3e3864b5	0.18007167
16	0x3d62e469	0.05539361
17	0x3de419fa	0.11137767
18	0x3e337853	0.17526369
19	0x3e824cbd	0.25449172
20	0x3e162834	0.14663774
21	0x3e5f1edc	0.21789116
22	0xbe907123	-0.28211316
23	0x3e05e169	0.13074268
24	0xbe19c281	-0.15015604
25	0x3ebb5adb	0.36592755
26	0xbe1397d7	-0.14413391
27	0xbceaede9	-0.028677898
28	0x3cb71ec0	0.02235353
29	0x3e68a2de	0.22718379
30	0xbdb07e2c	-0.086178154
31	0xbd7bd153	-0.061478924
32	0xbf013471	-0.50470644
33	0xbea7741e	-0.32705778
34	0xbe47a2fb	-0.19495766
35	0x3e45e600	0.1932602
36	0xbf258a5b	-0.6466424
37	0x3d884e26	0.06655531
38	0x3da23e43	0.07922032
39	0x3e1ead48	0.15495789
40	0xbe1c4517	-0.1526073
41	0x3e279364	0.16364819
42	0xbe27a233	-0.16370468
43	0xbe01ae73	-0.12664203
44	0xbd31fc49	-0.04345349
45	0x3da86944	0.08223203
46	0xbd13d31c	-0.03609
47	0xbe71fbdf	-0.23631237
48	0x3d01da3c	0.031702265
49	0xbd70495e	-0.05866372
50	0x3d2a2576	0.04153963
51	0x3ce17ad8	0.027524397
52	0x3ceaad39	0.028647052
53	0x3e3406c7	0.1758071
54	0xbe3b56b5	-0.18294795
55	0x3d8d604c	0.06903133
56	0xbe83ba2e	-0.2572798
57	0x3e4a98d7	0.19784866
58	0xbe201695	-0.15633614
59	0xbe0d5974	-0.13803655
60	0xbe382535	-0.17982943
61	0x3ece1572	0.40250736
62	0xbe5db3a4	-0.21650559
63	0x3d68c0da	0.056824543
64	0xbecdc48b	-0.40189013
65	0xbdfebfdc	-0.12438938
66	0x3c834d17	0.01602797
67	0x3dd734f8	0.1050815
68	0xbe1a3b93	-0.15061788
69	0xbe1fba31	-0.1559837
70	0xbe92992f	-0.28632495
71	0xbedb63a6	-0.42849463
72	0xbed27a2b	-0.41108832
73	0xbe66991c	-0.22519344
74	0x3d8d1809	0.0688935
75	0xbe15dc7c	-0.1463489
76	0xbe88d5ba	-0.2672556
77	0x3e8336ab	0.25627646
78	0x3e3ad79c	0.18246311
79	0x3de5f6ea	0.11228736

conv4.3.running_mean f4 [80]
0	0xbdc7b1ce	-0.097507104
1	0x3ef5c396	0.48000783
2	0xbdee41ba	-0.1163363
3	0x3e658dfe	0.22417447
4	0x3e94d6b7	0.29070064
5	0x3f45cf6c	0.77269626
6	0x3ec9af07	0.39391348
7	0x3ddce9dc	0.10786793
8	0x3dfe491d	0.12416289
9	0x3f50e83b	0.81604356
10	0xbde01b16	-0.10942666
11	0x3f2f6f36	0.6852907
12	0x3e0a19f6	0.13486466
13	0x3f1052bb	0.56376237
14	0x3f046308	0.5171361
15	0x3e93c939	0.28864458
16	0x3f252df6	0.64523256
17	0x3fb318e5	1.3991972
18	0xbdf21a24	-0.11821392
19	0x3f800652	1.0001929
20	0x3e2525f2	0.16127756
21	0x3f5a280a	0.85217345
22	0x3f0bddc4	0.5463526
23	0x3ebff4bd	0.37491408
24	0x3fba6d95	1.4564692
25	0xbc4b347f	-0.012402653
26	0x3f9eeccd	1.2416016
27	0x3f97fed2	1.187464
28	0x3f992c58	1.1966658
29	0x3f610d9c	0.8791139
30	0xbd1b6df5	-0.03794666
31	0x3fa9c7cd	1.3264099
32	0xbe3cf2d1	-0.18452002
33	0xbe222647	-0.15834914
34	0x3f192316	0.5981916
35	0x3f6134a3	0.8797094
36	0xbe332844	-0.17495829
37	0x3f6cf1e7	0.92556614
38	0x3efe240a	0.4963687
39	0x3e63d060	0.22247458
40	0x3f9fed7f	1.2494353
41	0x3dc7685a	0.097367
42	0x3f8b264e	1.0871065
43	0x3f0fb8d3	0.56141394
44	0x3f502f8e	0.8132256
45	0x3edd89f6	0.43269318
46	0x3e9f5283	0.3111764
47	0xbe2e0a8f	-0.16996215
48	0x3ef20fc0	0.4727764
49	0x3face85c	1.350841
50	0x3f7e2dd9	0.9928871
51	0x3f104dd8	0.5636878
52	0x3f4ccd66	0.80000913
53	0x3de42363	0.11139562
54	0x3e853505	0.26017013
55	0x3f9b6e1d	1.2142979
56	0x3f20c631	0.62802416
57	0x3f856a03	1.0422977
58	0x3ca104f2	0.019655678
59	0x3f0fca40	0.56167984
60	0x3e67fd65	0.22655256
61	0x3f351733	0.70738524
62	0x3e71352d	0.23555441
63	0xbd82a494	-0.06379047
64	0x3e596e97	0.21233593
65	0x3f0ec25a	0.55765307
66	0x3ef78763	0.4834548
67	0x3f6e5591	0.93099314
68	0x3f8a2a8c	1.0794234
69	0xbcb8b0dd	-0.022545272
70	0x3f636630	0.888278
71	0x3ec9f6fe	0.39446253
72	0xbe0a2b52	-0.13493088
73	0x3e65ad11	0.22429301
74	0x3f58a49a	0.8462616
75	0x3e3693fa	0.17829886
76	0x3eaaac73	0.33334693
77	0x3ebfaa62	0.3743468
78	0xbd8ab12e	-0.067720756
79	0x3cbd74b6	0.023126941

conv4.3.running_var f4 [80]
0	0x3eef4f7c	0.4674033
1	0x3ff39ccb	1.9032224
2	0x3e436553	0.19081621
3	0x3f9d6b1e	1.2298315
4	0x3f6aa62f	0.91659826
5	0x40a39dce	5.1130133
6	0x3f7302b1	0.9492598
7	0x3f70b6f1	0.94029146
8	0x3f319d34	0.693805
9	0x410010ad	8.004071
10	0x3ed45ccd	0.4147705
11	0x3fc75817	1.5573758
12	0x3f07811b	0.52931374
13	0x40b7d900	5.7452393
14	0x4012adc4	2.2918558
15	0x406da5f3	3.7132537
16	0x40ba9b11	5.831429
17	0x4129e410	10.618179
18	0x3de07fb6	0.10961859
19	0x40413e81	3.01944
20	0x3f5b5485	0.8567584
21	0x411b2a5b	9.697841
22	0x3fc2f4f6	1.5231006
23	0x4002bbd5	2.0427144
24	0x4081dd4c	4.058264
25	0x3e672f19	0.2257656
26	0x4089eb53	4.309976
27	0x405d1270	3.4542503
28	0x40ddd56a	6.9323015
29	0x3ff914cd	1.9459473
30	0x3eafc271	0.34328035
31	0x402c9827	2.6967866
32	0x3dc53f60	0.096312284
33	0x3d0b580f	0.034019526
34	0x406af14c	3.6709776
35	0x411aa97a	9.666376
36	0x3def3f2e	0.116819724
37	0x4007589d	2.1147835
38	0x4035a981	2.8384707
39	0x3f9361a0	1.1514168
40	0x411d2a1f	9.822783
41	0x3f4dfca4	0.80463624
42	0x40a9357d	5.2877793
43	0x40511dba	3.2674394
44	0x3ffe6e39	1.9877387
45	0x3fd59332	1.6685545
46	0x3f3ada2c	0.72989154
47	0x3da38432	0.07984199
48	0x4049e146	3.1543746
49	0x406b1b5d	3.6735451
50	0x4106e431	8.430711
51	0x4068235e	3.6271586
52	0x40e4610b	7.136846
53	0x3f981826	1.188237
54	0x3f9d2fae	1.2280176
55	0x40874922	4.2276773
56	0x408675f7	4.2019
57	0x4013666a	2.3031259
58	0x3f73d42a	0.9524561
59	0x3fcb2a03	1.5872196
60	0x3fee0844	1.8596272
61	0x401bafea	2.432612
62	0x3f29616f	0.66164297
63	0x3e5a9180	0.21344566
64	0x3f3f6cd5	0.7477544
65	0x404283cc	3.0392942
66	0x400c93ba	2.1965165
67	0x3fe8be0f	1.8183001
68	0x40e67eab	7.2029624
69	0x3f03bf47	0.5146374
70	0x400a7d09	2.1638815
71	0x3fbc7159	1.4722091
72	0x3d77f3f0	0.06053537
73	0x3f80932f	1.0044917
74	0x40ecbd5b	7.3981147
75	0x3f1b9004	0.60766625
76	0x40153ddc	2.3319006
77	0x4073d477	3.8098428
78	0x3f0c18bc	0.5472524
79	0x3ed6e1cb	0.4196914
