BackCNN_best_weights.pth (torch, 418695 bytes, 10 tensors)

conv1.0.weight f4 [10, 3, 3, 3]
0.15263171 0.011579497 -0.015337969 -0.14872795 -0.105860874 -0.08050385 -0.12585908 -0.022192301
0.18322712 -0.15408301 0.18072511 0.021136736 0.12330799 0.0034042594 -0.18323976 -0.097765
0.082554266 -0.033984363 0.13605025 0.17539555 0.022562344 0.015358581 -0.0004965693 0.13360341
0.062772244 -0.14062634 -0.15061852 0.009534969 0.017050024 -0.1243348 0.08127918 -0.15123451
0.034041606 0.05249874 -0.024610063 -0.14256036 0.17119047 -0.07823874 -0.038476665 -0.0503777
0.06513888 -0.11766883 -0.1697634 -0.17904526 -0.13149264 -0.037291326 -0.067514665 -0.030406402
0.054373432 -0.047270168 -0.14407293 0.07371241 0.16555619 0.1844296 -0.17385624 -0.16670288
-0.07845925 -0.09481382 0.12224505 -0.052573737 0.09316779 0.101659395 0.03932729 -0.09843273
0.005277189 0.09135432 0.1856205 -0.1486427 -0.13725203 0.1210903 -0.07853285 0.017697033
0.044410218 0.07090348 -0.13581829 0.14147425 -0.077443525 -0.1818809 0.0059978077 -0.013194088
-0.108067036 -0.017312624 0.15897262 -0.1603261 -0.17941502 0.07019989 -0.13220844 0.043624666
-0.17080837 -0.13181597 -0.07546649 0.09836064 -0.12176372 0.016530829 0.12685725 0.033337504
0.095867686 0.0027291614 0.056240458 -0.12417931 -0.0059952973 -0.13022447 0.10747826 -0.1400534
-0.066059686 -0.08656115 -0.16722761 0.010903045 0.16029143 -0.020154784 -0.08792948 -0.04498658
-0.13732086 0.15050988 0.06822766 -0.061252136 -0.15239535 0.18656433 -0.06343769 0.016792366
-0.03323433 0.06278796 -0.10740086 -0.13425669 -0.07207189 -0.12044788 -0.15947983 0.05990554
0.17435147 -0.10819329 -0.06124601 0.13099492 0.021182518 0.19711728 -0.12774818 0.15018748
-0.21057032 0.14329453 0.032531716 0.09568498 0.060180053 -0.16206491 0.041647844 0.17168273
-0.12729391 0.06588759 -0.16219376 -0.013801094 -0.16146491 -0.14248765 0.049074017 -0.16557135
0.04343583 0.15638581 -0.023225019 -0.09800612 0.04329393 -0.07839658 -0.1914758 -0.10490115
-0.1276083 0.06534433 -0.10690717 0.043117784 -0.060568206 0.0104253795 0.17708436 0.09242868
-0.14114913 -0.11352814 0.07905603 -0.06824177 -0.061665416 0.06691418 -0.07877497 -0.030809762
0.009147319 0.027809016 -0.029716257 -0.004187873 -0.016192958 -0.029112207 0.07369125 -0.06508809
0.1236062 0.14322369 0.08919607 0.13137405 0.13076371 -0.07470152 0.17142197 -0.050573785
0.15738764 0.048267763 -0.07642298 -0.062866084 0.012633045 -0.073186494 -0.022558812 -0.19910003
0.04095835 -0.08657743 -0.20939516 -0.087000325 -0.18274006 -0.09096454 -0.0013810743 -0.18476084
0.08924912 -0.0013021124 0.035644576 0.000328812 0.11098758 -0.15404938 -0.07141036 0.037133016
0.11522224 0.13674964 -0.1329725 -0.12785938 0.028155347 0.0107335355 -0.11100529 0.042418536
-0.06320399 -0.18151066 0.053344596 0.16964123 -0.013914446 0.13847534 0.065199055 0.052145354
-0.11444629 0.0751429 -0.084664166 0.18298806 -0.14277281 -0.16539308 -0.024251435 0.14740208
0.1368992 0.15292917 -0.16818538 0.072635 -0.0819622 -0.14480859 -0.11088573 0.08257038
0.17183298 -0.15019724 -3.8313072e-05 -0.0599018 0.15651459 0.051347386 -0.06351025 0.089299195
00000000: 7d4b 1c3e eeb7 3d3c 1b4c 7bbc 244c 18be
00000010: 96cd d8bd 34df a4bd 34e1 00be a1cc b5bc
00000020: e49f 3b3e f0c7 1dbe 0110 393e f326 ad3c
00000030: e688 fc3d ff19 5f3b 34a3 3bbe 0439 c8bd
00000040: 3612 a93d 3033 0bbd c250 0b3e e49a 333e
00000050: aad4 b83c 8fa2 7b3c 342c 02ba 55cf 083e
00000060: bc8e 803d 5a00 10be be3b 1abe 8f38 1c3c
00000070: 7eac 8b3c 3ea3 febd b375 a63d 38dd 1abe
00000080: 366f 0b3d eb08 573d 0b9b c9bc 58fb 11be
00000090: 8e4c 2f3e a23b a0bd b599 1dbd d958 4ebd
000000a0: 8867 853d 5bfc f0bd 75d6 2dbe a457 37be
000000b0: 02a6 06be cabe 18bd 2145 8abd d916 f9bc
000000c0: adb6 5e3d 5d9e 41bd db87 13be 88f6 963d
000000d0: 9087 293e 1ddb 3c3e 5f07 32be 29b4 2abe
000000e0: 3eaf a0bd c02d c2bd 9d5b fa3d 8f57 57bd
000000f0: c1ce be3d cd32 d03d a715 213d 1997 c9bd
00000100: 45ec ac3b f917 bb3d 4d13 3e3e cb35 18be
00000110: cc8b 0cbe 31fe f73d d5d5 a0bd 5ef9 903c
00000120: 7de7 353d d835 913d f313 0bbe a0de 103e
00000130: b69a 9ebd fd3e 3abe 4289 c43b 042c 58bc
00000140: 4052 ddbd 34d3 8dbc b8c9 223e 862c 24be
00000150: 92b8 37be f6c4 8f3d a661 07be c7af 323d
00000160: 64e8 2ebe c4fa 06be 2d8e 9abd 4e71 c93d
00000170: 425f f9bd a96b 873c dee6 013e e88c 083d
00000180: 4756 c43d bbdb 323b 655c 663d b951 febd
00000190: 3374 c4bb 9059 05be 901d dc3d 296a 0fbe
000001a0: 4d4a 87bd f946 b1bd b73d 2bbe afa2 323c
000001b0: 7023 243e a51b a5bc 5f14 b4bd d943 38bd
000001c0: d79d 0cbe 431f 1a3e f2ba 8b3d 85e3 7abd
000001d0: 870d 1cbe b80a 3f3e 9feb 81bd 2590 893c
000001e0: b920 08bd f996 803d fbf4 dbbd 967a 09be
000001f0: 6d9a 93bd 61ad f6bd ae4e 23be 835f 753d
00000200: 3189 323e 7294 ddbd 19dd 7abd 8823 063e
00000210: f686 ad3c 1dd9 493e 6bd0 02be bfca 193e
00000220: bf9f 57be cdbb 123e fa3f 053d 7df6 c33d
00000230: 5c7f 763d 58f4 25be ee96 2a3d 99cd 2f3e
00000240: 5659 02be 13f0 863d 1f16 26be fc1d 62bc
00000250: 0f57 25be 48e8 11be d601 493d 898b 29be
00000260: c5e9 313d 9a23 203e 6542 bebc 6fb7 c8bd
00000270: fa54 313d 638e a0bd 3b12 44be 6ad6 d6bd
00000280: c0ab 02be 40d3 853d 25f2 dabd 469c 303d
00000290: 5e16 78bd 36cf 2a3c 9a55 353e 3f4b bd3d
000002a0: 6689 10be 7181 e8bd 21e8 a13d 57c2 8bbd
000002b0: e094 7cbd 4d0a 893d c554 a1bd c164 fcbc
000002c0: a3de 153c bccf e33c 826f f3bc 6d3a 89bb
000002d0: 18a7 84bc b97c eebc 70eb 963d e84c 85bd
000002e0: 3f25 fd3d 3ba9 123e 6eac b63d eb86 063e
000002f0: ece6 053e 1cfd 98bd 3e89 2f3e 7526 4fbd
00000300: 3a2a 213e 6bb4 453d a783 9cbd efbf 80bd
00000310: d5fa 4e3c cde2 95bd 42cd b8bc e1e0 4bbe
00000320: f1c3 273d 824f b1bd af6b 56be 3a2d b2bd
00000330: 3620 3bbe 9e4b babd 2a05 b5ba f231 3dbe
00000340: 3ec8 b63d a4ab aaba 0c00 123d 6664 ac39
00000350: 754d e33d 1fbf 1dbe 983f 92bd ca18 183d
00000360: a3f9 eb3d 1908 0c3e f129 08be 92ed 02be
00000370: 0ba6 e63c b6db 2f3c be56 e3bd 0fbf 2d3d
00000380: 1871 81bd eedd 39be dd7f 5a3d 6eb6 2d3e
00000390: 6bf9 63bc 7bcc 0d3e 1587 853d 5e96 553d
000003a0: d162 eabd 85e4 993d 6864 adbd 3961 3b3e
000003b0: 0933 12be ce5c 29be f2aa c6bc 92f0 163e
000003c0: 4e2f 0c3e 7799 1c3e ca38 2cbe a9c1 943d
000003d0: ccdb a7bd b448 14be 0f18 e3bd a91a a93d
000003e0: fcf4 2f3e 4ecd 19be 59b2 20b8 975b 75bd
000003f0: 5c45 203e a351 523d a911 82bd 7fe2 b63d

conv1.0.bias f4 [10]
-0.09909558 -0.09013492 -0.10013031 -0.023247872 0.16148701 0.14677012 -0.11710574 0.083639935
-0.07619591 -0.1492725
00000000: a0f2 cabd a898 b8bd 1f11 cdbd 5272 bebc
00000010: da5c 253e e84a 163e 22d5 efbd 6a4b ab3d
00000020: 9a0c 9cbd e4da 18be

conv2.0.weight f4 [20, 10, 3, 3]
0.033256516 0.10523794 -0.09213 -0.028408382 -0.058223903 -0.059871655 0.036720272 -0.021486513
-0.0065220045 0.014490336 -0.05721325 -0.0651799 0.024817986 0.025271239 -0.059196632 -0.017716624
0.048034843 0.047135085 -0.106092446 -0.09278325 -0.0475164 -0.04997498 0.03352469 0.047940634
0.045270294 0.075003065 -0.10571341 0.052784204 0.09088954 -0.04179446 -0.019204896 0.11170165
0.021298379 -0.003960266 0.031989317 0.058101952 -0.047536273 -0.016363207 0.00377857 0.066481926
-0.058615845 -0.038286585 -0.020165682 0.065612935 -0.059783503 0.029049618 -0.024454577 -0.020128163
0.069419324 -0.016171243 0.018810244 0.015397301 0.050644614 -0.069298804 0.048844315 -0.005385364
0.07409982 0.10963633 0.07192618 -0.04526277 -0.0996286 0.061183184 0.045369536 -0.008041815
0.06660949 0.040840674 0.09840298 -0.04339567 -0.08190939 0.03507577 -0.00065426074 -0.0914442
0.07667589 0.07191635 0.09698502 0.038303465 0.027004208 0.05642768 -0.01774152 -0.013709352
-0.02511675 -0.061765656 0.0695472 -0.043949503 0.08137875 -0.036887214 0.07431199 0.03968344
-0.03359859 0.0011173064 0.043040562 0.07386708 -0.015428363 -0.068987176 -0.032144383 -0.06723121
-0.09166575 0.043305412 0.00586969 0.09223169 0.01182039 -0.053137917 -0.054795016 0.08957328
-0.07676942 -0.05477189 0.053487662 0.045756117 -0.10454556 0.08102207 0.015632683 -0.10539834
-0.033133462 0.031235976 0.061230503 -0.10999557 0.08637012 -0.10090847 -0.07035912 -0.027533285
0.000464489 -0.056877922 -0.0073106983 0.02563579 0.059408117 -0.031240432 -0.06544861 -0.056452468
0.014135254 -0.09019038 0.08946753 -0.06365975 -0.04498445 -0.06904237 0.018656423 0.053068053
0.105078086 -0.065189086 -0.056052387 -0.07447942 0.051032405 -0.097734354 0.062455334 0.077835515
-0.09798766 -0.039964873 0.0454721 0.061634704 -0.09071946 0.0022491291 0.004217236 -0.003623231
-0.06640711 -0.021005936 0.049448404 -0.025115361 0.06174209 -0.101160035 -0.04833716 0.059934065
0.045943934 -0.0028539738 -0.09089313 0.05846891 -0.09373365 0.015756747 -0.015576091 -0.021331081
-0.017461952 0.106264226 0.06759666 0.025907231 -0.0952073 0.058083113 0.07866696 0.06531477
0.096312195 0.056448445 -0.00036934597 -0.038353752 -0.012040526 0.015059258 0.048400212 -0.05241654
0.062215216 0.059787594 -0.08385077 -0.06344012 0.06508159 -0.0061659357 0.08441596 0.016052654
-0.059665892 0.0063676434 0.027822016 0.003645122 0.0014169053 0.08794311 -0.064591855 0.08804679
-0.09044071 -0.0637794 -0.034748577 0.07301679 0.06729763 -0.10488335 0.08911085 0.00690201
-0.012384902 0.021976858 -0.013457223 -0.033980526 0.016104987 0.06880565 -0.100256786 0.031902894
-0.07032601 0.059402585 -0.0014469046 -0.05222004 -0.059386533 0.06552071 0.09497178 -0.039704874
0.083420664 0.08550534 -0.0011554576 0.042909686 0.067856826 -0.03942517 -0.06757305 -0.07878019
0.06123528 -0.0074088494 0.063323624 -0.07601122 -0.014260823 -0.03513045 -0.06635697 -0.059924897
-0.014963713 0.009988267 -0.08988429 -0.07501069 -0.069351286 0.09869285 -0.0770186 -0.018927636
0.10626063 -0.087581314 0.0055638817 -0.04970132 -0.052134957 0.00328794 -0.016406786 0.017200744
00000000: fc37 083d fd86 d73d a7ae bcbd b2b8 e8bc
00000010: 307c 6ebd fb3b 75bd ff67 163d 7c04 b0bc
00000020: 8ab6 d5bb e068 6d3c 7158 6abd 0a7d 85bd
00000030: 174f cb3c a105 cf3c 2b78 72bd 7422 91bc
00000040: 2fc0 443d b810 413d ff46 d9bd 2505 bebd
00000050: 8fa0 42bd 91b2 4cbd 2f51 093d 665d 443d
00000060: 586d 393d 359b 993d 4680 d8bd 4034 583d
00000070: 4c24 ba3d ab30 2bbd 9653 9dbc d6c3 e43d
00000080: f079 ae3c 1ec5 81bb 3b07 033d 50fc 6d3d
00000090: 65b5 42bd 220c 86bc e3a1 773b ad27 883d
000000a0: 2b17 70bd 65d2 1cbd 8032 a5bc 1360 863d
000000b0: 8cdf 74bd 77f9 ed3c f754 c8bc d1e3 a4bc
000000c0: b82b 8e3d 8e79 84bc f117 9a3c f644 7c3c
000000d0: ba70 4f3d 88ec 8dbd fa10 483d b577 b0bb
000000e0: a5c1 973d 0389 e03d 084e 933d 7465 39bd
000000f0: 140a ccbd 389b 7a3d 68d5 393d d1c1 03bc
00000100: 8e6a 883d 8d48 273d 8087 c93d a8bf 31bd
00000110: 1cc0 a7bd 9cab 0f3d b282 2bba 1947 bbbd
00000120: 4008 9d3d e148 933d 15a0 c63d 18e4 1c3d
00000130: ee37 dd3c b620 673d aa56 91bc 319d 60bc
00000140: a4c1 cdbc fcfd 7cbd c36e 8e3d 6504 34bd
00000150: e7a9 a63d 0c17 17bd e230 983d 1a8b 223d
00000160: ad9e 09bd 9572 923a 4d4b 303d a047 973d
00000170: 3fc7 7cbc 2649 8dbd d4a9 03bd 84b0 89bd
00000180: 41bb bbbd 0461 313d 8756 c03b f8e3 bc3d
00000190: 4faa 413c 25a7 59bd bd70 60bd 3272 b73d
000001a0: 4939 9dbd 7d58 60bd e115 5b3d c46a 3b3d
000001b0: fc1b d6bd e6ee a53d 1d10 803c 16db d7bd
000001c0: f4b6 07bd 97e2 ff3c d6cc 7a3d 5b45 e1bd
000001d0: d1e2 b03d 1aa9 cebd 7118 90bd 7c8d e1bc
000001e0: a986 f339 d3f8 68bd 958e efbb 2602 d23c
000001f0: ed55 733d efeb ffbc ec09 86bd b43a 67bd
00000200: 8d97 673c bcb5 b8bd c13a b73d 0b60 82bd
00000210: 9d41 38bd 1666 8dbd 5bd5 983c e35d 593d
00000220: 2e33 d73d db81 85bd 3097 65bd ab88 98bd
00000230: 5b07 513d f328 c8bd 2ad1 7f3d 3a68 9f3d
00000240: c1ad c8bd 35b2 23bd f440 3a3d ac74 7c3d
00000250: 20cb b9bd 2066 133b bd30 8a3b bb73 6dbb
00000260: 7300 88bd a414 acbc 698a 4a3d bbbe cdbc
00000270: 46e5 7c3d fe2c cfbd 30fd 45bd 6c7d 753d
00000280: b52f 3c3d bc09 3bbb 2d26 babd 197d 6f3d
00000290: 6ef7 bfbd 4b14 813c dc32 7fbc 85be aebc
000002a0: 5e0c 8fbc 0fa1 d93d 1e70 8a3d 673b d43c
000002b0: 0bfc c2bd 8fe8 6d3d 251c a13d c0c3 853d
000002c0: 543f c53d 7c36 673d c7a4 c1b9 d318 1dbd
000002d0: a045 45bc 1bbb 763c 4d3f 463d bab2 56bd
000002e0: 62d5 7e3d d6e3 743d f4b9 abbd e5ec 81bd
000002f0: 7f49 853d 9e0b cabb 46e2 ac3d db80 833c
00000300: 3964 74bd aaa7 d03b ffea e33c 00e3 6e3b
00000310: 74b7 b93a 841b b43d bc48 84bd e051 b43d
00000320: fb38 b9bd c69e 82bd 8654 0ebd d489 953d
00000330: 57d3 893d 15cd d6bd c07f b63d 422a e23b
00000340: 0bea 4abc d008 b43c af7b 5cbc 2a2f 0bbd
00000350: 9bee 833c fae9 8c3d 6e53 cdbd 9cac 023d
00000360: 1507 90bd 2050 733d 10a6 bdba aee4 55bd
00000370: 4b3f 73bd b92f 863d 9180 c23d 94a1 22bd
00000380: 74d8 aa3d 6c1d af3d b972 97ba 11c2 2f3d
00000390: 85f8 8a3d 497c 21bd bd63 8abd 8257 a1bd
000003a0: d8d1 7a3d efc5 f2bb d1af 813d c5ab 9bbd
000003b0: 3aa6 69bc f2e4 0fbd 2ae6 87bd cf73 75bd
000003c0: 5c2a 75bc d4a5 233c 4115 b8bd 349f 99bd
000003d0: 0c08 8ebd 7a1f ca3d eebb 9dbd 210e 9bbc
000003e0: 2c9f d93d d55d b3bd 3951 b63b 9c93 4bbd
000003f0: 778b 55bd 7b7a 573b 8667 86bc 93e8 8c3c

conv2.0.bias f4 [20]
0.03532945 0.019348273 -0.09306562 0.08658456 -0.016945444 0.058021054 -0.004911924 -0.0012023759
0.011690643 0.056442864 -0.06992953 -0.039705545 -0.01803486 -0.08449862 0.09210204 -0.0008643146
-0.067922056 -0.07793186 0.049237978 -0.103536755
00000000: 9db5 103d 4580 9e3c 3099 bebd 3f53 b13d
00000010: 2cd1 8abc 7ca7 6d3d 34f4 a0bb 0a99 9dba
00000020: 1c8a 3f3c a230 673d 3737 8fbd 48a2 22bd
00000030: d8bd 93bc 9d0d adbd ff9f bc3d 2c93 62ba
00000040: b81a 8bbd bd9a 9fbd c3ad 493d 140b d4bd

conv3.0.weight f4 [40, 20, 3, 3]
-0.0037072003 -0.008306906 -0.061927956 -0.030359898 0.054352004 0.057444315 -0.033530984 0.057208434
0.07382167 0.052244116 -0.05290178 0.012115163 0.02313005 -0.07297842 -0.016450072 0.034190834
-0.018458536 0.008390616 0.0072324844 -0.0017966707 -0.027019508 0.0098249735 0.038126264 0.016915949
0.055857938 -0.03748653 -0.051300347 -0.028379338 -0.01461899 0.07377022 -0.019225819 -0.059430648
0.061730254 -0.021436717 0.036263872 -0.043798022 0.00081177533 0.0017691106 0.021841573 -0.06829774
0.008387007 -0.07805697 0.06461107 -0.010954048 -0.050477646 -0.031089146 0.040711313 -0.03182766
0.035724033 -0.058363248 0.07565307 -0.057367865 -0.06230593 0.061404523 -0.016966768 -0.027185464
-0.04116527 0.038791608 0.017379494 0.073814124 0.06303135 -0.016851991 0.02974604 -0.06509474
-0.010747074 0.014715406 0.053568378 0.062737964 0.0230592 -0.024338996 0.028905246 0.06013665
0.015002179 0.035262205 0.028657312 0.0038496642 -0.055610783 0.045623656 0.004531574 0.0117179
0.04733023 -0.052583445 0.059668317 0.07477057 0.046798367 0.06446911 0.0009263673 0.042422462
-0.036788184 -0.006257869 0.036310367 0.019887045 0.0014967852 -0.014126152 0.020685982 0.054597788
0.059936546 -0.05968073 -0.04741067 0.035684083 0.024383845 0.022967117 -0.047026034 0.0013147742
-0.08261429 -0.003588865 0.0009130637 -0.026708957 -0.010678024 -0.019837525 -0.015206974 0.02596987
-0.041298393 0.056635745 -0.011376403 -0.06692756 -0.061885975 -0.014437002 0.055288654 0.007390105
0.031111857 -0.02203596 0.058529105 -0.044496275 0.052286353 0.030317003 0.041119825 0.085406095
-0.02672462 -0.047737665 -0.011029959 0.01009551 -0.026833618 0.07761119 -0.020545086 0.02023359
0.039096676 -0.0059337546 -0.013916451 0.008833269 -0.009065429 -0.02091027 -0.01786968 -0.052681092
0.037165586 -0.05691915 0.050921436 -0.015722308 0.05013244 -0.030339276 0.0035205798 0.05091514
0.060257122 0.060493432 -0.054686863 0.016601795 0.062494338 0.05531701 -0.04065319 0.05362684
-0.03937197 0.06765636 0.014580885 -0.041258235 0.01775582 -0.06012058 -0.048743557 -0.03327394
-0.014981018 0.0055469256 0.017814053 0.04310174 -0.06482589 -0.042551346 -0.0023521653 0.029162575
-0.007553753 -0.076381646 0.04216251 -0.0014729102 0.023619214 0.07144367 0.06695968 0.005769058
-0.055789236 -0.0029860488 -0.009359239 0.009021834 -0.039680026 -0.02619926 -0.045039058 0.04154916
0.04893027 0.033627827 -0.063598074 0.059809085 0.077399395 -0.010619295 -0.026644671 0.0015684734
-0.047663603 -0.05287312 0.06427579 -0.0023748088 -0.037650526 0.028186003 -0.021828886 0.007015972
0.0039640833 0.009890304 0.015626594 -0.059060976 -8.8229164e-05 0.034964167 -0.06586136 0.060585096
0.04296727 0.028273465 -0.04745581 -0.016034732 0.03368743 -0.028806955 0.052838843 -0.03587628
0.04413405 -0.0048804097 -0.03182836 -0.06708923 0.006134836 -0.010577722 -0.05676349 -0.0051013953
-0.054471884 -0.006619554 -0.032078825 0.051267177 -0.02587214 0.03743776 -0.050341215 -0.03773508
-0.05804659 0.029596666 0.045948315 0.010431063 0.021520196 0.055254802 -0.06323531 -0.03602782
-0.057639472 0.07084116 -0.07588164 0.041245423 0.017263273 -0.05469909 -0.01039284 -0.011071748
00000000: 80f4 72bb b019 08bc 2ba8 7dbd 52b5 f8bc
00000010: 35a0 5e3d bb4a 6b3d c957 09bd 6453 6a3d
00000020: d12f 973d edfd 553d 89af 58bd ad7e 463c
00000030: 3b7b bd3c b675 95bd 4dc2 86bc b00b 0c3d
00000040: 5b36 97bc cb78 093c 7afe ec3b 447e ebba
00000050: 0458 ddbc edf8 203c 492a 1c3d 5193 8a3c
00000060: 4bcb 643d 7a8b 19bd 5020 52bd c97b e8bc
00000070: 7d84 6fbc d714 973d 777f 9dbc 8d6d 73bd
00000080: ddd8 7c3d 0e9c afbc 6d89 143d 8e65 33bd
00000090: 52cd 543a 80e1 e73a 19ed b23c afdf 8bbd
000000a0: a869 093c 55dc 9fbd cf52 843d 9b78 33bc
000000b0: a6c1 4ebd aaae febc e8c0 263d b85d 02bd
000000c0: 5d53 123d 4d0e 6fbd ffef 9a3d 91fa 6abd
000000d0: 8134 7fbd 4f83 7b3d e4fd 8abc 0db4 debc
000000e0: ea9c 28bd f3e3 1e3d 715f 8e3c dc2b 973d
000000f0: 9516 813d 300d 8abc f8ad f33c 6450 85bd
00000100: 7f14 30bc e318 713c 846a 5b3d c37c 803d
00000110: a6e6 bc3c 9362 c7bc b2ca ec3c d951 763d
00000120: b3cb 753c 1a6f 103d bdc2 ea3c a64a 7c3b
00000130: 22c8 63bd dfdf 3a3d 997d 943b 6ffc 3f3c
00000140: 58dd 413d bd61 57bd c466 743d 5021 993d
00000150: a5af 3f3d 6108 843d 75d7 723a 2dc3 2d3d
00000160: 35af 16bd cf0e cdbb 2eba 143d 28ea a23c
00000170: c72f c43a 6071 67bc a675 a93c eea1 5f3d
00000180: 0680 753d c873 74bd b131 42bd 7929 123d
00000190: a1c0 c73c 8925 bc3c 5f9e 40bd 8054 ac3a
000001a0: ae31 a9bd 2a33 6bbb ab5a 6f3a becc dabc
000001b0: e1f2 2ebc 4e82 a2bc ac26 79bc c4be d43c
000001c0: 8128 29bd e2fa 673d 1864 3abc 5111 89bd
000001d0: 267c 7dbd 2d89 6cbc 5b76 623d b228 f23b
000001e0: 4bde fe3c c284 b4bc 37bc 6f3d ba41 36bd
000001f0: 372a 563d 5d5b f83c 436d 283d 64e9 ae3d
00000200: 97ed dabc 9288 43bd 00b7 34bc a367 253c
00000210: 2dd2 dbbc 9ef2 9e3d 2b4e a8bc eac0 a53c
00000220: d623 203d f16f c2bb d301 64bc 6ab9 103c
00000230: 2a87 14bc 044c abbc 6f63 92bc 21c8 57bd
00000240: f13a 183d 0e24 69bd ff92 503d 12cc 80bc
00000250: ac57 4d3d 138a f8bc 87b9 663b 658c 503d
00000260: 2cd0 763d f6c7 773d 55ff 5fbd 7d00 883c
00000270: 10fa 7f3d 1794 623d f683 26bd d1a7 5b3d
00000280: 8144 21bd 6b8f 8a3d aae4 6e3c 65fe 28bd
00000290: a774 913c ff40 76bd 53a7 47bd 414a 08bd
000002a0: f272 75bc fcc2 b53b c7ee 913c 738b 303d
000002b0: 70c3 84bd 524a 2ebd c926 1abb 5ae6 ee3c
000002c0: 7985 f7bb fb6d 9cbd 99b2 2c3d aa0e c1ba
000002d0: 157d c13c 0f51 923d 2822 893d 5e0a bd3b
000002e0: 4183 64bd 96b1 43bb 7e57 19bc 50d0 133c
000002f0: 8687 22bd d59f d6bc e07a 38bd 742f 2a3d
00000300: 1b6b 483d 55bd 093d b53f 82bd 5ffa 743d
00000310: 9383 9e3d 8dfc 2dbc ed45 dabc 3c95 cd3a
00000320: e93a 43bd 7c91 58bd 06a3 833d aea2 1bbb
00000330: 7037 1abd 55e6 e63c 7ed2 b2bc 3de6 e53b
00000340: 24e5 813b f10a 223c 5803 803c ece9 71bd
00000350: ac07 b9b8 9636 0f3d 52e2 86bd 1428 783d
00000360: 73fe 2f3d c19d e73c 0661 42bd 455b 83bc
00000370: d5fb 093d 90fc ebbc 8b6d 583d 02f3 12bd
00000380: e8c5 343d d8eb 9fbb 745e 02bd 1466 89bd
00000390: bc06 c93b 2f4e 2dbc d580 68bd 9b29 a7bb
000003a0: e91d 5fbd d8e8 d8bb 1665 03bd 88fd 513d
000003b0: cff1 d3bc 5658 193d 9732 4ebd 1990 1abd
000003c0: 43c2 6dbd b574 f23c 4d34 3c3d 0de7 2a3c
000003d0: 1f4b b03c dc52 623d 8481 81bd e891 13bd
000003e0: 5e17 6cbd 2c15 913d d567 9bbd f6f0 283d
000003f0: b56b 8d3c 270c 60bd bb46 2abc 4766 35bc

conv3.0.bias f4 [40]
-0.04113893 -0.036534037 -0.07816458 -0.043079577 0.04092898 0.050574534 -0.0072571035 0.07141089
0.018148255 0.03261248 -0.04282279 0.036896273 0.026961638 -0.014678154 0.021608653 0.04649471
-0.0152284 -0.01202256 -0.06723473 -0.03385574 0.0002955206 -0.021387363 0.0632461 0.06321877
-0.012100208 -0.01661951 0.023643183 -0.073023416 0.073260546 -0.052706145 -0.030461228 0.018830156
-0.0291739 -0.054098688 0.020533472 0.015248728 -0.005041661 0.022491436 -0.041375954 -0.057771686
00000000: 4b81 28bd b7a4 15bd c014 a0bd 3674 30bd
00000010: 25a5 273d 3e27 4f3d ffcc edbb df3f 923d
00000020: a6ab 943c aa94 053d f366 2fbd 8c20 173d
00000030: a7de dc3c a47c 70bc a104 b13c 3d71 3e3d
00000040: 8a80 79bc 46fa 44bc 5db2 89bd 51ac 0abd
00000050: 1af0 9a39 8d34 afbc 2c87 813d d878 813d
00000060: f33f 46bc a325 88bc 59af c13c 4d8d 95bd
00000070: a009 963d 66e2 57bd d389 f9bc b341 9a3c
00000080: 1afe eebc 9696 5dbd d035 a83c cdd5 793c
00000090: 8534 a5bb f63f b83c d579 29bd 01a2 6cbd

conv4.0.weight f4 [40, 40, 3, 3]
-0.048845526 -0.044327952 -0.0048444127 0.023420267 0.0017463196 0.011019989 -0.010545649 -0.03769184
0.009281193 -0.019617379 0.025268203 0.006575302 0.02155162 -0.035931107 -0.0058935797 -0.045743905
0.037290756 -0.043240722 -0.05568086 -0.028855175 -0.021224331 -0.0077084256 0.035446525 -0.025107302
-0.04506877 -0.034657672 0.021508204 -0.008947071 0.002129037 -0.029938452 0.008354112 -0.033079486
0.043338336 -0.020303035 0.048718344 -0.044467323 0.0517842 0.011549771 -0.028721707 -0.012337158
-0.00035434333 0.0047288504 -0.020586852 0.020737631 -0.024508744 -0.041223977 0.027547834 0.025145512
0.05355595 -0.0038209371 0.0062060715 -0.023563948 0.044078328 0.04331948 -0.049247198 0.02927022
0.015103361 -0.041851573 -0.02363195 -0.01779356 -0.045408946 -0.02716807 -0.044044673 0.012510521
0.045350738 0.058536083 -0.036902834 -0.029042242 0.013607505 0.027298197 -0.02785046 0.043450546
-0.009777357 0.03891541 -0.046525713 -0.023713525 -0.0029461416 -0.050441522 0.011680346 -0.0039650667
0.004692461 0.020992737 0.034422852 0.049101144 -0.015167871 0.0065633697 0.012464826 -0.027923414
-0.0044210386 -0.018655647 -0.027807234 -0.056932416 -0.007819897 0.020459672 -0.009404748 -0.052568786
0.01983823 0.01013734 -0.044408575 0.044720236 0.0117476005 0.039064147 0.032131873 -0.009465443
0.0043933387 -0.021850655 -0.013867249 0.024423517 0.046381433 0.01985567 -0.03406193 -0.032725364
0.03579321 -0.016188318 0.039682582 -0.04387907 0.053450253 0.027142985 0.004773077 0.048619375
-0.035229813 -0.005167669 0.0549102 0.042823154 -0.011929817 0.047068626 -0.018415838 -0.04437613
0.047671393 0.025156977 -0.008975365 -0.017878333 0.049997095 -0.050085824 -0.026713466 -0.04727293
0.0075774044 0.047358025 0.034640707 0.0015087612 -0.023404464 -0.033572547 0.0075251423 0.016435277
0.051147293 -0.017204188 -0.043440707 -0.03202295 0.030252626 0.014816531 0.008948768 0.05296926
0.05727251 0.023996348 -0.007994929 -0.003545241 0.03522188 -0.028566314 -0.020639455 -0.028234348
0.010753586 -0.025067415 0.01757318 -0.036819305 0.054814983 0.036658246 -0.04179996 0.009966024
-0.03369474 -0.00328449 -0.007913304 -0.038396716 0.03048009 0.033772405 0.036753554 -0.043394852
0.014421802 0.04133316 -0.011901159 0.040599585 -0.0495777 -0.045260485 -0.037306704 -0.048094586
0.008925271 -0.023785261 -0.026682593 0.029733948 0.033500846 -0.0073616314 -0.0033926927 -0.05959864
0.033507302 -0.004869226 0.025829278 -0.05779703 -0.049191 0.00083985075 0.04721144 -0.026758952
-0.0010286621 0.050595395 -0.016694102 0.01348737 -0.0013967772 0.045926657 -0.035756934 0.042811584
-0.044042096 -0.018175045 -0.03021219 -0.044819035 -0.005440808 -0.001965868 0.018922867 0.017684368
0.015327789 0.026367273 -0.04401548 -0.007979627 0.026186649 -0.056666967 0.013838393 0.013762126
0.033284064 -0.022256602 -0.008272183 0.024450293 0.0011170052 -0.02456868 0.020818768 -0.0047425586
-0.004711074 -0.03329141 0.019860743 -0.007943005 0.009536704 -0.048535798 0.033511337 0.0074669286
0.038606506 -0.0061837696 0.0006945982 -0.041333787 0.0236672 0.04548013 -0.019850396 -0.02169044
0.01659014 0.02629872 -0.025689874 -0.036780212 -0.044869162 0.021761216 0.023399817 -0.05033113
00000000: 3f12 48bd 3a91 35bd e1bd 9ebb dcdb bf3c
00000010: c3e4 e43a 2f8d 343c a8c7 2cbc c262 1abd
00000020: 2510 183c a0b4 a0bc 43ff ce3c a275 d73b
00000030: 068d b03c 7f2c 13bd ee1e c1bb f65d 3bbd
00000040: 31be 183d 2f1d 31bd 9d11 64bd b061 ecbc
00000050: a6de adbc f696 fcbb 6030 113d d4ad cdbc
00000060: 089a 38bd 34f5 0dbd f931 b03c bc96 12bc
00000070: 5087 0b3b 7c41 f5bc afdf 083c 5b7e 07bd
00000080: 8a83 313d 8d52 a6bc e38c 473d 5e23 36bd
00000090: ab1b 543d 403b 3d3c c949 ebbc cb21 4abc
000000a0: 28c7 b9b9 79f4 9a3b c2a5 a8bc f7e1 a93c
000000b0: 90c6 c8bc 79da 28bd ffab e13c f6fd cd3c
000000c0: 7c5d 5b3d b068 7abb 4d5c cb3b 2e09 c1bc
000000d0: 7a8b 343d c46f 313d 6eb7 49bd 1ac8 ef3c
000000e0: 1674 773c 8e6c 2bbd cb97 c1bc cdc3 91bc
000000f0: bbfe 39bd 938f debc 3068 34bd eef8 4c3c
00000100: b2c1 393d 88c3 6f3d 6d27 17bd ffe9 edbc
00000110: 03f2 5e3c 78a0 df3c a626 e4bc 33f9 313d
00000120: 3531 20bc c465 1f3d bf91 3ebd de42 c2bc
00000130: 0e14 41bb c59b 4ebd ec5e 3f3c 64ed 81bb
00000140: 37c3 993b f6f8 ab3c fafe 0c3d 481e 493d
00000150: a982 78bc 8911 d73b 4539 4c3c a5bf e4bc
00000160: 5cde 90bb bad3 98bc ffcb e3bc f731 69bd
00000170: 061f 00bc 0b9b a73c 5f16 1abc 5e52 57bd
00000180: c983 a23c 1617 263c c4e5 35bd 912c 373d
00000190: 0279 403c ba01 203d b69c 033d f214 1bbc
000001a0: fff5 8f3b 2500 b3bc 7533 63bc d413 c83c
000001b0: 75fa 3d3d 5ca8 a23c 8684 0bbd 080b 06bd
000001c0: e79b 123d 5d9d 84bc 348a 223d 8aba 33bd
000001d0: a7ee 5a3d f75a de3c 7967 9c3b 1c25 473d
000001e0: 234d 10bd 8d55 a9bb 85e9 603d 5567 2f3d
000001f0: 4775 43bc 08cb 403d d0dc 96bc bfc3 35bd
00000200: 1443 433d 0116 ce3c 690d 13bc 9575 92bc
00000210: c1c9 4c3d cb26 4dbd 33d6 dabc 43a1 41bd
00000220: e04b f83b 7dfa 413d 6ae3 0d3d a0c1 c53a
00000230: b8ba bfbc 5e83 09bd 7895 f63b 46a3 863c
00000240: d37f 513d ccef 8cbc e2ee 31bd 7f2a 03bd
00000250: 5bd4 f73c 09c1 723c da9d 123c 4bf6 583d
00000260: 9496 6a3d fd93 c43c 2afd 02bc 4657 68bb
00000270: d144 103d e703 eabc 1314 a9bc b84b e7bc
00000280: cf2f 303c 2e5a cdbc a1f5 8f3c d7cf 16bd
00000290: ad85 603d f526 163d 6f36 2bbd 8948 233c
000002a0: 7f03 0abd 9940 57bb cda6 01bc e045 1dbd
000002b0: 62b1 f93c ef54 0a3d e58a 163d cdbe 31bd
000002c0: 6c49 6c3c f64c 293d 14fd 42bc c04b 263d
000002d0: fd11 4bbd 0f63 39bd eace 18bd d4fe 44bd
000002e0: 4d3b 123c 4fd9 c2bc 7495 dabc 9c94 f33c
000002f0: 2f38 093d d739 f1bb f057 5ebb b41d 74bd
00000300: f43e 093d 078e 9fbb ec97 d33c 94bc 6cbd
00000310: 817c 49bd 6e29 5c3a c860 413d 9735 dbbc
00000320: 2cd4 86ba 1e3d 4f3d 12c2 88bc 21fa 5c3c
00000330: 1114 b7ba 971d 3c3d dd75 12bd 335b 2f3d
00000340: 7c65 34bd d5e3 94bc 8e7f f7bc 2a94 37bd
00000350: ce48 b2bb cbd5 00bb 2104 9b3c cfde 903c
00000360: 6821 7b3c 2e00 d83c 9349 34bd fbbc 02bc
00000370: 6285 d63c 9f1b 68bd 6dba 623c 8a7a 613c
00000380: df54 083d 7a53 b6bc 0d88 07bc fb4b c83c
00000390: 7a68 923a 4244 c9bc 1f8c aa3c 7767 9bbb
000003a0: 5a5f 9abb 935c 08bd ffb2 a23c 6123 02bc
000003b0: d63f 1c3c 79cd 46bd 2f43 093d 23ad f43b
000003c0: db21 1e3d 38a1 cabb b215 363a 9e4d 29bd
000003d0: b7e1 c13c 5f49 3a3d 4c9d a2bc 26b0 b1bc
000003e0: 0ce8 873c 6a70 d73c 9273 d2bc d9a6 16bd
000003f0: bac8 37bd 9444 b23c f9b0 bf3c 0428 4ebd

conv4.0.bias f4 [40]
-0.023173483 -0.0077665825 -0.003943314 0.02314265 0.024571557 0.014750546 0.021657104 0.027637815
0.033750474 -0.020700224 0.009380799 0.04326099 -0.04883491 -0.011912989 -0.035907015 0.0048573087
-0.046794426 -0.046800625 0.048605684 0.025074149 0.014530657 -0.024957705 0.048138026 0.0055795237
0.044971813 -0.0049388157 -0.053863697 0.0075104353 0.027181635 0.03789029 -0.014938562 -0.030681644
-0.049314637 -0.012459665 -0.05182987 0.005294237 -0.005028586 0.053167526 0.033497583 -0.051392052
00000000: 51d6 bdbc d17e febb ea36 81bb a895 bd3c
00000010: 4a4a c93c 46ac 713c 3d6a b13c b368 e23c
00000020: f03d 0a3d 8493 a9bc ecb1 193c 7032 313d
00000030: 1d07 48bd b32e 43bc 3c13 13bd 0f2a 9f3b
00000040: 83ab 3fbd 03b2 3fbd c116 473d 4d68 cd3c
00000050: fe11 6e3c 1a74 ccbc 612c 453d 70d4 b63b
00000060: 5d34 383d cad5 a1bb 2ea0 5cbd 191a f63b
00000070: 05ac de3c d932 1b3d dfc0 74bc 1258 fbbc
00000080: 25fe 49bd 9f23 4cbc 8f4b 54bd 477b ad3b
00000090: d6c6 a4bb 31c6 593d c334 093d 7980 52bd

conv5.0.weight f4 [80, 40, 5, 5]
0.02636064 0.022802865 0.0072770985 0.026887316 -0.011434371 0.026564766 -0.0064178146 0.016387304
-0.013995898 0.012678232 -0.0058352896 0.021322668 0.0027581628 -0.016241658 -0.016316418 0.013692607
0.0403901 0.013181848 0.020834181 0.0059634815 0.030575888 0.0027273563 -0.0012422029 -0.0069808234
0.021996295 0.000777851 -0.014704495 -0.021507261 0.0039800326 -0.0034436667 0.0010351583 -0.007824701
-0.02395933 -0.016720867 -0.015821937 -0.02169898 0.012328226 0.01266849 -0.0076855975 0.018494708
0.023638902 -0.028524993 -0.028067743 0.003688461 -0.027958328 -0.0035396132 0.014247191 0.008311749
-0.00060698466 0.012412487 -0.00060663826 0.01876647 -0.02552875 -0.025874592 -0.016903294 -0.014900938
0.006980158 0.023350717 0.0096949795 -0.014834374 0.011095615 0.028624969 -0.017227255 -0.00072723714
0.015015455 0.029659152 0.0062029148 -0.028900001 0.013624831 0.012296304 -0.021299874 -0.02273813
-0.021372128 0.00092698424 -0.023902908 -0.016459389 0.021628173 0.008888068 -0.006265874 -0.014602274
-0.033752143 -0.027032917 0.021598998 0.00075953413 -0.036601085 -0.027204728 -0.030881453 -0.024840225
-0.03047492 -0.01281738 -0.026012156 -0.032626968 -0.023225311 0.023572095 -0.012300872 0.012532061
-0.0327106 -0.034641914 -0.014471084 -0.020594725 0.009828849 0.010670893 0.0001392118 0.031051356
0.033407774 0.015647579 0.013378631 -0.01714814 -0.02771407 0.027638827 -0.026788695 -0.010011103
0.008608176 0.015180719 -0.0012520233 0.015449159 0.028056564 0.00071736495 0.017333541 0.0021213384
0.01433659 0.02733927 0.017856136 0.032292765 0.020226927 -0.03457992 -0.0094891675 0.004191722
-0.021476638 0.0040388573 -0.0162832 -0.023924785 -0.01458172 -0.0038328797 -0.0125037115 0.022736678
0.012196078 -0.008014084 -0.03683756 -0.012569864 -0.0017120967 -0.016541308 0.002929577 -0.03697738
-0.007548005 -0.034806322 0.018227415 -0.025734928 -0.03393242 -0.02730223 -0.039465044 -0.009749146
0.0034718304 0.014808555 -0.04055364 -0.019016016 0.0012448666 0.013861785 -0.03469188 -0.042828683
0.011508694 -0.023976218 0.0026141133 0.008716048 -0.023054728 -0.00510611 7.907784e-05 0.017796969
0.0020884406 -0.04225711 -0.006849497 0.0039835093 0.016715314 -0.019688515 0.0062964074 -0.02534059
0.019700611 0.03217563 0.015639769 0.034841243 0.020940758 0.025757778 0.021148875 -0.020990482
-0.023797661 0.02766054 0.02634676 0.014716141 0.0010741183 0.012011255 -0.011934824 0.027845183
-0.0053058355 0.004508508 0.01839717 -0.007523493 -0.0146094905 -0.011017023 0.009281168 0.02842686
0.020872593 0.019170623 -0.014537755 -0.010485234 0.013411468 0.010820646 -0.014981294 -0.0034553455
-0.028836502 0.028645454 -0.0053397566 -0.02757845 0.0021179176 -0.030365096 -0.021128977 -0.01685804
-0.013938032 0.015118178 -0.01261075 -0.0014887527 -0.028606636 0.013305226 -0.0021283028 -0.00421675
0.018074622 0.024686791 0.02310733 -0.021694243 0.0043111513 -0.0051527396 -0.025897192 -0.003982712
-0.019367173 -0.0016323251 0.00940338 -0.026403315 -0.012285685 -0.015439438 0.022565102 -0.0116335265
-0.01647345 -0.032556638 -0.016200941 0.022656912 -0.021690795 -0.01665698 -0.012984026 -0.004564141
-0.008448593 -0.029824696 0.03362804 -0.019297143 0.006716278 -0.018930156 0.0048622536 0.03661037
00000000: 45f2 d73c 13cd ba3c ba74 ee3b ca42 dc3c
00000010: 3a57 3bbc 5a9e d93c 884c d2bb ab3e 863c
00000020: 0d4f 65bc 5cb8 4f3c f535 bfbb e0ac ae3c
00000030: 4bc2 343b 3a0d 85bc 02aa 85bc f556 603c
00000040: 1770 253d aef8 573c 72ac aa3c 4f69 c33b
00000050: 497a fa3c 72bd 323b 6ad1 a2ba 64bf e4bb
00000060: 9331 b43c b2e8 4b3a 1feb 70bc ff2f b0bc
00000070: ef6a 823b 24af 61bb 26ae 873a 2d33 00bc
00000080: 5b46 c4bc 33fa 88bc 029d 81bc 0fc2 b1bc
00000090: 54fc 493c 808f 4f3c 77d7 fbbb 3782 973c
000000a0: 5fa6 c13c 3fad e9bc 53ee e5bc 1bba 713b
000000b0: dd08 e5bc dbf8 67bb 0d6d 693c 012e 083c
000000c0: 0d1e 1fba be5d 4b3c ce06 1fba 24bc 993c
000000d0: ab21 d1bc f4f6 d3bc c778 8abc 1023 74bc
000000e0: cfb9 e43b 014a bf3c b1d7 1e3c e00b 73bc
000000f0: 62ca 353c e97e ea3c 2c20 8dbc 0fa4 3eba
00000100: 6203 763c c0f7 f23c d241 cb3b b2bf ecbc
00000110: af3a 5f3c 7076 493c 137d aebc 5145 babc
00000120: 9a14 afbc dc00 733a 08d0 c3bc d7d5 86bc
00000130: 912d b13c 429f 113c f651 cdbb 603e 6fbc
00000140: b03f 0abd 2374 ddbc 62f0 b03c 791b 473a
00000150: 05eb 15bd 73dc debc 1afb fcbc ba7d cbbc
00000160: 8aa6 f9bc fdff 51bc 7217 d5bc dba3 05bd
00000170: 0243 bebc 441a c13c 9989 49bc 4653 4d3c
00000180: 8dfb 05bd aee4 0dbd 2018 6dbc 45b6 a8bc
00000190: 2e09 213c f8d4 2e3c 62f9 1139 6a5f fe3c
000001a0: 97d6 083d 5a2f 803c 0c32 5b3c 427a 8cbc
000001b0: 9e08 e3bc d26a e23c f773 dbbc 9c05 24bc
000001c0: 4f09 0d3c 8db8 783c ee1a a4ba 781e 7d3c
000001d0: e1d6 e53c 8c0d 3c3a 12ff 8d3c 2706 0b3b
000001e0: 04e4 6a3c 9bf6 df3c 0847 923c 6b45 043d
000001f0: f1b2 a53c ada3 0dbd 7478 1bbc b65a 893b
00000200: c6ef afbc 6458 843b 5864 85bc e9fd c3bc
00000210: 2be8 6ebc 0d31 7bbb 5edc 4cbc 4542 ba3c
00000220: 0fd2 473c 814d 03bc fbe2 16bd d5f1 4dbc
00000230: 6f68 e0ba a381 87bc 25fe 3f3b 9875 17bd
00000240: 4155 f7bb 1391 0ebd a951 953c 0ed2 d2bc
00000250: b9fc 0abd eda8 dfbc 19a6 21bd e2ba 1fbc
00000260: a687 633b 959f 723c 931b 26bd 7ac7 9bbc
00000270: cb2a a33a 8a1c 633c 1319 0ebd 216d 2fbd
00000280: f68e 3c3c c669 c4bc 8b51 2b3b c1cd 0e3c
00000290: 45dd bcbc 2851 a7bb 98d6 a538 f3ca 913c
000002a0: 38de 083b cb15 2dbd bf71 e0bb 1988 823b
000002b0: 8eee 883c cf49 a1bc 1852 ce3b 1297 cfbc
000002c0: 2d63 a13c 98ca 033d f91e 803c b1b5 0e3d
000002d0: f48b ab3c fa01 d33c 6840 ad3c 3bf4 abbc
000002e0: 50f3 c2bc 5b98 e23c 29d5 d73c f81b 713c
000002f0: 6ec9 8c3a dbca 443c 488a 43bc 951b e43c
00000300: 93dc adbb 1bbc 933b a9b5 963c a287 f6bb
00000310: a55c 6fbc be80 34bc 0a10 183c 72df e83c
00000320: 00fd aa3c b60b 9d3c c42f 6ebc 42ca 2bbc
00000330: c6bb 5b3c 1449 313c 1a74 75bc 1473 62bb
00000340: 873a ecbc dfa9 ea3c 20f9 aebb 34ec e1bc
00000350: c3cc 0a3b 39c0 f8bc ad16 adbc df19 8abc
00000360: 585c 64bc 3cb2 773c 529d 4ebc 4022 c3ba
00000370: 7758 eabc 2afe 593c ff7a 0bbb aa2c 8abb
00000380: 3b11 943c f43b ca3c 954b bd3c 20b8 b1bc
00000390: 8f44 8d3b 50d8 a8bb 5926 d4bc 6981 82bb
000003a0: e8a7 9ebc bef3 d5ba a210 1a3c c44b d8bc
000003b0: e649 49bc b2f5 7cbc 73da b83c 8c9a 3ebc
000003c0: 54f3 86bc 1c5a 05bd d6b7 84bc fd9a b93c
000003d0: e5b0 b1bc 3874 88bc f4ba 54bc ca8e 95bb
000003e0: f86b 0abc ec52 f4bc 8ebd 093d 0b15 9ebc
000003f0: 3914 dc3b 6a13 9bbc 8a53 9f3b c1f4 153d

conv5.0.bias f4 [80]
0.005738809 0.009750163 -0.034838505 0.012153933 -0.013249075 -0.007978258 -0.0045117512 0.019109862
-0.024544522 0.009736832 -0.012419387 0.009701654 -0.025190197 -0.012693622 -0.027543273 0.014212738
-0.007042691 0.018606022 0.02676504 0.023253284 -0.015903559 0.017041994 0.009889274 0.013859234
-0.045421124 0.013187588 -0.015301263 -0.016111333 0.017623346 0.023882054 -0.025672125 -0.01457074
-0.016996183 0.017416006 -0.020575441 -0.015721114 0.023021875 0.02492471 -0.013263099 -0.0134165995
0.012088421 0.032615986 -0.01773532 0.015080486 0.026132846 -0.019634139 0.01833032 0.014645685
-0.013996323 -0.0004433598 0.019693453 0.00924891 0.011730815 -0.0295059 0.018312937 0.01937624
0.022793159 -0.03725789 -0.0053802333 0.019197535 0.009268591 -0.029982766 -0.003530622 -0.027236665
0.036011737 0.015129682 -0.013389384 -0.02280479 0.007823772 0.02131901 0.024288043 0.02600844
-0.028124435 0.0004594624 0.03626341 0.019011201 -0.036231548 -0.0089008305 0.021967467 0.021447374
00000000: 9e0c bc3b 26bf 1f3c d2b2 0ebd 4a21 473c
00000010: a612 59bc 3db7 02bc 50d7 93bb 498c 9c3c
00000020: 9811 c9bc 3c87 1f3c af7a 4bbc b0f3 1e3c
00000030: ac5b cebc e9f8 4fbc 6ea2 e1bc 8bdc 683c
00000040: 60c6 e6bb a86b 983c 5b42 db3c ac7d be3c
00000050: 2e48 82bc a79b 8b3c 9f06 223c d711 633c
00000060: 800b 3abd c110 583c 26b2 7abc eafb 83bc
00000070: d65e 903c 4ca4 c33c 594e d2bc 1dba 6ebc
00000080: 943b 8bbc 03ac 8e3c d48d a8bc 91c9 80bc
00000090: 5f98 bc3c e82e cc3c 784d 59bc 4cd1 5bbc
000000a0: 830e 463c 5798 053d a949 91bc 2514 773c
000000b0: 8d14 d63c c6d7 a0bc 7829 963c 75f4 6f3c
000000c0: d550 65bc bf72 e8b9 2a54 a13c bd88 173c
000000d0: 9b32 403c 5bb6 f1bc 0305 963c ecba 9e3c
000000e0: b8b8 ba3c bb9b 18bd ab4c b0bb 2644 9d3c
000000f0: 4adb 173c 6b9e f5bc 0262 67bb 6d1f dfbc
00000100: 0b81 133d 7ce2 773c 265f 5bbc 1cd1 babc
00000110: 472f 003c 34a5 ae3c b8f7 c63c a70f d53c
00000120: 3765 e6bc 00e4 f039 f188 143d 61bd 9b3c
00000130: 8867 14bd cad4 11bc 1ef5 b33c 67b2 af3c
