BackCNN_best_weights.pth (torch, 587015 bytes, 10 tensors)

conv1.0.weight f4 [10, 3, 5, 5]
00000000: d05e c9bd f0c2 923c 3e86 9dbc 29fc 1b3d
00000010: 0898 7ebd c21c d53d d643 3e3d b104 ad3d
00000020: 2dc4 143d 87d7 2cbd 1467 51bc d278 553d
00000030: 03a6 b13d f28e 683d 400a cc3b 6feb 183d
00000040: 2ee0 c03d a0fe 193d 45d2 c9bb 361c d8bd
00000050: b3e8 2f3d 7e53 32bc 6e8f cabd 367a 853d
00000060: 1e6f 093d 6390 0fbc 1a73 85bc 5fe5 4fbd
00000070: 3f58 2ebd 8b59 033d 050b 66bb a086 c23b
00000080: 4cff 88bb 7c8f d13d e158 f7bc 60bd ae3c
00000090: f91d 86bd e33c e93b c78c 79bc 3ea5 c5bd
000000a0: 0bbf 3e3c 76ff 8abd b6da 76bd c3cb d0bd
000000b0: 0ec2 b8bd c77e c13d 472e 9ebb 2f55 c1bc
000000c0: ecdf c83d 0fdc b83d 3fbf 2b3d 95e9 893c
000000d0: 30d6 4e3d 87e3 61bd c4d4 193d 3528 92bd
000000e0: 31f1 f639 573a 8d3b a8d0 1e3c d7a2 49bd
000000f0: 2210 a9bd bb5d eabd 4023 323d bd4d 173d
00000100: b02b 3dbc 13e8 343c 0ddb 133d 945c 96bd
00000110: 2bd5 263d 0c61 1b3d 3a48 663d b65b 9cbc
00000120: 9514 313d 3f01 f4bd 6f93 8f3d 7897 efbc
00000130: 425f b0bc dc57 9fbc ea99 1d3c 8eef e8bc
00000140: 852a 183d 6048 df3d c9bf 8ebd 1a5c 82bd
00000150: b69e 9abc fc8d 243d 346a a63d d043 c33b
00000160: df3b 6e3d 2163 9bbc e03c dabd 884e 88bd
00000170: 016a b03d 2413 3f3d 041b 2ebd 86a6 e1bd
00000180: b760 0dbc c265 58bd 6bac a3bd 3e44 5abd
00000190: d945 8dbd f229 32bc 7979 5abd 61c5 e8bd
000001a0: 123b 753d 0f70 8bbd 91de 21bd 5c53 ce3d
000001b0: 3cc2 a7bd 76fd cabb 914d eabd 7824 6f3d
000001c0: d01c 52bc 9a5a 3f3d a398 6d3d 0473 99bd
000001d0: 6a23 b43c da4b f4bd 7c0e 31bd 86ad 9cbd
000001e0: f84e 57bd 7499 de3d 358b 54bb 0cfa 953d
000001f0: fdda cdbd f9ab de3d 883a bbbd aea6 1c3d
00000200: 5a6f 97ba 380f bd3d 4faa c4bc 4bc9 d83b
00000210: 0ed2 e7bc 7e1d c23d 8366 adbd 0877 afbd
00000220: e594 263c 9b8c 5dbd 7b69 8e3d 8e2f d83d
00000230: 410d 843b 2896 d73d 1e56 aabd 4c4c d3bd
00000240: 54e3 883d 125a d3bd 2196 c43d 59de 463d
00000250: 11c1 f33c 10f2 a23d 65cd 87bc cf9a b2bd
00000260: 6a31 dbbc 5999 9ebd e802 fd3a cfb8 bf3d
00000270: 873a 9fbd 253e b83d cab2 863d 8f46 c73b
00000280: f5e3 5d3d ada4 e0bd 227a 30bd 04d2 353d
00000290: 65c5 ae3d 780e af3c 1e50 f3bd c9cc 20bc
000002a0: 6737 bebc 25da 6abd 67d3 d53d 0be9 543d
000002b0: 9dad dcbb 2e85 ba3d c71b 9cbb dafe b23d
000002c0: 26b0 5c3d a5fd a2bd 6c71 21bd 0f89 09bb
000002d0: 3a5c c8bd f2aa a8bd dc0e 243d 6f42 a6bc
000002e0: c91d 6abd 2889 02bb bdfa 1d3d c498 e73d
000002f0: 3a7d abbd 238a a93d cb25 65bc d0b0 a83d
00000300: dc2b acbd ef4c c2bd a9c0 d73d 8445 c9bc
00000310: 0b50 45bd 10fc 46bd 9a19 ed3c c6d5 a7bd
00000320: 9a6f 50bd cff7 df3c 2ba6 913d fc0c 72bd
00000330: a85e b43d 46e4 c3bb 68c9 a43d 051b 3a3d
00000340: a3f3 87bd 0ca9 513c eeee b93c 95e9 57bd
00000350: a92e 97bd f156 9c3c 6966 cc3d 2ecf f73c
00000360: 7e5e bc3d c171 92bd 702b 0cbb 9355 d3bc
00000370: d2cf 4fbd 8cb6 f0bd 37b6 2ebd 493d bdbc
00000380: 3980 a2bd a4fd fd3b 1159 6dbd e4ec bcbd
00000390: bcd8 9a3d 2f37 a13d 08c2 d3bd 81d9 4abd
000003a0: a16b b8bd ede3 c33c d3a7 aebc 1488 43bd
000003b0: 033c b83b 0019 89bd db7b 01bd 1579 ef3d
000003c0: 42ce 97bd 262e b53b b89a 68bd 6658 ed3d
000003d0: 89d3 8f3c 3c8b 06bd 391b 8a3d ebf0 b33d
000003e0: 02fa d9bc 3868 b4bd fa61 b23d 5da1 5cbd
000003f0: 21b4 e13d 59e9 ac3d bc16 60bd 34aa 6abd
-0.09832537 0.017915219 -0.01922905 0.038082276 -0.062156707 0.10405876 0.046451412 0.084481604
0.0363199 -0.04219773 -0.012780923 0.052117176 0.08674242 0.05677695 0.006226808 0.037333902
0.09417759 0.037596345 -0.0061590993 -0.10552256 0.04294653 -0.010884164 -0.09890638 0.065174505
0.033553235 -0.008762452 -0.016290236 -0.050755855 -0.042564627 0.032067817 -0.0035101783 0.0059364587
-0.0041808244 0.102324456 -0.030193748 0.021330535 -0.065486856 0.007117854 -0.015231318 -0.09650658
0.011642228 -0.067870066 -0.060267173 -0.101951145 -0.09021388 0.09448009 -0.004827294 -0.023600189
0.09808335 0.09026348 0.041930433 0.016835013 0.050497234 -0.055148628 0.037556425 -0.07136575
0.00047100478 0.004309933 0.009693302 -0.04922756 -0.0825503 -0.11443659 0.04349065 0.03693937
-0.01154606 0.011041659 0.036097575 -0.073418766 0.040730637 0.037934348 0.056221224 -0.0190867
0.04323252 -0.119143 0.070105426 -0.02924703 -0.021529797 -0.019451074 0.0096192155 -0.028434541
0.037149925 0.10902476 -0.06970174 -0.06365223 -0.018874507 0.04017447 0.081257254 0.0059590116
0.058162566 -0.018968167 -0.10656142 -0.06655604 0.08613969 0.046649113 -0.042506233 -0.1101809
-0.008629016 -0.05283142 -0.079918705 -0.053287737 -0.06898088 -0.010874258 -0.0533385 -0.11365772
0.059870787 -0.06808483 -0.039518896 0.10074493 -0.08191344 -0.0061947657 -0.11440576 0.05838439
-0.012824252 0.046717264 0.058006894 -0.074926406 0.021989543 -0.1192853 -0.043226704 -0.076502845
-0.052565545 0.108691126 -0.0032431607 0.07323083 -0.10051534 0.10872645 -0.09142023 0.038244896
-0.0011553571 0.09231418 -0.02400699 0.006615793 -0.028298404 0.094782814 -0.08466818 -0.08567625
0.010167335 -0.05408917 0.069537126 0.10555945 0.0040299003 0.10526687 -0.08317207 -0.10317287
0.066839844 -0.10319914 0.09598947 0.04855189 0.029755147 0.07956326 -0.016577432 -0.08720934
-0.02675696 -0.077440925 0.0019303234 0.09361421 -0.07774835 0.08996228 0.0657707 0.0060814093
0.054172475 -0.109689094 -0.043085225 0.04438974 0.08533744 0.021369204 -0.118805155 -0.00981445
-0.023219777 -0.057336945 0.104407124 0.05198006 -0.0067345635 0.09107433 -0.0047640535 0.08740015
0.053878926 -0.07958535 -0.03941481 -0.0020986234 -0.09783216 -0.0823573 0.040053234 -0.02029535
-0.05715731 -0.0019918177 0.0385692 0.113084346 -0.083734944 0.082783006 -0.013986061 0.08236849
-0.08406803 -0.0948733 0.10534794 -0.02456928 -0.048172038 -0.04858023 0.028942872 -0.08195071
-0.05088768 0.027339844 0.07111772 -0.059094414 0.08807117 -0.00597814 0.08046228 0.045435924
-0.06638267 0.012796652 0.022696938 -0.052712996 -0.073819466 0.019084426 0.09980471 0.030250158
0.091977105 -0.07150603 -0.0021388195 -0.02579764 -0.050735302 -0.11753568 -0.042654242 -0.023100512
-0.07934613 0.0077511836 -0.05794627 -0.09224871 0.0756087 0.078718536 -0.10339743 -0.049523834
-0.090049036 0.023912394 -0.02132026 -0.047737196 0.0056223883 -0.066942215 -0.03161226 0.116930164
-0.074123874 0.005529183 -0.056788176 0.11589126 0.017556923 -0.032847628 0.067434736 0.08786186
-0.02660847 -0.08808941 0.08710094 -0.053864826 0.11020685 0.08442945 -0.05470918 -0.057291225

conv1.0.bias f4 [10]
00000000: 0274 c23c a1b5 b7bc 286d 903d 15ef debc
00000010: 1f97 08bc 79da 803d 89e6 14bd 4d23 243d
00000020: 55e8 9d3d ff60 e33d
0.023736957 -0.022425475 0.0705207 -0.027213613 -0.008336811 0.0629167 -0.036352668 0.040072728
0.077103294 0.11102485

conv2.0.weight f4 [20, 10, 5, 5]
00000000: cadf 883d 47b7 53bd 42f5 de3c fc7f 3b3d
00000010: 2a06 28bd c4da 1ebd bf0f debc b432 743c
00000020: 6972 0bbd 5655 c03c 1ca7 d13c b954 53bd
00000030: 1d5f 5abb d662 563c 31db 4cbd 79f4 4dbd
00000040: 55f3 f6bc f88d 0bbd 98f0 1f3c 1b71 dbbc
00000050: a0a2 503b d46f 6bbc c94a 8f3b 3f37 313d
00000060: a451 f63c 51fe 63bc 7f3f 5bbd 90d8 86bd
00000070: 0a98 033d e0a5 3fbd cc62 d0bc d72d 313d
00000080: 62ec 82bd d99b 393c 07a5 8ebd b15e 21bc
00000090: a8a2 253d fefb 9fbb 9c0a 8cbd 91ef 923b
000000a0: 956f 893c 6340 9e3c 3fec 183d b3b2 8bbd
000000b0: 93a2 40bc 5ef0 f83c dad1 f13c 2130 38bd
000000c0: 507f 163d 278a 413d 3b6a 77bd b599 54bd
000000d0: 3481 7cbc dd12 71bd c806 d3bc 65e9 3dbd
000000e0: 9520 6f3d b117 0c3c b00e 003c 5996 39bc
000000f0: a0f1 d03b e1ae babc 9e31 34bd 44e3 08bd
00000100: e52b 45bb 37d4 18bc eecc 613d f09e 26bd
00000110: fdb6 433d 613e 4dbd 384c 223d 9509 a63c
00000120: 8511 383d 5ce9 583d 7abf 1fbd 4fb3 75bc
00000130: 68ae 16bc 1139 b43c 181c 5e3b 2b00 6dbd
00000140: 4b50 543c 37f7 4c3d bee7 d3bc 6ec6 c83c
00000150: baa2 093c 0ecd df3c d0a9 533c 8325 0a3d
00000160: 81d0 7dbd 05b1 7d3d 2527 09bd cdeb 473d
00000170: 34c1 a7bc 1dd7 43bd a9c3 713c fff8 3abd
00000180: 9c7c 3f3d e0e5 723c 9435 5b3d a9e7 043d
00000190: 0bba 6dbd 2be1 3b3c 8c1f 59bd b4ff 1dbd
000001a0: 7c24 37bd e0a2 07bd fd58 93bc 255e 99bc
000001b0: 65ea cb3b 5517 063d 05a5 31bd 5652 d73c
000001c0: c0b7 88bd ebda e1bc 625a c63c 90f4 bc3b
000001d0: 9bd9 4ebd 2f96 e2bc 91a9 343d 48bf 643d
000001e0: 9a70 3fbd dd06 febc 7c81 623d e411 31bc
000001f0: 5e95 493d a38c 3abd e374 32bd 654a 883d
00000200: 1487 d639 df9d 35bd 8b70 03bc 14ae 703d
00000210: 155e ce3c 9eb0 873d 6084 4b3d 0d15 23bd
00000220: 8c75 ea3c edf9 57bd e81d 64bc 36f3 a73c
00000230: 6b00 dbbc 7e6d 5d3d 0960 e43c 86cf d7bc
00000240: 89df d3bc 201d 093c 4342 fdbc 52fe 5b3d
00000250: 4ac3 b13c 8ee2 27bd ad45 1e3c aa42 e13c
00000260: d2a4 493d 1781 5ebd c4be 9abc 977b 833d
00000270: 60ed 4bbd 9bed 63bc 6fed a23c 6ba3 72bd
00000280: 74fe d03c 4f36 bbbc a42f 223d ca64 6f3c
00000290: c050 463d 06df 15bd 019c 4cbd 7260 a2bb
000002a0: 5e62 533c 63aa 51bd a245 59bd f3f3 bbbc
000002b0: 02dd 02bd 476b 203d 4f5f 173c 50f7 f73c
000002c0: 59ce 87bc ca4c 66bb 83a7 7c3b 7e50 80bc
000002d0: ef03 88bb e042 813d 0f58 1a3d f530 5ebd
000002e0: 4e81 3abc 12b2 d33c 179c 103d 1831 e03b
000002f0: d082 503c fb3a 4b3d 34f4 9c39 4f0c 03bd
00000300: f8bf 25bd fa77 213c f6c4 4d3d 8d16 213d
00000310: 10a2 623d 7e4b 0cbd 869a 073d 1805 aa3c
00000320: f774 11bd 0a34 99bc a0ad 58bd a6ee 293d
00000330: f565 703d 33aa ab3c 63c6 eebc c80a 0a3d
00000340: 642e de3c 9d55 f7bc 3fa0 bd3c 9120 8a3c
00000350: 91b1 0ebd 03af 303d 1bbd 8b3c 8904 a23c
00000360: 1278 153d e5ef c63b ff43 873d 549b 223d
00000370: eb0c 32bc 49a2 8dbc 752a 843b 2658 603d
00000380: 9cb4 0ebd b03b 8abd d4a7 bb3c f1a7 adbc
00000390: ab67 a73c 7df5 ddba 8ad1 41bd 9ec3 383d
000003a0: 448b 0a3c 2477 bb3c fecb f83c 7f51 debc
000003b0: 49d6 4d3d a902 3cbd abf1 f83c 63f2 94bc
000003c0: 38f6 88bd 2327 85bc dcc9 0b3d 6f9a 69bc
000003d0: 2742 34bd b5a3 403d eafb a3bc 1330 53bc
000003e0: 5a04 0b3d f60d 423c 4371 3f3d 9a99 28bd
000003f0: 7cf1 bdbc 0094 44bd e8ea d4bb d4b1 203d
0.066833094 -0.05168846 0.027216557 0.045776352 -0.041021504 -0.03878285 -0.027107118 0.014904667
-0.034044657 0.023478191 0.02559238 -0.05159447 -0.0033320852 0.013085088 -0.050013725 -0.050281975
-0.030145327 -0.03407094 0.009761952 -0.026787331 0.0031835213 -0.014369924 0.0043729288 0.043265577
0.030068226 -0.013915614 -0.05352735 -0.06584275 0.032127418 -0.04678905 -0.025437735 0.043256607
-0.06392743 0.011328661 -0.0696507 -0.009849236 0.040438324 -0.0048823347 -0.06837961 0.004484125
0.01677684 0.019317811 0.037334677 -0.068211935 -0.011757511 0.030388054 0.02951901 -0.044967774
0.03674251 0.047250893 -0.060404044 -0.0519044 -0.015411664 -0.05885588 -0.02576007 -0.04636516
0.058380682 0.00855057 0.007816002 -0.01132735 0.00637646 -0.022788467 -0.04399263 -0.033419862
-0.0030085978 -0.00932794 0.055127077 -0.04067892 0.047781933 -0.050108317 0.03962347 0.020268241
0.044938583 0.052956924 -0.039000966 -0.014996364 -0.009196855 0.021999868 0.0033891257 -0.05786149
0.012958596 0.05004045 -0.02586734 0.024508681 0.008400613 0.027319457 0.012918904 0.03372718
-0.061966423 0.061936397 -0.033484597 0.04880886 -0.020477869 -0.04781257 0.014756122 -0.045647617
0.046749696 0.014825314 0.053517893 0.03244749 -0.058038753 0.011467258 -0.0530086 -0.038573936
-0.04471253 -0.033114314 -0.017986769 -0.01872165 0.0062230104 0.032737095 -0.043370266 0.026284378
-0.066756725 -0.027570209 0.02421302 0.005766459 -0.050500493 -0.027659504 0.044107024 0.055846483
-0.046738245 -0.031009132 0.055299267 -0.010807488 0.049214713 -0.045544278 -0.043568503 0.06654815
0.00040917902 -0.04434001 -0.008022438 0.058759764 0.025191346 0.06625484 0.04968679 -0.039814997
0.028620504 -0.052728582 -0.013923146 0.020501714 -0.026733598 0.054059498 0.027877824 -0.026344072
-0.025863426 0.00836876 -0.030915385 0.053709336 0.021699566 -0.040987544 0.009660167 0.027497608
0.04922945 -0.05432233 -0.018889792 0.06420057 -0.049786925 -0.01391163 0.019888608 -0.05923788
0.025511958 -0.022853045 0.039596215 0.014611432 0.048416853 -0.036589645 -0.049953464 -0.004955345
0.0129018705 -0.051187884 -0.053044923 -0.022943472 -0.03194905 0.039164808 0.009239032 0.030269295
-0.016577886 -0.0035140985 0.0038551993 -0.015663382 -0.0041508595 0.063115835 0.037681635 -0.054245908
-0.011383368 0.025841746 0.03530511 0.00684179 0.012726501 0.049616795 0.00029936584 -0.03199416
-0.04046628 0.009855265 0.050236665 0.039328147 0.055330336 -0.034251682 0.03310635 0.020754382
-0.035511937 -0.018701572 -0.052899957 0.04148736 0.058690984 0.02095518 -0.029147333 0.033701688
0.02712173 -0.03019219 0.0231477 0.016861232 -0.03483731 0.043135654 0.017057946 0.019777553
0.03649146 0.006071078 0.06604766 0.039698914 -0.010867338 -0.017289298 0.0040333816 0.054771565
-0.03484021 -0.06749666 0.022907175 -0.021198245 0.020435175 -0.0016934123 -0.047318973 0.04510843
0.008456055 0.02288396 0.030370709 -0.02713847 0.050253186 -0.045900974 0.030388674 -0.018181985
-0.066875875 -0.016254013 0.034128055 -0.014258011 -0.0440084 0.047031123 -0.020017583 -0.01288988
0.033939697 0.011844149 0.046738874 -0.04116211 -0.023186438 -0.047992706 -0.0064977296 0.03923209

conv2.0.bias f4 [20]
00000000: f43d ae3c 4e26 383d b6a6 5fbd 2ec3 56bd
00000010: 60c2 9ebc c948 02bd d388 5d3d fbb8 63bd
00000020: 344e 8c3b df92 a0bc c1bf 2d3d 1043 1c3d
00000030: 3483 df3c 4b2c 6dbc 36d6 493d 48c7 23bd
00000040: 172f 683b ca11 b2bc e0f9 1ebc 6200 233d
0.021269776 0.044958405 -0.054602347 -0.05243223 -0.019379795 -0.031807695 0.054085564 -0.055596333
0.0042817835 -0.019601284 0.0424192 0.038149893 0.027284242 -0.014475892 0.049276553 -0.03998497
0.0035428458 -0.021736998 -0.0097031295 0.039795287

conv3.0.weight f4 [40, 20, 5, 5]
00000000: 7384 263d b3ca 3d3d 5658 2b3b cbf9 4cbc
00000010: 001f a93c 34a4 f2bc 1ccd a4bc 2e85 003d
00000020: 4d8a 8b3a 302d 013d 73e7 0cbd f612 173d
00000030: 7c6a 35bc 09dd 4f3d af18 b93c cbb7 283d
00000040: 5a25 fbbc 64dd 94bc e6c6 7e3c 80ca 223d
00000050: 1b7d eebc 620a 4bba 3b94 ca3c 5625 7ebc
00000060: f564 e3bc 4ab8 333d ea2a 833c 17de 12bd
00000070: 39d0 6cbb 2142 b2bc e941 033d cc4c 8f3a
00000080: 719c 323c 11bc 23bd dbcc dd3c ad9a 50bb
00000090: 8470 8c3c 6743 15bd c177 7fbc 6d9a 6b3b
000000a0: e0a3 0a3d 6fe7 c3bc a9a9 90bc c746 b0bc
000000b0: 3619 2bbd f52f 1ebd bb91 053d 6274 5dbc
000000c0: f649 99bc 3113 023c 0df1 f2bc b0cc 983c
000000d0: 9ee1 02bd 5ca0 333d a6f4 2dbd 3774 39bd
000000e0: b785 33bd 59bb 2dbd f9a0 1c3d 6e4f 7fbc
000000f0: 0e52 b4bc 4d84 c43b 829e e13c 100b 113d
00000100: 28cd 3c3b eb93 793c fe65 c53c 9f36 283b
00000110: d1b4 a3bc 7ce8 64bc 7ea6 e0bc ad56 873c
00000120: 7cb4 c73c 768e aabc 24b8 a5bb 0b07 a03c
00000130: d63e af3b b7d1 72bb 934d f23c c7df 33bb
00000140: 3555 083d ed9c 32bc 095d 033d 96b3 643c
00000150: 0e77 59bc f49e 503d 16a2 e9bc ed6f 95bc
00000160: 9dbf 273d 7961 a53c 2e35 f9bc 6da6 213d
00000170: 9e82 50bb 3da7 dc3b a357 bcbc df78 d73c
00000180: 01ec 1e3d a5b2 17bd a613 093a 96d2 9f3c
00000190: 6a86 e53a 4ebb af3c 0eed d2bc cec7 903c
000001a0: 5221 09bc 024b 3d3d 35b1 9fbc ac54 c93c
000001b0: 5a76 523d ec1c 083b ad1e 1b3d ef1d f7bc
000001c0: 05f1 a2bc 806f 933c c43b ff3c 8f96 0d3d
000001d0: f65a 19bc 6a8d b53b 20ef 46b8 f05d 01bd
000001e0: 04a5 043d 3945 f33c b59b 863c 0224 c73c
000001f0: 879d 393d df3d 273c 2e4e 283c c95b 233d
00000200: be21 01bd 6509 263d 719c 1c3d 000f 04bc
00000210: 2c9f 7bbc 98e1 c23c 18fb 0dbd b378 be3b
00000220: bdf0 3e3b 4eab 7ebb 317b b7bc 9281 d53c
00000230: ac9c 75bb 5b46 2abd c7cd 61bb b10e 41bc
00000240: e145 423c 521d 19bd 8564 14bd 4e18 a83c
00000250: 8d97 12bd 8c90 253c 90ae 88bb 85ba efbb
00000260: 5fbe f43c 8cdf ad3c 0951 5cbc a5b3 d23b
00000270: 2bf5 0ebd d9d6 8bbb e063 c53b 90e4 803a
00000280: a534 77bc 2e10 d73c 7d0a 093d 45a7 733c
00000290: a85e 0c3a 3eaa 9ebc b34f 04bd c08f 5bbb
000002a0: 8cbc 0bbd f8bb 113d e8e5 3dba 83d8 2e3d
000002b0: 546e e73b 6cc5 123d 6f1a 943c 89c0 2cbd
000002c0: 12e1 583c 8b40 8bbc a711 073d 1018 8f3b
000002d0: 6bf4 e4bc a81c 103d b9bd 3e3b 4649 7ebc
000002e0: 871f 7a3c 14ba ae3c f81d 73bc eeec 8b3c
000002f0: 9d87 ee3c 677d d43c f1fb 633b 9a9c 4bbd
00000300: e0ae fcbc 738f 34bd 7669 fb3b 57fe 4d3c
00000310: 7187 6a3a 2b3f 83bc e31c 623c 5aa1 803c
00000320: 0267 823a 92e8 113d fa31 113d ebeb fa3c
00000330: 2fe5 a93c 4fb3 40bb 10e2 283d d1e3 aaba
00000340: d7cf 233d b8dc 92bc 51ab a33c 97eb ba3c
00000350: 9383 773b 2f6a 313d 49eb 113d 7bbc 29bd
00000360: ace3 33bd d85e 1abb e2a0 1a3c 86b1 703b
00000370: 98a7 e23c 6a70 c13c 7ee7 03bc 2039 c4bc
00000380: 02b2 5b39 f7aa 31bd 0d24 45bd f5d1 84bc
00000390: 4068 e4bc bb7c 9e3c 33cf d1bc be6a cd3c
000003a0: 4add 3dbc de6f ddbc 6179 95bc c3c4 2a3c
000003b0: 4f3d 083c 7b45 83bc 71fa f9bc 171f 2fbd
000003c0: 0685 373c 2722 253c 4669 c73c b08c c53c
000003d0: 300d 0d3c b2f6 093d 8da9 93bc 6273 c9bb
000003e0: 5a32 5bbd d6ee 003d b7ce 343c 17d0 943b
000003f0: 900a 113d 5126 f5bc adce 003d 9aa8 5fbc
0.040653657 0.046335887 0.0026145182 -0.012510727 0.020644665 -0.029619314 -0.020117335 0.03137701
0.0010646075 0.031537235 -0.034400415 0.036883317 -0.011072751 0.050747905 0.022594778 0.041190904
-0.030657459 -0.018171974 0.015550351 0.0397439 -0.02911239 -0.00077453826 0.024728885 -0.015511831
-0.027758101 0.043876924 0.016011674 -0.035856333 -0.0036134853 -0.021760048 0.03204528 0.0010932921
0.010901556 -0.039974276 0.027075222 -0.0031830475 0.017143495 -0.036441233 -0.015592516 0.00359502
0.03384769 -0.023914067 -0.017659025 -0.021518124 -0.04177209 -0.038619954 0.032609683 -0.013516517
-0.018712025 0.007939146 -0.029655958 0.01865229 -0.031953447 0.043854102 -0.042469643 -0.045276847
-0.043828692 -0.042414997 0.038239453 -0.015582902 -0.022011783 0.005997217 0.027541403 0.03541094
0.0028808806 0.01523302 0.024096485 0.0025667322 -0.01998368 -0.013971444 -0.02742314 0.016520822
0.024378054 -0.020819884 -0.0050573517 0.019534608 0.005348067 -0.003705127 0.029578006 -0.0027446614
0.033284385 -0.010901672 0.032071147 0.013958832 -0.013273014 0.05093284 -0.028519671 -0.018241847
0.04095422 0.02018808 -0.030420866 0.039465357 -0.0031816135 0.0067338035 -0.022991007 0.026302753
0.03879929 -0.037035603 0.0005229063 0.019509595 0.0017511372 0.021451619 -0.025747802 0.0176734
-0.008369761 0.04621411 -0.019493679 0.024576508 0.0513824 0.0020769192 0.03787105 -0.03016564
-0.019890318 0.017997503 0.031156428 0.034567412 -0.009360066 0.0055405395 -4.742958e-05 -0.031583726
0.032383934 0.029696094 0.016431669 0.024309162 0.045316245 0.010207622 0.010272546 0.039882455
-0.03152632 0.040536303 0.03823513 -0.008060217 -0.015357774 0.023789212 -0.03466329 0.0058127283
0.002913519 -0.003885943 -0.02239761 0.02606276 -0.0037477417 -0.041571002 -0.0034454928 -0.011783288
0.011857481 -0.037381478 -0.036228675 0.020519402 -0.03578906 0.010105263 -0.0041712 -0.007315936
0.029875932 0.02122476 -0.013447055 0.0064301067 -0.03490178 -0.004267555 0.006023869 0.0009833742
-0.015088235 0.026252832 0.033457268 0.014871423 0.0005354681 -0.019368287 -0.03230257 -0.003350243
-0.03411536 0.03557965 -0.00072440365 0.04268695 0.0070627127 0.035832807 0.01807901 -0.042175803
0.013237255 -0.01699855 0.03297582 0.004366882 -0.027948579 0.03518358 0.0029104783 -0.015520399
0.015266306 0.021328963 -0.014838688 0.01708075 0.0291174 0.025938703 0.003478762 -0.049709894
-0.030845106 -0.044082116 0.007672484 0.012572846 0.0008946574 -0.016021332 0.013800832 0.015701938
0.0009948912 0.035622187 0.035448052 0.030630073 0.020739166 -0.0029403751 0.041231215 -0.0013037865
0.039993133 -0.017927513 0.019979151 0.022817416 0.0037767633 0.043314155 0.035624776 -0.041439515
-0.043918297 -0.0023555066 0.0094377715 0.0036726906 0.027667806 0.023613174 -0.0080507975 -0.02395302
0.0002095178 -0.043375935 -0.048130084 -0.016213397 -0.027881742 0.019346585 -0.025611496 0.025075313
-0.011588404 -0.027030881 -0.018246355 0.010422888 0.008315398 -0.016024342 -0.030514928 -0.04275426
0.011201149 0.010078943 0.02434219 0.024114937 0.008609101 0.033682533 -0.018025184 -0.006147788
-0.053514816 0.03147777 0.011035613 0.004541408 0.035410464 -0.029925497 0.0314471 -0.013651038

conv3.0.bias f4 [40]
00000000: c801 6ebb 8d23 82bc bd1a 073d f6e4 acbb
00000010: b268 3b3c f615 8d3c efe0 063c 8ef4 41bd
00000020: e357 bf3c 9896 d13c 3dcd e33c 1b27 7f3c
00000030: e3d4 07bd ffe8 45bd 5720 c1bb 7ce2 113d
00000040: d236 35bc 2df7 3f3d 9f75 d9bc f2a2 43bb
00000050: aa06 bfbb fa80 983b 19c8 f23c 7f20 f4bb
00000060: 195e d13c fe76 ebbb dbbc c7bc 52e0 843a
00000070: 250c ed3c f2a2 0a3d 1658 6f3c 309e 0e3d
00000080: 8659 c0bc a283 243d a543 07bd 2226 69bc
00000090: fc14 30bb a43e 0ebd 6eb0 d13a afa1 3c3d
-0.003631698 -0.015886093 0.032984484 -0.0052763177 0.0114385355 0.017222386 0.008232339 -0.047352366
0.023357337 0.025584504 0.027807826 0.015573288 -0.03316201 -0.048317906 -0.005893748 0.035616383
-0.011060433 0.046866585 -0.026545344 -0.0029851762 -0.005829652 0.004654047 0.02963643 -0.007450163
0.025557565 -0.007185816 -0.024382045 0.0010137653 0.028936455 0.033846803 0.014608404 0.034818828
-0.023480188 0.040164597 -0.033023495 -0.014230283 -0.0026867976 -0.034727708 0.0015998015 0.04605263

conv4.0.weight f4 [40, 40, 5, 5]
00000000: 7c97 a1bc 3809 dcbb 0738 9e3c 4193 b33c
00000010: f840 1c3c c9ac 513c 96e1 b93c c2e9 843c
00000020: d933 76bc 8f86 f3bc 87d8 f3bc a907 153c
00000030: 29cc 213c 4fa0 68bc 7e23 ddbc 5d8d f9bb
00000040: 0717 ba3c 42f5 f6bc bba7 18bc 0711 ab3c
00000050: 7e84 293c 4c71 dbbc 98f0 85bc 965d 013c
00000060: 7ea4 80bb 397b b83c b8b7 0ebd 21ac 743c
00000070: 5b25 01bd b43c 883c 8593 29bc 7b32 e03b
00000080: ebea bf3c f263 663c 64da c03b 6b2f 05bd
00000090: a4d5 d7bc ff80 3cbb c5be 673c e675 a73c
000000a0: 4892 05bc 10f0 a53c 91df 29b9 5b31 9d3c
000000b0: aacb 213a f37e 923c f201 1f3a e79e c73c
000000c0: 6d90 64bc 7bfe 783b 3bc7 ac3c 7f9a ee3a
000000d0: 635c 8a3b 2fff b1bc 2e1d b5bb c174 b7bc
000000e0: a830 a5bc 65ad afbc ffde e13c d029 31bb
000000f0: ec64 973b 20b7 55bc e8c3 923a f91e 833c
00000100: bae0 b0bc 1031 48b6 f773 22bc b3fd f0bb
00000110: 2600 013b 3aec c43b 0836 1f3d 26c6 ef3b
00000120: 783d 903c 8948 453b 2175 e73c d3f7 cc3c
00000130: e2af 493c 7ebd 88bc a7f9 0e3d 2a49 413c
00000140: d9a5 6b3c 33ce 823c 6f64 863b 2f97 003d
00000150: aa9f afbc 126b f2bb d92e 9b3c 7ae6 253c
00000160: d9ce a1bc b1b1 e93b cb18 57bc 5a39 713c
00000170: 08e9 383c 6f13 38bc f44b 543c e0e9 acbc
00000180: ae07 9cbb 7a15 9e3b b540 43bc ec4e 133c
00000190: 5cb6 0abc b9f3 c7bb 16c5 c2bc c9f0 01bd
000001a0: e7f1 d33c 9f05 923c f99b dcbc aa27 edbc
000001b0: 28fc 02bd 6d35 343a 5664 e73c 0e3c 98bb
000001c0: 4142 00bd ffaf 91bc e0a3 5abc 5754 f83b
000001d0: fac6 d4bb 96d8 8bbc 012b 07bd faf2 f6bc
000001e0: a73b b13c 232f c1bc 26f1 233c ce2f 00bb
000001f0: 26b2 f7bc 16ed 2fbc 1103 763c 3845 873c
00000200: a8ba b53c c338 debb 2f12 4c3c ba2b 0abd
00000210: 00ca 0dbd 7008 febc fbde a5bc e940 30bc
00000220: cbc2 143c 53e4 ee3b 8a45 d7bb e9b5 833b
00000230: 53bd b53c fc78 03bb 38fa d8bc b870 5f3c
00000240: 31d8 b4bb c42e ef3b 818f b4bb a547 a33c
00000250: e528 9dbc a38f 443b 003e cdbc 6e04 973c
00000260: f831 033d 4e77 ac3c ba1f 0d3d 53e7 0c3d
00000270: edc4 103d 98a3 4b3b 732b df3c 4cd0 b73b
00000280: 9369 d43c eb9f adbc 0b3d 903c 609a 7dbc
00000290: 5458 18bc 9030 333b a7f5 313c c58e cbbb
000002a0: b259 c0bc a23f 85bb 5668 35ba a4b2 df3c
000002b0: 7501 40bc dd98 adbc 20fb 923b a08d 0e3d
000002c0: 3d0c 083d fe5c da3c c856 1f3c 2889 113d
000002d0: ef7b 9b3b 7745 853c 7133 92bc 6052 1f3d
000002e0: 6375 8fbc 292a 223d cbde b3bc 8a8d 33bc
000002f0: a4c2 543c 4a37 2a3c 2976 903c 13e6 7a3c
00000300: cd51 063d 3376 263d 5fff b1bc 6f89 0f3d
00000310: a21f 0ebc 9662 e73b 98a9 c1bb 84df 193b
00000320: 3bb2 0c3c d873 413c 0c33 ffbb e9e1 a23c
00000330: 631e a9bb e8c9 d13c f48e ac3c 4e33 b83c
00000340: f74a e7ba b6b2 d7bc f601 973c 9d6b 333c
00000350: ce4a 9dbc 26e1 7d3a a240 cd3c b4d9 a73b
00000360: 6f76 4c3c e5f3 ca39 dc70 d93c 139c be3c
00000370: 80b9 abbb 81d0 a6bc 26cf b33a ea48 643c
00000380: e732 c9bc 6e87 043d d044 543c f636 33bc
00000390: c788 e93b 4d2d e23c b7af 9abc e639 be3c
000003a0: 42a9 af3c 9fa9 6e3c e89f 343c 4a67 89bc
000003b0: 2689 8fbc 0a7e c43c 9226 a83c a75c 4cbc
000003c0: e6c0 27bc 2727 8d3c 9c6b aebc 2f27 c9bc
000003d0: 7b3c 833c a55a 773c 3be4 cbbc 970f 013d
000003e0: b742 c83c 0441 73bc 1694 59bc 831f bebc
000003f0: eb02 c1bb e90b 9f3c b388 d4bc e624 0cbd
-0.019725554 -0.006714966 0.019313825 0.021920802 0.009536974 0.012797543 0.022690576 0.016224746
-0.01502701 -0.029727248 -0.029766334 0.009096065 0.009875336 -0.014198377 -0.026994463 -0.007615729
0.022716058 -0.030146245 -0.009317334 0.020882143 0.01034653 -0.026787423 -0.016350076 0.007895848
-0.003925859 0.022519695 -0.034843177 0.014933617 -0.031529766 0.016630508 -0.010350113 0.0068419552
0.023427447 0.014061915 0.005885409 -0.032515924 -0.026346989 -0.002876341 0.014144604 0.02044196
-0.008152552 0.020256072 -0.00016200381 0.019188574 0.0006172011 0.0178828 0.00060656585 0.024367763
-0.013950449 0.003799348 0.021091094 0.0018204002 0.004222439 -0.021728126 -0.00552716 -0.02239454
-0.020164803 -0.021444986 0.027572153 -0.0027032979 0.004620185 -0.013044149 0.0011197301 0.01600598
-0.021591533 -2.983088e-06 -0.0099153435 -0.007354462 0.0019683926 0.0060096057 0.038869888 0.0073173223
0.017607436 0.0030103049 0.028254094 0.025020516 0.01231 -0.01669192 0.034906056 0.011797229
0.014382803 0.015967464 0.004101328 0.03139418 -0.021438438 -0.0073980177 0.018943237 0.010125751
-0.019751953 0.007131778 -0.01312847 0.014723146 0.011286028 -0.011235102 0.012957562 -0.021107614
-0.0047616577 0.0048243375 -0.011917283 0.008990984 -0.008466329 -0.006102052 -0.023775619 -0.03172377
0.025872184 0.017824946 -0.026929842 -0.028949577 -0.031978756 0.0006874416 0.028246086 -0.004645831
-0.031313185 -0.017784117 -0.013344735 0.0075784135 -0.0064934464 -0.01707105 -0.032999996 -0.030145157
0.02163489 -0.023582047 0.010006225 -0.0019559744 -0.030236315 -0.010737678 0.0150153795 0.016512498
0.022183731 -0.006781669 0.012455507 -0.033733107 -0.03461647 -0.031009883 -0.020247927 -0.010757663
0.009079645 0.007290402 -0.006569569 0.004019488 0.022185003 -0.0020061126 -0.026486501 0.013637714
-0.005518936 0.007299276 -0.005510271 0.019931624 -0.01918454 0.002999284 -0.025053978 0.01843473
0.032030076 0.021052983 0.034454085 0.034400295 0.035344053 0.0031072851 0.027242398 0.0056095477
0.025929248 -0.021194419 0.017607233 -0.0154787 -0.009298403 0.0027342178 0.010861791 -0.006212088
-0.02348027 -0.0040664235 -0.00069201493 0.027306862 -0.011719097 -0.021191055 0.004485503 0.034803033
0.033214796 0.02665567 0.00972528 0.035531193 0.0047449986 0.016268475 -0.017846795 0.03889692
-0.017512029 0.03959099 -0.021956822 -0.0109590385 0.012985859 0.0103891585 0.017634468 0.015313643
0.032792855 0.040640067 -0.021728216 0.035043176 -0.008674534 0.007061313 -0.0059101097 0.0023479173
0.008587415 0.011807404 -0.0077880677 0.019883113 -0.005161093 0.025608972 0.02106426 0.022485401
-0.0017646243 -0.026330333 0.018433552 0.01095095 -0.019200709 0.0009684734 0.025055233 0.005122388
0.012479409 0.00038710158 0.026543073 0.023267781 -0.005240619 -0.020363094 0.0013718351 0.0139334
-0.024560405 0.03235572 0.012955859 -0.010938397 0.007126901 0.027609492 -0.018882615 0.023220968
0.021443013 0.014566808 0.011024453 -0.016772885 -0.017521452 0.023985881 0.020526204 -0.012473262
-0.010238862 0.017230583 -0.021291547 -0.024554817 0.01602005 0.015097295 -0.024889102 0.03150901
0.024445875 -0.014847044 -0.013279935 -0.023208385 -0.0058902404 0.019414859 -0.02594409 -0.034214877

conv4.0.bias f4 [40]
00000000: 7b79 a5bb a29b 003d 4685 a9bc 728b 99b9
00000010: 417d ef3c 05c5 b93b 9ae5 94bc 3f97 44bb
00000020: 8399 d13c cecc adbc ed66 ecba a726 d8bc
00000030: 3f51 7c3c 9a89 e5bc fa2d 52bc 2708 043c
00000040: d655 883c d959 e9bb 9f89 d43c fe5b 4b3b
00000050: 21a4 90bc 3031 3abc a2a4 c23c a54a abbc
00000060: 45f6 69bc 9064 38bb de7f 18bb 1550 15bd
00000070: 847a 84bc 0cad 343c 9e8a 093d 04a4 d1bc
00000080: f83c 14bd 8ccd 54bb c6c9 8fbc 902a 083d
00000090: 0128 d2bc ff7e 2e3a 227c 0fbd c13d a3bc
-0.005049882 0.031398423 -0.020693433 -0.0002928633 0.02923453 0.0056692385 -0.018175889 -0.0029997376
0.025585895 -0.021215823 -0.0018036045 -0.026385618 0.01540023 -0.028019715 -0.0128283445 0.008058584
0.016642492 -0.0071213064 0.02594453 0.0031030173 -0.017656388 -0.011364266 0.023760144 -0.020909617
-0.014279907 -0.0028136112 -0.0023269574 -0.036453325 -0.016171701 0.011027586 0.03357946 -0.025590904
-0.036190957 -0.0032471148 -0.017552268 0.033243716 -0.025653841 0.0006656497 -0.03503049 -0.019926907

conv5.0.weight f4 [80, 40, 5, 5]
00000000: 21d9 10bd dc84 aa3c acda 273b 0655 5aba
00000010: bd79 9d3a 74be 5ebc d235 bc3b 9a7a ce3b
00000020: 598a 89bb 2f1d c3bc 6640 0dbd 7527 09bc
00000030: 4e5f 36ba e1f2 2f3c cbfb ec3b b4d4 cd3c
00000040: 4a04 ffbc 34dc 783b 0e57 8bbc e1e6 ad3c
00000050: 6c7e 7d3c 5757 c33c 6fe9 46bc 498f 9bbc
00000060: 9098 80bc 804b 94bc 639b 16bb 22c7 c13c
00000070: 9faa 65bc 77ed 203c ecd8 dbbc cdf0 b7bc
00000080: dc9a cb3b d801 14bd aa49 643b 8608 fa3b
00000090: 4751 633c bcf0 333c 2dfc 1cbd efcc 703c
000000a0: 84f7 bc3c f911 2f3c dda4 08bb 886a d6bc
000000b0: 20be b3bb 70b2 0cbd 8a40 363c 72de a03c
000000c0: b0cb 21bd 5c9d fe3b 5b05 223c 112d 883c
000000d0: 83ae 9a3c edcb 73bc 50b6 893c bba2 0c3d
000000e0: e1e6 0dbc b96b 9ebc 082d 9dbc 844c 83bc
000000f0: bbf1 c6bc 415c 073d 5678 f0ba 0008 983c
00000100: a564 07bb 491d 1c3d b7db d33c fd8d 6d3c
00000110: bc7f 8e3c 231b 2abb 9776 da3c 0632 cf3c
00000120: 8a33 eabb b90a 113d e24f 733b 52a6 9ebc
00000130: 2c35 a63c 5a52 193d a323 45bb f28f 7dbc
00000140: d0e1 c1bc 859e 103d ff78 0c3d 6a84 b9bb
00000150: 9691 1d3d 4d50 013d d870 da3c 392e 9e3c
00000160: ccf6 583b 3986 233c ce9a 7cb9 62cd 953a
00000170: 5fc0 d83c 71e7 d23b 3b2e 063c fc29 30bc
00000180: 23ae a73c 96c2 0b3d a3c6 3b3c 6a62 07bc
00000190: 40dd 6c3c 9922 88bb 4893 1fbd fde3 92bc
000001a0: 206a 063a f3b0 323c 0aa2 0cbd 900d 8b3a
000001b0: bf1c 9e3b 8dad ab3c 0e03 35bc 32c2 bf3a
000001c0: de14 793a 74ba 12bd 908a 55bb f520 ae3c
000001d0: 9306 773b f5af 9f3c 1f9e 753b 462e 743c
000001e0: 4b7e e7bc 4872 393b 10f9 a13c 2145 adbb
000001f0: d0d4 7b3c 7881 87bc 9418 353c eb35 abbc
00000200: cddb aabc c46e 79bc 871f 953b d8f2 5a3c
00000210: d086 08bd 8f4c 9abc 8371 b83c 6355 843c
00000220: 5cf8 ca3c 3b24 44bc 249f e1bb 9ee7 663c
00000230: 3e91 d8bc 4f63 9838 3cfd 543c 483c be3c
00000240: 020a 42bb 27dc 9bbc 66ce b23c a98d bbbc
00000250: 1f99 433c f9d4 05bd 5c53 55bb 3a72 fcbc
00000260: 6ed7 ca3b 7d6f de3c a3bd a93c f6ec 933b
00000270: bcfa 043c edf7 edbc 804a e2bc 3a2b 6e3c
00000280: 8b3a 843c 4432 2fbb cac3 b8bc d0e6 00bd
00000290: c838 aabc 0f35 77bc f77e c13b 2cd7 a4bc
000002a0: f1ae e4bc 4a6d d33c d75b a4bb 5702 d73b
000002b0: c510 5f3c a462 a83c 5f7c a1bc 0bb3 2b3c
000002c0: d12b 26ba 6ad0 b63c 0984 793b b73b 00b7
000002d0: d68b 84bc bec7 063d e4e2 0b3d fc2f c1bc
000002e0: ff8c 833c f1d6 84ba d569 e53c 91d0 bb3c
000002f0: 187e a2ba 1863 c03b 2389 ca3c 3f8d 9b3c
00000300: 28eb ceba 5a73 ca3c 0d84 163d 7a5b 1dbb
00000310: 3735 873b 2d72 c6bb 03d5 51bc 1198 79bc
00000320: f0ff 65bc 8b3f 6d3c 78ec 04bc 6c19 113b
00000330: 5d9f 24bc b370 d03c 8ca9 303c e9de d1bb
00000340: b1ab f53c c1c6 2a3b 862e cc3c 7faf b3bc
00000350: 6207 df3c be1b 48bb 7313 803c 37c2 c2bc
00000360: befa ed3c f089 043d 504b de3c 3b0b e3bb
00000370: e59a 8c3b 6fe6 86bc 800b 50bc 8d5f 0f3d
00000380: 095f b03a 5ffc 193d b97b 81bc 490a c1ba
00000390: 8ffb 61bc 4dfb 26bc 94a1 6b3c b034 f53c
000003a0: c26d 8b3c de45 173c 49e7 54bb 9070 063d
000003b0: c2a2 86ba 5dbe 863b f4f1 8ebc 66df a73c
000003c0: e20f 97bc 1418 ce3c cb60 4cbc a0d9 72bc
000003d0: 5375 173b 580e 3dbc 3231 8abc d1dd 683c
000003e0: f58b 3a3c 1075 92bc 6935 2abc 1bf6 253c
000003f0: 7101 b13c c063 193c 6fc9 8fbc 5a25 4b3c
-0.03536332 0.020815305 0.0025612516 -0.00083287095 0.001201443 -0.013595212 0.0057437206 0.0063012363
-0.0041974005 -0.023817627 -0.034485243 -0.008371224 -0.00069569505 0.010739059 0.0072321645 0.025125839
-0.031129975 0.0037973048 -0.017009284 0.021228256 0.015472036 0.023845358 -0.012140616 -0.018989222
-0.015697747 -0.018102407 -0.0022980801 0.023654524 -0.01401773 0.009822241 -0.026836835 -0.02245369
0.006213529 -0.03613457 0.0034833946 0.0076304106 0.0138743585 0.0109826885 -0.03832643 0.0146972975
0.023067243 0.010685437 -0.002085022 -0.026173845 -0.005485311 -0.03434986 0.011123786 0.01963732
-0.039500892 0.0077702235 0.009888972 0.016623052 0.018882042 -0.014880163 0.016810566 0.03433488
-0.008661003 -0.019338476 -0.019186512 -0.016027696 -0.024285188 0.033046965 -0.001834641 0.018558502
-0.0020659354 0.038113866 0.025861604 0.014499185 0.017394893 -0.0025956116 0.026667876 0.025292408
-0.007147257 0.035410617 0.0037126471 -0.019366417 0.020289026 0.037432052 -0.0030081056 -0.015476214
-0.023667246 0.035307426 0.03429508 -0.005661537 0.03846892 0.03157072 0.026665136 0.01930915
0.0033106087 0.009980732 -0.00024090262 0.0011429007 0.026458917 0.0064362814 0.008189733 -0.010752197
0.020468777 0.03412112 0.011460933 -0.00826321 0.014457047 -0.004154515 -0.038958818 -0.017930979
0.0005127508 0.010906446 -0.03433422 0.00106089 0.004825204 0.020956779 -0.011048092 0.0014630018
0.00095017056 -0.035822347 -0.003258381 0.02125595 0.0037693128 0.019493083 0.003747828 0.014903611
-0.028258463 0.0028296877 0.019772083 -0.005287782 0.015370563 -0.016541228 0.011053223 -0.020899734
-0.020856762 -0.0152241625 0.0045508775 0.0133635625 -0.033331692 -0.018835334 0.022515064 0.016153997
0.02477663 -0.011971529 -0.006885426 0.014093308 -0.026436444 7.2664225e-05 0.012999829 0.023222104
-0.0029608016 -0.019025875 0.021826934 -0.022894697 0.011938362 -0.03267381 -0.0032550907 -0.030816186
0.006190232 0.027152771 0.020720309 0.004514332 0.00811642 -0.029048884 -0.027623415 0.014536673
0.016141197 -0.0026732842 -0.022554297 -0.03147012 -0.020779029 -0.015088334 0.005905028 -0.020122133
-0.02791545 0.025808949 -0.005015831 0.006561558 0.013614838 0.020554848 -0.019712625 0.010479699
-0.00063389266 0.022316176 0.0038073084 -7.643298e-06 -0.01617996 0.032905333 0.034151927 -0.023582451
0.016058443 -0.0010134858 0.028004566 0.0229266 -0.0012397198 0.005871188 0.024723595 0.01898825
-0.0015786635 0.024713207 0.036747027 -0.0024010823 0.0041262168 -0.0060560913 -0.012807134 -0.015234009
-0.014038071 0.014480482 -0.008113019 0.0022140397 -0.010047761 0.025444364 0.010782611 -0.006404747
0.029989095 0.0026058408 0.024924528 -0.021934269 0.0272252 -0.0030534114 0.015634274 -0.02377425
0.029050227 0.03235811 0.027135521 -0.006928829 0.004290926 -0.016467301 -0.012698054 0.035003234
0.0013456057 0.037594195 -0.015806066 -0.0014727797 -0.013792886 -0.010191751 0.014381785 0.02993235
0.01702011 0.009232966 -0.003248649 0.03282219 -0.0010271894 0.0041120485 -0.017449357 0.020492267
-0.01844019 0.025157966 -0.012474249 -0.014822394 0.0023110702 -0.011539064 -0.016869161 0.014213041
0.011385907 -0.017878085 -0.010388711 0.010129477 0.021607133 0.009362161 -0.017552106 0.012399042

conv5.0.bias f4 [80]
00000000: b2dd 3b3b 8559 8fbc 37ac e8bc 0cea 3dbb
00000010: f7a7 32bc d8fd 1cbc 9ca8 22bc 9fdc 153d
00000020: 5513 e43c 3f60 693c c1f6 aa3c 8474 0e3d
00000030: 372c eb3c 864c 8dbb 2694 1a3c ef05 c7bc
00000040: f9b0 16bd 4aec ba3c f683 82bc 1450 f7bc
00000050: cf79 1c3d b77c ba3c 492e 7b3c b258 0e3d
00000060: a446 c9ba bdc5 a83c 3f37 2e3c fb0d c7bc
00000070: 7e57 05bd f7cb c73b e2ba 08bd 22a7 0ebd
00000080: bb8d 723b d34b 02bd b6d3 fd3c b9ec ac3b
00000090: f8ee ceb9 08ee 91bc 4d7d 033d 2fc2 4d3c
000000a0: 3149 e03b 9af0 bd3c 8f17 0dbd 0855 043d
000000b0: 8c5c 383b 6853 bdbc d85b 0d3c b096 cfbc
000000c0: 080c 11bc efe4 633c 8210 1dbd cb75 e83c
000000d0: 731f 373c 47dd 68bc 69c1 753c 7644 883c
000000e0: 2b10 0fbd ff04 0cbd 771d 0bbd f827 053d
000000f0: fb96 8bbc 7738 acbc 6c37 053c 8d1f febc
00000100: 2dd8 b4ba 9a60 133d 5bab c1bc 63d9 3bbc
00000110: a386 6cbb 649a 8c3c 5a75 5fbc 0e3c 673c
00000120: c55c 02bc cac6 96bc 3365 0bbd f022 0fbd
00000130: faa6 873c 3e07 1dbd 0015 04bd 1c46 38bc
0.0028666076 -0.01749874 -0.028402431 -0.0028978614 -0.010904304 -0.009582005 -0.009927895 0.036587354
0.02784125 0.014244138 0.020869615 0.034779087 0.028707607 -0.004312101 0.009434735 -0.024294822
-0.036789868 0.02281775 -0.015932065 -0.030189551 0.038202103 0.022764547 0.015330859 0.034752555
-0.0015356136 0.020602101 0.010633289 -0.024298659 -0.032554142 0.0060973126 -0.03338135 -0.03482736
0.0037010747 -0.031810593 0.03098474 0.005277243 -0.00039469427 -0.017813697 0.032101918 0.012558504
0.0068446626 0.023186017 -0.034446295 0.032307655 0.0028131334 -0.02311106 0.008627854 -0.025340408
-0.008852966 0.0139095625 -0.03834582 0.02837648 0.011176932 -0.014212913 0.014999726 0.016634207
-0.03492753 -0.034184452 -0.033963647 0.03250882 -0.017039767 -0.021023018 0.008130889 -0.031020904
-0.0013797336 0.0359808 -0.023641279 -0.011465403 -0.0036090992 0.017163463 -0.013638819 0.014113439
-0.007956688 -0.018405337 -0.034032058 -0.03494543 0.016559113 -0.038336985 -0.03224659 -0.011247184
