bestPTH/UberFit.pth (torch, 635207 bytes, 10 tensors)

conv1.0.weight f4 [20, 3, 7, 7]
0	0x3d3eeead	0.046614338
1	0x3ca8e954	0.020619072
2	0x3d70ee5c	0.058821067
3	0xbd4bfaa2	-0.04979957
4	0xbcb15407	-0.021646513
5	0xbd6b0df7	-0.057386365
6	0x3d122a3a	0.0356848
7	0xbda3beec	-0.079954
8	0x3d62a822	0.055336125
9	0xbd30590a	-0.043053664
10	0x3d3f3160	0.046677947
11	0x3b5d7f39	0.0033797754
12	0xbd41056e	-0.04712432
13	0x3d4b5c4a	0.04964856
14	0xbd281ebe	-0.041044943
15	0x388d39ae	6.7341476e-05
16	0x3d55a837	0.052162375
17	0x3d97ed8e	0.07418357
18	0xbdb9208d	-0.09039412
19	0xbd0dfbb2	-0.034663863
20	0xbdb955d8	-0.090495765
21	0xbdc2b4a3	-0.0950711
22	0xbda9d6aa	-0.08292897
23	0xbd8a1f24	-0.06744221
24	0x3d02853a	0.031865336
25	0xbd792525	-0.06082644
26	0xbd9f464b	-0.07777079
27	0xbd7b6884	-0.06137897
28	0x3d23b164	0.039964095
29	0xbc895710	-0.016765147
30	0xba0791c6	-0.0005171563
31	0xbdaecbf5	-0.085349955
32	0xbd441f18	-0.047881216
33	0xbd9a1fcb	-0.07525595
34	0x3b8edb00	0.004359603
35	0xbdc1d82b	-0.09465059
36	0x3d38ab11	0.045085017
37	0xbdbc7d17	-0.092035465
38	0xbc98072d	-0.01855811
39	0xbd09acdf	-0.03361213
40	0xbc240f10	-0.010013357
41	0xbd0b8136	-0.034058772
42	0xbd2076ee	-0.03917592
43	0xbda50c60	-0.08059001
44	0x3d2360ce	0.039887242
45	0xbd0e90ee	-0.034806184
46	0xbdd93ba9	-0.106070824
47	0x3c09f3bd	0.008419928
48	0x3d681ac7	0.056666162
49	0x3d75df8e	0.06002765
50	0x3d87d0a7	0.06631594
51	0xbd0b8592	-0.03406293
52	0xbce62d6e	-0.028097834
53	0x3cb78481	0.02240205
54	0xbd5904ba	-0.052983023
55	0x3bcc1eb8	0.006229248
56	0x3dacee17	0.084438495
57	0x3d257369	0.040393267
58	0x3d3b79d5	0.045770485
59	0xbd0d8d1a	-0.034558393
60	0x3dbd0a15	0.092304386
61	0xbcfbf4c3	-0.03075636
62	0xbd44e07e	-0.048065655
63	0xbc2eaccc	-0.010661315
64	0x3cd17783	0.025569683
65	0x3d4109c3	0.04712845
66	0x3d2b7617	0.041860666
67	0x3e0dbdc9	0.13841929
68	0x3ddad1e3	0.10684564
69	0xbc8cc3e9	-0.017183261
70	0x3de3ccf0	0.11123073
71	0x3debb0ad	0.115083076
72	0x3e18af57	0.14910637
73	0x3e190153	0.14941911
74	0x3b4f1139	0.003159596
75	0x3d82d66a	0.063885525
76	0xbc142a7d	-0.009043333
77	0x3dcb2843	0.09919789
78	0xbc4f486d	-0.012651545
79	0x3e03f0b3	0.12884788
80	0x3db76abb	0.08955904
81	0x3d67c8e0	0.056588054
82	0xbcbe77f3	-0.023250556
83	0x3e060ec4	0.1309157
84	0x3bd3119c	0.006441308
85	0x3d0568d2	0.032570668
86	0x3dcb5d2c	0.099298805
87	0x3df64e29	0.120266266
88	0x3e0256d7	0.1272844
89	0x3d54bb9f	0.051936742
90	0x3dab4e1f	0.0836451
91	0x3d58b667	0.052908327
92	0x3d82ec4e	0.06392728
93	0x3d8963c2	0.067084804
94	0x3d87a7a2	0.0662377
95	0x3de15898	0.11003226
96	0x3d4f4816	0.050605856
97	0x3cb82477	0.022478325
98	0xbd98dc92	-0.074639454
99	0xbdaa190a	-0.08305557
100	0xbd310ba3	-0.04322399
101	0xbd3a41c6	-0.045472883
102	0x3b353331	0.002764892
103	0xbc4fe572	-0.012688981
104	0xbc8eea26	-0.017445635
105	0xbe06fcf6	-0.13182434
106	0xbc0a650f	-0.008446946
107	0xbd518982	-0.05115653
108	0x3d42e8d0	0.04758531
109	0x3c306795	0.010766883
110	0xbd8e10c3	-0.06936791
111	0xbdf2fa5a	-0.11864157
112	0x3d26d84f	0.04073363
113	0xbb5f6506	-0.0034087314
114	0xbd624861	-0.055244807
115	0x3cec6118	0.028854892
116	0xbc324c1e	-0.010882406
117	0xbd4654cb	-0.04842071
118	0xbd835270	-0.06412208
119	0xbdd9b80b	-0.106308065
120	0xbc4c189a	-0.012457037
121	0xbd2a074a	-0.041510858
122	0x3d7c00b8	0.061524123
123	0x3cbe9735	0.02326546
124	0xbd7d0b7d	-0.061778534
125	0xbd74fa80	-0.059809208
126	0xbd3ed4f2	-0.0465898
127	0xbd810188	-0.0629912
128	0x3d65b8b0	0.056084335
129	0xbd2630dc	-0.04057394
130	0x3af5957a	0.0018736564
131	0x3cdb73c2	0.026788596
132	0xbda40a6a	-0.08009799
133	0xbd25c478	-0.04047057
134	0x3c894075	0.016754368
135	0x3ba58eac	0.005052408
136	0x3d8039fb	0.06261059
137	0xbd532654	-0.051550224
138	0xbd1a8e35	-0.037733275
139	0x3d309723	0.043112885
140	0xbdfed1b7	-0.12442344
141	0xbc76ce75	-0.015063872
142	0xbd03f4fd	-0.03221606
143	0xbde0c158	-0.109743774
144	0xbd25d9fd	-0.040491093
145	0xbdb3dbed	-0.08782182
146	0x3d078d7c	0.033093914
147	0xbd264260	-0.040590644
148	0xbbcaf7b0	-0.0061940774
149	0xbd912d4b	-0.07088717
150	0x3d69be11	0.057066027
151	0xbd706dd6	-0.058698498
152	0xbdbd35b8	-0.09238762
153	0xbd98d779	-0.07462973
154	0x3d11ab11	0.035563532
155	0x3c4dda78	0.012564294
156	0xb911a2a1	-0.00013888862
157	0x3d4f2abf	0.050577875
158	0xbb1053eb	-0.0022022675
159	0x3d534c86	0.05158665
160	0xbdcd72d7	-0.100316696
161	0xbdb03965	-0.08604697
162	0xbb28df00	-0.0025767684
163	0xbdd2e743	-0.10298016
164	0xbd941b80	-0.07231808
165	0xbc93f627	-0.01806171
166	0x3cae9dac	0.021315418
167	0xbdc17b3f	-0.094473355
168	0xbca5d009	-0.0202408
169	0xbc1e9c04	-0.009680752
170	0xbdd871ff	-0.10568618
171	0x3c9fd54b	0.019510886
172	0xbdafb78f	-0.08579933
173	0xbdb3e9f9	-0.08784861
174	0xbc9ffc0c	-0.019529365
175	0x3cd2ca09	0.025731103
176	0xbd4ec993	-0.050485205
177	0x3c757bec	0.014983159
178	0x3d4ef790	0.050529063
179	0xbc5bee23	-0.013423475
180	0xbd5af82e	-0.05345934
181	0xbd9824e8	-0.07428914
182	0x3cf55c24	0.029951163
183	0xbd99ba92	-0.075062886
184	0xbd253385	-0.040332336
185	0x3c9d7382	0.019220117
186	0x3b8f8454	0.0043797884
187	0xbd30e9de	-0.043191783
188	0x3bfeed2b	0.0077797375
189	0xbdeaab3f	-0.11458444
190	0xbd3f3e91	-0.046690527
191	0xbe00829f	-0.12549828
192	0xbdb73c3c	-0.08947036
193	0xbd623ed4	-0.0552357
194	0x3d3def32	0.046370693
195	0xbdf34e4d	-0.11880169
196	0x3cf8702c	0.030326925
197	0x3de91988	0.11381823
198	0x3dc7d79f	0.09757923
199	0x3d964a98	0.073384464
200	0x3d27d641	0.040975813
201	0x3d85a311	0.06525243
202	0x3d6eed33	0.05833168
203	0x3de8137f	0.113318436
204	0x3d53fc24	0.051754132
205	0x3c8e9406	0.017404567
206	0x3dc8258c	0.097727865
207	0x3dde391e	0.10850738
208	0x3e0d6ef5	0.13811858
209	0x3cde5702	0.027141098
210	0x39c05f0e	0.00036691915
211	0xbca9f890	-0.020748407
212	0x3e12bdc6	0.14330205
213	0x3d985419	0.07437915
214	0x3e0ead1d	0.13933225
215	0x3c5f1f9f	0.013618379
216	0xbcfab78b	-0.030605098
217	0xbc90e6b0	-0.017688125
218	0x3dc1a450	0.09455168
219	0x3d43a071	0.04776043
220	0x3df555ac	0.11979231
221	0x3d224fdd	0.039626945
222	0x3deff294	0.1171619
223	0x3ce8bc22	0.028410021
224	0x3da85b65	0.08220557
225	0x3dd671d2	0.10470928
226	0x3dab4e69	0.08364565
227	0x3da2ce0f	0.07949459
228	0x3db13d2d	0.086542465
229	0x3dca474b	0.09876879
230	0xbca5016a	-0.020142276
231	0x3c610a65	0.013735388
232	0x3d8d4241	0.068974026
233	0x3d166296	0.036715113
234	0x3ce86a92	0.02837113
235	0xbce3ac63	-0.027792161
236	0xbcfa1e2b	-0.030531963
237	0x3c494356	0.012284121
238	0x3d441f7d	0.047881592
239	0x3d98015a	0.07422133
240	0x3c5ea5db	0.013589348
241	0x3dc6570c	0.096845716
242	0xbc84af65	-0.016196916
243	0x3d064a3e	0.032785647
244	0x3c0b06ed	0.008485538
245	0xbd6f041e	-0.058353536
246	0x3cb907fa	0.022586811
247	0x3cdd22b9	0.026994096
248	0xbda71829	-0.08158905
249	0xbd81d445	-0.06339315
250	0xbdbe1847	-0.09281974
251	0xbd7bc191	-0.061463896
252	0xbdb3b35b	-0.08774444
253	0xbd9f3e47	-0.0777555
254	0x3afc5fae	0.0019254589
255	0xbcb7ebd4	-0.022451319

conv1.0.bias f4 [20]
0	0xbc52f442	-0.012875618
1	0xbb64275d	-0.0034813501
2	0x3d5ac07f	0.053406235
3	0x3d20b935	0.039239127
4	0x3c83d759	0.016093897
5	0xbcc828f6	-0.024433594
6	0xbcb2877a	-0.021793116
7	0x3d185acf	0.037195977
8	0x3c7e79db	0.015531982
9	0x3c33ad7a	0.010966653
10	0x3cb0e609	0.021594064
11	0x3c860b9f	0.016362963
12	0xbd1294c6	-0.035786413
13	0x3c991076	0.018684607
14	0x3d1791dc	0.037004337
15	0x3c857a19	0.016293572
16	0x3cd022ae	0.025407162
17	0xbd19c49a	-0.03754101
18	0xbd45ab03	-0.048258793
19	0xbc12f2b3	-0.008968997

conv2.0.weight f4 [40, 20, 7, 7]
0	0xbd16a57c	-0.036778912
1	0xbd1a7776	-0.037711583
2	0x39f2cd1e	0.0004631066
3	0xbbd50f2b	-0.0065020523
4	0xbd8d95c9	-0.06913335
5	0xbdc2f09a	-0.09518547
6	0xbc32ff3e	-0.010925112
7	0xbd6464ba	-0.055760123
8	0x3ce46096	0.027878087
9	0x3da81472	0.08207025
10	0x3c300989	0.010744461
11	0xbc58d52f	-0.013234421
12	0xbe01c97a	-0.12674513
13	0xbbec90a6	-0.007219392
14	0x3c512fcc	0.012767743
15	0x3d266eba	0.04063294
16	0x3d884804	0.06654361
17	0x3db096b5	0.08622495
18	0xbd8b6f0c	-0.0680829
19	0xbdb9eefd	-0.090787865
20	0x3bd926bb	0.0066269315
21	0xbb057249	-0.0020362309
22	0x3e0268eb	0.12735336
23	0x3e0818da	0.1329073
24	0x3df5fb24	0.12010792
25	0x3c02d628	0.007985629
26	0xbdc915fc	-0.09818646
27	0xbd912b1c	-0.070883006
28	0x3d1132e9	0.035448942
29	0x3dbd3275	0.092381395
30	0x3dc03d2f	0.0938667
31	0x3d95ee13	0.073208
32	0xbd528f69	-0.051406298
33	0xbd8b2fd0	-0.06796229
34	0xbdc1d14e	-0.0946375
35	0xbd959636	-0.07304041
36	0x3da81d09	0.08208663
37	0x3e053e68	0.13012087
38	0x3dad907b	0.08474823
39	0xbd8b49be	-0.068011746
40	0xbd938506	-0.072031066
41	0xbd50e099	-0.050995443
42	0xbba98da3	-0.005174355
43	0x39e4d4b0	0.00043646013
44	0x3d72b367	0.059253123
45	0x3ca2ebda	0.019887853
46	0xbd1f0037	-0.038818564
47	0xbd61997a	-0.055078007
48	0xbd0ef43e	-0.034900896
49	0xbd1bc706	-0.0380316
50	0xbd85ec26	-0.06539182
51	0xbbeab5e1	-0.007162795
52	0xbd27ac91	-0.040936057
53	0xbd604893	-0.054756712
54	0xbd7f825a	-0.062380172
55	0xbd56ed2b	-0.052472275
56	0xbda35e7f	-0.07977008
57	0x3a89cf52	0.0010514057
58	0x3c70fbec	0.0147085
59	0x3ca896b7	0.020579679
60	0xbda76238	-0.081730306
61	0xbe00ea21	-0.12589313
62	0xbd29dc81	-0.041470055
63	0xbd5c2915	-0.053750116
64	0xbc118d07	-0.008883721
65	0x3de418c1	0.11137534
66	0x3dcda8b4	0.10041943
67	0xbd0ff2d4	-0.03514369
68	0xbd1d3f2b	-0.03839032
69	0x3cba72c2	0.022759799
70	0x3c1274d1	0.008938984
71	0x3db16249	0.086613245
72	0x3e03f393	0.12885885
73	0x3db96823	0.09053066
74	0xbd48531d	-0.048907388
75	0xbd9bc27a	-0.07605453
76	0xbd577a99	-0.052607153
77	0xbca0850b	-0.01959469
78	0x3dbd63c8	0.092475474
79	0x3e0c50d3	0.13702707
80	0x3db7c222	0.08972575
81	0x3d0b76d4	0.03404887
82	0xbd89ba69	-0.06725008
83	0xbce380b6	-0.027771335
84	0x3b9ed77e	0.004847466
85	0x3dd5332f	0.10410153
86	0x3db4e3a7	0.08832484
87	0x3d20d4df	0.03926551
88	0xbd6f9769	-0.058494005
89	0xbd85c991	-0.06532586
90	0xbd89e2c8	-0.06732708
91	0xbd94fdf3	-0.072749995
92	0x3ce891dd	0.028389866
93	0x3d465a72	0.0484261
94	0x3d64acf6	0.05582901
95	0xbd125673	-0.035726976
96	0xbd777b2c	-0.0604202
97	0xbd39cd40	-0.045361757
98	0x3cf44ac6	0.029820811
99	0x3d9d64ac	0.07685217
100	0x3db221d4	0.086978585
101	0xbab19206	-0.0013547547
102	0xbd5393ed	-0.051654745
103	0xbdbf68ce	-0.09346162
104	0x3be606a2	0.0070198337
105	0x3c9be5ba	0.01903044
106	0x3b9248cb	0.004464244
107	0x3d081928	0.033227116
108	0x3cce3876	0.025173407
109	0x3d5f735b	0.05455337
110	0xbd379a9e	-0.04482519
111	0xbc0fd905	-0.008779769
112	0xbbef03ca	-0.007294153
113	0x3db25672	0.087078944
114	0x3d861457	0.06546848
115	0x3d2925bb	0.04129575
116	0x3cc35853	0.023845827
117	0xbc1934d7	-0.009350977
118	0x3cf0f25f	0.029412447
119	0xbd3eb3f8	-0.04655835
120	0xbd7865ce	-0.060643964
121	0x3cbe3f53	0.023223555
122	0xbc82d8d5	-0.015972534
123	0x3c98dce9	0.018660026
124	0xbd2c78b4	-0.0421073
125	0x3d71c50a	0.0590258
126	0xbd9c517d	-0.0763273
127	0x3ceb1f1c	0.028701358
128	0x3d794a3b	0.060861807
129	0x3d812e4d	0.06307659
130	0x3d39dc9c	0.045376405
131	0xbcb2fe2c	-0.021849714
132	0x3917137a	0.00014407738
133	0xbd1e7427	-0.03868499
134	0x3b1d4608	0.002399804
135	0x3d205ccc	0.039150998
136	0x3bb21afc	0.0054353457
137	0xbd380902	-0.044930466
138	0xbd28d241	-0.04121614
139	0xbc37e2f9	-0.011223548
140	0xbda59627	-0.0808528
141	0xbd4c9a32	-0.04995174
142	0x3b924966	0.004464316
143	0x3cd3aff3	0.025840735
144	0xbd06631d	-0.032809366
145	0xbc5b31ea	-0.0133786
146	0x3c0f75a8	0.008756079
147	0x3dcc5719	0.0997755
148	0x3db0abfd	0.08626554
149	0x3d250925	0.040291924
150	0x3c5cd0fc	0.01347756
151	0x3af2d046	0.0018525205
152	0x3bebc926	0.0071956096
153	0xbbb2cd70	-0.005456619
154	0x3df531ed	0.11972413
155	0xbc7a12ec	-0.0152633
156	0xbd6ead8e	-0.058270983
157	0xbd2b64bb	-0.04184411
158	0xbd4d7db6	-0.050168715
159	0x3cb1d762	0.021709148
160	0x3d6b1410	0.05739218
161	0x3d93a12e	0.07208477
162	0x3ca736c3	0.020411855
163	0x3c6be7bb	0.014398511
164	0xbd1f882b	-0.03894822
165	0xbc999012	-0.018745456
166	0xbccf9c9e	-0.025343236
167	0x3ce76efe	0.028251167
168	0xbb8edb9d	-0.004359676
169	0xbdcb67f3	-0.09931936
170	0xbddc7ce4	-0.107660085
171	0xbd32eb89	-0.043681655
172	0xbd7bbe4d	-0.06146078
173	0x3c91b80f	0.017787961
174	0xbb858608	-0.0040748157
175	0xbd6f5e5b	-0.058439594
176	0xbd0747f4	-0.033027604
177	0xbddd82b1	-0.10815943
178	0xb9607f9a	-0.0002140984
179	0xbcc443d6	-0.023958128
180	0xbdf45793	-0.11930766
181	0xbca2936a	-0.019845683
182	0xbd8306fd	-0.06397817
183	0xbde90738	-0.1137833
184	0xbe083b7c	-0.13303941
185	0xbd19fac7	-0.037592676
186	0xbdf5fdf5	-0.12011329
187	0xbdcb6d19	-0.09932918
188	0xbdb0641d	-0.08612845
189	0xbe15837c	-0.14600939
190	0xbd759d8b	-0.059964698
191	0xbdb2e56e	-0.087351665
192	0xbdc5b52a	-0.09653695
193	0xbe22ba74	-0.15891439
194	0xbe63495c	-0.22195953
195	0xbe261eb8	-0.16222656
196	0x3d8584d2	0.06519474
197	0x3d5a821b	0.053346734
198	0x3dbcdff0	0.092224
199	0x3be8a07d	0.00709921
200	0x3cab00b1	0.020874353
201	0xbb2abdf7	-0.002605317
202	0xbdcc5e8c	-0.09978971
203	0x3d2a37a2	0.04155696
204	0x3d572dd1	0.05253393
205	0x3e0073fa	0.12544242
206	0x3da4d177	0.08047765
207	0x3dcef703	0.101057075
208	0x3d5bd19e	0.053666703
209	0xbd33d4db	-0.043904167
210	0x3d08cb84	0.033397213
211	0x3aa59204	0.0012632017
212	0x3d8698b5	0.06572095
213	0x3d0dc023	0.034607064
214	0xbc067240	-0.00820595
215	0x3d37c02d	0.044861007
216	0xbd7bd8bb	-0.061485987
217	0xbcaa4b9e	-0.02078801
218	0xbc91090d	-0.017704511
219	0x3c2587b2	0.010103153
220	0xbb2cef6f	-0.002638783
221	0x3cadade8	0.021201089
222	0x3cb819bd	0.02247321
223	0xbd0792b2	-0.033098884
224	0x3a89ef45	0.0010523578
225	0x3cd4ae83	0.02596212
226	0xbc78989c	-0.015173104
227	0xbcc5e433	-0.024156665
228	0x3da75c5d	0.08171914
229	0xbd115b71	-0.035487596
230	0xbd3cd13d	-0.046097983
231	0xbd8977a3	-0.06712272
232	0xbd8b9c4a	-0.06816919
233	0xbc9714ac	-0.018442474
234	0x3bf40405	0.007446768
235	0x3d30c52f	0.0431568
236	0x3bc4f34c	0.0060104486
237	0xbd43d489	-0.04781011
238	0xbc810fe2	-0.015754644
239	0xbd47a891	-0.04874474
240	0x3c9f54eb	0.019449672
241	0x3d644a06	0.055734657
242	0x3d6ff4de	0.058583133
243	0xbd150b29	-0.036387596
244	0xbdad1138	-0.0845055
245	0xbdb3b2e9	-0.08774359
246	0x3c0c1ad4	0.008551318
247	0xbd722e73	-0.05912633
248	0x3b895f98	0.004192304
249	0xbda1b831	-0.0789646
250	0xbd528c48	-0.051403314
251	0x3d353e2d	0.04424875
252	0xbd84bfb2	-0.064818755
253	0x3b5877c3	0.0033030368
254	0x3cc02886	0.023456823
255	0x3c5a3a7e	0.01331961

conv2.0.bias f4 [40]
0	0xbcfb84a6	-0.0307029
1	0xbcb5025d	-0.022095853
2	0x3d7eb55f	0.062184688
3	0xbdc65539	-0.09684224
4	0x3d4a000f	0.049316462
5	0x3dab2497	0.08356588
6	0xba2d1973	-0.00066032185
7	0x3ca13303	0.019677645
8	0x3d9d4f72	0.076811686
9	0xbd48cd67	-0.049024012
10	0xbd9edfe2	-0.07757546
11	0xbc8fbef7	-0.017547114
12	0x3dcc5bc0	0.099784374
13	0xbdd59af1	-0.10429943
14	0xbce24623	-0.027621334
15	0xbcc5147e	-0.024057623
16	0x3d86220d	0.065494634
17	0xbd06e10e	-0.032929473
18	0xbcf5474e	-0.029941227
19	0xbdc576e5	-0.09641818
20	0xbd80f1fc	-0.06296155
21	0xbd9ae456	-0.07563083
22	0x3bb7b709	0.0056065363
23	0xbdefb065	-0.117035665
24	0x3d277dcd	0.040891457
25	0xbd0099a5	-0.031396527
26	0x3da11341	0.078650005
27	0x3d8e792e	0.06956707
28	0x3d118dc8	0.035535604
29	0xbd69dcc6	-0.05709531
30	0xbda891ba	-0.0823092
31	0xbda37503	-0.079813026
32	0xbd663949	-0.056206975
33	0xbdcca017	-0.09991472
34	0xbd7fac80	-0.06242037
35	0xbcc05c2d	-0.023481453
36	0x3ba818a5	0.005129891
37	0x3d904e9e	0.07046245
38	0xbd8c12ba	-0.06839509
39	0x3d41a544	0.04727675

conv3.0.weight f4 [80, 40, 3, 3]
0	0x3e1a9b3d	0.15098281
1	0x3d7008a0	0.058601975
2	0x3d52bda8	0.0514504
3	0x3d79a85e	0.060951583
4	0xbd1df419	-0.038562868
5	0xbd654aa0	-0.05597937
6	0xbc8a877d	-0.016910309
7	0x3d04fad5	0.032465775
8	0xbd905770	-0.070479274
9	0x3d405da7	0.046964314
10	0xbd149df1	-0.036283437
11	0xbaa779c5	-0.0012777379
12	0x3c11e270	0.008904085
13	0xbd2f0c05	-0.042736072
14	0xbd13ea51	-0.036112133
15	0x3d607357	0.054797497
16	0x3d00d046	0.031448625
17	0xbd392323	-0.045199525
18	0xbe174d62	-0.14775613
19	0xbd8c584d	-0.068527795
20	0x3ce9a7a6	0.028522324
21	0xbd85e234	-0.065372854
22	0xbc8777e2	-0.016536657
23	0x3de2a8f2	0.1106738
24	0xbd980c00	-0.07424164
25	0x3b3b131f	0.0028545333
26	0x3d8dd776	0.069258615
27	0xbb254f28	-0.0025224183
28	0xbd1e795d	-0.03868996
29	0xbd920f9e	-0.07131885
30	0xbd178838	-0.036995143
31	0xbd9a9aa1	-0.075490244
32	0xbc5a503f	-0.013324796
33	0xbe103beb	-0.14085357
34	0xbd71e873	-0.05905957
35	0xbd33ce01	-0.043897633
36	0x3d160335	0.036624152
37	0x3c39d992	0.011343377
38	0x3d2e8514	0.042607382
39	0x3e2d124a	0.16901508
40	0x3d724bd4	0.059154347
41	0x3c95ea25	0.018300125
42	0x3e527300	0.20551682
43	0x3db4f213	0.088352345
44	0xbc6b506d	-0.014362437
45	0xbe1d78e0	-0.15378141
46	0xbe0155fe	-0.1263046
47	0xbd2fc526	-0.042912625
48	0xbd4a2eec	-0.049361154
49	0xbc760772	-0.015016424
50	0xbd74656d	-0.05966704
51	0x3d2986d2	0.04138834
52	0x3d17ba4f	0.037042912
53	0x3dc0e387	0.094183974
54	0x3d8e4d8b	0.06948384
55	0x3d5bd8ff	0.05367374
56	0xbd110a11	-0.03540999
57	0xbc8a0ad8	-0.016850874
58	0x3b1ddd20	0.00240881
59	0xbc28560e	-0.010274423
60	0x3cd69c2d	0.026197517
61	0xbd3363de	-0.043796413
62	0xbcdb23a8	-0.0267504
63	0xbcc4cddc	-0.024023943
64	0x3c1d4a86	0.009600287
65	0xbd32b52d	-0.043629814
66	0x3c6f1a71	0.0145937065
67	0xbd45177f	-0.04811811
68	0xbc66f7b3	-0.014097142
69	0xbc8aa47d	-0.016924137
70	0xbda677ee	-0.081283435
71	0x3d006e1e	0.031355016
72	0xbe0f0e2a	-0.13970247
73	0xbd9bc08f	-0.07605087
74	0x3d194423	0.037418496
75	0xbd8cc6a3	-0.068738244
76	0x3d353238	0.044237345
77	0x3dfa5da9	0.122248955
78	0xbbb4a4e9	-0.005512823
79	0xbc9e24a7	-0.019304587
80	0x3d4570e6	0.04820337
81	0xbc5f7470	-0.013638601
82	0x3caa2b6d	0.02077266
83	0x3d0c1912	0.034203596
84	0x3d46f298	0.0485712
85	0xbd1a23cc	-0.037631795
86	0xbddb1d7f	-0.10698985
87	0xbd936079	-0.07196135
88	0xbd0b803c	-0.03405784
89	0xbde2259f	-0.11042332
90	0xbd8bbc5b	-0.06823035
91	0xbdad0bdd	-0.08449528
92	0xbdc7495c	-0.09730789
93	0xbe014bcc	-0.1262657
94	0xbba04f4a	-0.0048922645
95	0xbc37427e	-0.011185287
96	0xbba10f0c	-0.004915124
97	0x3d48e8bd	0.04905008
98	0x3dc39073	0.09549036
99	0xbdb8a501	-0.09015847
100	0xbdea261a	-0.114330485
101	0xbd945bfb	-0.072441064
102	0xbda3c903	-0.07997324
103	0xbbae3564	-0.0053164233
104	0xbc51d820	-0.012807876
105	0xbbca95b7	-0.006182398
106	0x3cbb682f	0.022876827
107	0x3d2440bf	0.04010081
108	0xbd8484ef	-0.064706676
109	0xbcf447ef	-0.029819457
110	0xbd525619	-0.05135164
111	0x3dcf6ba6	0.10127954
112	0x3e154e72	0.14580706
113	0x3d88cbe2	0.066795126
114	0x3d1d5dad	0.038419414
115	0x3dc7d012	0.09756483
116	0x3e0bfcb4	0.13670617
117	0xbda5d239	-0.080967374
118	0xbc819286	-0.015816938
119	0x3c07bbee	0.008284552
120	0xbd078136	-0.03308221
121	0xbd8d9c9d	-0.06914637
122	0x3b6025ab	0.003420214
123	0xbe061b69	-0.13096394
124	0xbdacbfe1	-0.084350355
125	0x3bb6fd17	0.00558437
126	0xbd9f221a	-0.07770176
127	0xbd72f162	-0.05931223
128	0xbd8aad7e	-0.06771372
129	0xbd7977be	-0.06090521
130	0xbc22d520	-0.009938508
131	0x3dd1fd58	0.102533996
132	0xbc247960	-0.010038704
133	0x3d7eb40c	0.062183425
134	0x3d53cbe7	0.05170813
135	0x3bfd21dd	0.007724984
136	0x3d8eb4ba	0.069680646
137	0x3cccef3f	0.025016425
138	0x3da4639e	0.08026813
139	0x3d260d18	0.04053983
140	0xbb14c46b	-0.0022700082
141	0xbd910c0a	-0.070823744
142	0xbdb8aeb7	-0.09017699
143	0xbdcf484e	-0.10121213
144	0xbe119a17	-0.14218937
145	0xbdefd68c	-0.117108434
146	0xbc9b96bc	-0.018992774
147	0xbe0d5b6c	-0.13804406
148	0xbdcef57f	-0.101054184
149	0xbb17a092	-0.002313648
150	0xbd6cfd26	-0.05785861
151	0x3ccfedef	0.02538201
152	0x3da20e3b	0.079128705
153	0x3c03126d	0.0079999985
154	0x3c23d76b	0.01000009
155	0x3c32541c	0.010884311
156	0x3cb32b62	0.021871272
157	0x3c47bf1a	0.012191558
158	0x3d526917	0.051369753
159	0xbd97c595	-0.07410733
160	0xbd8fb67b	-0.07017227
161	0xbcc972d0	-0.02459088
162	0x3e27a5da	0.16371861
163	0x3c67d2ab	0.014149348
164	0x3d004a26	0.031320713
165	0x3d8d519a	0.0690033
166	0xbc95ae1e	-0.018271502
167	0x3ca7a812	0.020465884
168	0x3d69bd59	0.05706534
169	0xbd0f3c09	-0.034969363
170	0xbc1d0c76	-0.00958549
171	0x3c92a7ab	0.017902216
172	0x3d2a5c75	0.04159208
173	0xbc9c7350	-0.019097954
174	0x3d81678d	0.06318579
175	0x3d0b9bd6	0.034084164
176	0x3cddcd3e	0.027075406
177	0x3d268f58	0.040664047
178	0x3bd70ebc	0.006563036
179	0xbdde16df	-0.10844206
180	0xbdc53250	-0.09628737
181	0xbe071418	-0.13191259
182	0xbcb2aa61	-0.021809759
183	0xbdbfe789	-0.09370334
184	0xbb9f57c9	-0.0048627597
185	0x3d5db2fa	0.054125763
186	0xbc41b159	-0.011822068
187	0x3cb35707	0.021892084
188	0x3d78daeb	0.06075565
189	0x3d45ec63	0.04832114
190	0x3d075eda	0.033049442
191	0x3d8463c0	0.06464338
192	0x3d15694f	0.036477383
193	0x3d688082	0.05676318
194	0xbc4e2a27	-0.012583292
195	0x3dce87f1	0.100845225
196	0xbd4ad64f	-0.049520787
197	0xbd751920	-0.059838414
198	0xbdd544bd	-0.104135014
199	0xbdcf3f06	-0.10119443
200	0xbb3c150e	-0.0028699073
201	0xbe0aba04	-0.13547522
202	0xbce8d338	-0.02842103
203	0x3db3091a	0.0874197
204	0xbdab797c	-0.08372781
205	0xbc7a485d	-0.015276042
206	0x3d8abc16	0.06774156
207	0x3d88c191	0.06677545
208	0x3d9398bc	0.07206866
209	0xbb1bb4e1	-0.0023758935
210	0x3dcd9a49	0.10039193
211	0xbc6e9697	-0.014562271
212	0xba90f4f1	-0.0011059326
213	0x3d4f61b6	0.050630294
214	0xbd9087b3	-0.070571326
215	0xbdc13ee5	-0.09435824
216	0xbe1214b8	-0.14265716
217	0xbd83576e	-0.0641316
218	0xbd8c34fe	-0.06846045
219	0xbe0cf083	-0.13763623
220	0xbe0402aa	-0.12891641
221	0xbd96eef2	-0.07369794
222	0xbd8201a4	-0.06347969
223	0xbc23b6a8	-0.009992279
224	0x3d98437a	0.07434745
225	0x3d9c0b47	0.076193385
226	0xbc442b6a	-0.011973241
227	0x3c2974e8	0.010342814
228	0x3cc5e0af	0.024154989
229	0x3c99250a	0.01869442
230	0xbda63d38	-0.08117145
231	0x3cfbf92b	0.030758461
232	0xbc15634a	-0.009117911
233	0xbdbd233e	-0.092352375
234	0xbd0bb7af	-0.03411072
235	0x3d1468f0	0.03623289
236	0x3cdbbaac	0.02682241
237	0x3bbe307b	0.005804119
238	0x3e0002d7	0.12501083
239	0x3d8cd6f5	0.06876937
240	0xbc9a53f7	-0.018838866
241	0x3d3fc19e	0.046815507
242	0x3b2dca05	0.0026518118
243	0x3cc42277	0.023942215
244	0x3cb8b2a0	0.022546113
245	0xbb424371	-0.002964225
246	0xbc72356c	-0.014783245
247	0xbc854dd9	-0.016272472
248	0xbdada707	-0.084791236
249	0x3aba7b90	0.0014227498
250	0xbd774f04	-0.06037809
251	0xbddc6d3d	-0.10763023
252	0xbd3161fb	-0.043306332
253	0xbe05a1af	-0.13049959
254	0xbc8ba53e	-0.017046567
255	0x3dd2a849	0.10286004

conv3.0.bias f4 [80]
0	0x3e0c1c5d	0.13682695
1	0xbdaea2e9	-0.085271664
2	0x3d8ded4f	0.06930029
3	0xbe1ba14b	-0.15198247
4	0xbdce6547	-0.10077911
5	0x3d959255	0.07303301
6	0xbd944b73	-0.07240953
7	0xbdccf42f	-0.10007512
8	0xbe3e3977	-0.18576609
9	0x3b87f0b7	0.0041485685
10	0x3df8beda	0.12145777
11	0xbd31044e	-0.043216996
12	0x3def04b2	0.116708174
13	0xbd8ebf75	-0.06970111
14	0xbd901ed0	-0.07037127
15	0xbd569049	-0.052383695
16	0xbcbe4049	-0.023224013
17	0x3e25c201	0.16187288
18	0x3b2b1982	0.0026107733
19	0xbc5db230	-0.013531253
20	0xbd454d52	-0.04816944
21	0x3c89b29c	0.0168088
22	0x3d98c181	0.07458783
23	0x3d6a6aba	0.05723069
24	0xb90d702b	-0.00013488594
25	0xbe54254a	-0.2071735
26	0x3d6c713f	0.057725187
27	0x3d95e562	0.07319142
28	0x3d474791	0.048652235
29	0x3d6b235e	0.057406776
30	0x3cac1023	0.021003788
31	0x3cfe1bf9	0.031019198
32	0xbd846c56	-0.06465976
33	0xbda85d4b	-0.08220919
34	0x3d9baa88	0.07600886
35	0x3b92be64	0.0044782627
36	0x3d6d7250	0.057970345
37	0x3d43d4ad	0.047810245
38	0x3da358ce	0.079759225
39	0x3d8a04f5	0.06739227
40	0x3d38f638	0.045156687
41	0x3e44453c	0.19167036
42	0xbcd048f3	-0.02542541
43	0x3d750f2b	0.05982892
44	0x3ded2dae	0.11580978
45	0x3dece51b	0.11567136
46	0xbc2a4e75	-0.010394682
47	0xbc29c9ec	-0.010363083
48	0x3de2dd14	0.110773236
49	0x3d5259de	0.051355235
50	0x3e08cadb	0.13358633
51	0x3e0295b2	0.12752417
52	0x3dab56ff	0.083662026
53	0x3e0e4e73	0.13897114
54	0x3d5dcf6c	0.05415289
55	0xbdb2b0f1	-0.08725155
56	0xbd477151	-0.04869205
57	0x3d477e36	0.04870435
58	0x3dea9476	0.11454098
59	0x3d61160c	0.054952666
60	0x3d777741	0.060416464
61	0x3dde3836	0.10850565
62	0xbd3821b2	-0.04495401
63	0x3d96aa08	0.0735665
64	0x3e139614	0.14412719
65	0xbdecfef1	-0.11572064
66	0x3d36c239	0.04461882
67	0xbd8a1032	-0.0674137
68	0xbd2a7e46	-0.04162433
69	0x3c50b384	0.012738112
70	0xbc870263	-0.01648063
71	0xbcea1483	-0.028574234
72	0x3cc60027	0.024169995
73	0x3cadb334	0.021203615
74	0xbd70d031	-0.058792297
75	0x3b31e213	0.0027142807
76	0xbe2b6eea	-0.16741529
77	0x3ca80748	0.020511284
78	0xbdc2e70a	-0.095167235
79	0x3c6f72c0	0.014614761

conv4.0.weight f4 [120, 80, 3, 3]
0	0x3dcf8805	0.101333655
1	0x3d001c80	0.03127718
2	0x3cd0f90b	0.025509378
3	0xbb8bb811	-0.004263886
4	0x3d0a5dc6	0.033780836
5	0xbceefa7c	-0.029172175
6	0xbd195806	-0.03743746
7	0xbc48a68b	-0.012246738
8	0x3d588956	0.05286535
9	0x3d207011	0.039169375
10	0xbd8d0150	-0.06885016
11	0xbd980912	-0.07423605
12	0x3caff1d8	0.021477625
13	0xbcb9d898	-0.022686288
14	0xbda2596c	-0.07927212
15	0xbd3a7e63	-0.045530688
16	0xb9840797	-0.00025182657
17	0xbdeb5ce7	-0.11492329
18	0xbcb92d3f	-0.022604583
19	0xbbbd3cfa	-0.0057750912
20	0x3c3876c1	0.011258782
21	0xbcad774c	-0.02117505
22	0x3d81acc6	0.06331782
23	0x3d6a8352	0.057254143
24	0xbc9b686f	-0.018970696
25	0x3c98c0ce	0.018646624
26	0x3d1deb4c	0.038554475
27	0xbd0cdfdf	-0.034393188
28	0xbd1828ba	-0.037148215
29	0xbdaabd7e	-0.08336924
30	0xbcb40a8e	-0.02197769
31	0xbd7494ef	-0.059712347
32	0xbd153268	-0.036425024
33	0xbd79ee4b	-0.06101827
34	0xbcc1acfe	-0.02364206
35	0xbdb7ae0b	-0.08968743
36	0x3c7dfb1a	0.015501762
37	0x3d46b107	0.04850867
38	0x3d868bbc	0.06569621
39	0x3cda073f	0.026614783
40	0xbcb9c3e6	-0.02267642
41	0x3d2bfff4	0.041992143
42	0x3e0587c9	0.13040079
43	0xbd19a9d9	-0.037515495
44	0x3cc9bfa8	0.024627522
45	0xbd079585	-0.033101577
46	0xbca75aa1	-0.020428957
47	0xb8774da3	-5.8961694e-05
48	0x3d1b049e	0.0378462
49	0xbcc16561	-0.023607912
50	0xbd47eb88	-0.048808604
51	0xbcffc1db	-0.031220367
52	0xbdcf09a6	-0.10109262
53	0xbdca6f7a	-0.09884544
54	0x39ac1b6b	0.00032826824
55	0xbd4e88d2	-0.05042345
56	0xbd32f520	-0.0436908
57	0x3daac2f0	0.083379626
58	0x3d876734	0.06611481
59	0x3ba0fc84	0.0049129147
60	0xbe181818	-0.14852941
61	0xbc4a6c92	-0.012354987
62	0x3dc5bd2b	0.096552216
63	0xbcf1d4e2	-0.029520456
64	0xbd58f7a7	-0.052970555
65	0xbd63e0f2	-0.055634446
66	0xbc481f8b	-0.012214552
67	0x3bdbcc69	0.006707717
68	0xbd8b606a	-0.06805499
69	0xbba19db6	-0.0049321307
70	0x3d867166	0.06564598
71	0xbc2e1ec4	-0.010627452
72	0x3c7e8234	0.0155339725
73	0x3d38275c	0.04495941
74	0x3ba07902	0.0048972378
75	0xbb331b59	-0.0027329533
76	0x3d7cecfb	0.06174944
77	0xbd364fce	-0.0445097
78	0x3c7ffb28	0.015623845
79	0x3da93ce8	0.0826357
80	0x3b5aef26	0.0033406704
81	0xbe4b7879	-0.19870175
82	0xbbbc9fb0	-0.005756341
83	0xbd879fc8	-0.06622273
84	0xbd7bc4b7	-0.0614669
85	0xbd098b93	-0.033580374
86	0xbcc163b8	-0.02360712
87	0x3c2bfd09	0.01049734
88	0xbb7ee5cc	-0.0038894294
89	0x3c5235ee	0.012830241
90	0x3da55d0f	0.0807439
91	0x3c5d6996	0.013513943
92	0xbd4f5a07	-0.050622966
93	0x3d086c17	0.033306208
94	0x3b7a9c90	0.0038240291
95	0x3c3bd453	0.011464196
96	0x3dc9e916	0.09858911
97	0x3bc7f24e	0.006101883
98	0xbd8efa65	-0.06981353
99	0x3cdae5e4	0.026720949
100	0xbc22e2fa	-0.009941811
101	0x3d2d4901	0.04230595
102	0x3cc6fea2	0.02429134
103	0x3d1b9096	0.037979685
104	0xbcee4eec	-0.029090367
105	0x3dacc10a	0.08435257
106	0x3d91e988	0.07124621
107	0x3cc26300	0.023728848
108	0x3e036fd0	0.12835622
109	0x3d3373e7	0.043811705
110	0xbe37824f	-0.17920803
111	0x3e252233	0.16126327
112	0x3d6b1541	0.057393316
113	0xbdaae3cc	-0.0834423
114	0x3ceb451a	0.028719474
115	0xbd6b98ce	-0.057518773
116	0x3d15cb2e	0.03657072
117	0xbd32ccd4	-0.04365237
118	0xbd766836	-0.060157977
119	0xbd3344ce	-0.04376679
120	0xbd8ccabd	-0.06874607
121	0x3c715c40	0.014731467
122	0xbd02d03e	-0.031936876
123	0xb996fe9a	-0.00028799922
124	0xbd8525d3	-0.06501355
125	0xbdc6101b	-0.096710406
126	0x3d1267c9	0.03574351
127	0x3c65afce	0.014018966
128	0x3d11c873	0.035591554
129	0xbba6cd00	-0.005090356
130	0xbd2960b6	-0.041351996
131	0x3c32449d	0.0108806165
132	0xbc70cbf6	-0.014697066
133	0xbb99529b	-0.004679037
134	0x3c9e90e0	0.019356191
135	0x3cc77513	0.024347818
136	0x3ddf1fc0	0.10894728
137	0x3d6a1371	0.057147447
138	0x3d8e29d1	0.069415696
139	0x3d6d0550	0.057866395
140	0x3da1fd97	0.079096965
141	0xbc55f564	-0.013058994
142	0xbc7f97f8	-0.015600197
143	0x3d0f7198	0.03502044
144	0xbd05e014	-0.0326844
145	0x3cced703	0.02524901
146	0x3d0789a7	0.03309026
147	0x3d03aa23	0.032144677
148	0x3d23fe60	0.040037513
149	0x3ca5be42	0.020232324
150	0xbd359f93	-0.044341635
151	0x3cd7386f	0.026272027
152	0x3cd11924	0.025524683
153	0xbdba50c4	-0.09097436
154	0xbe036833	-0.12832718
155	0xbe30f339	-0.17280282
156	0xbbde763a	-0.006788996
157	0xbd408007	-0.046997096
158	0x3d410bea	0.047130503
159	0x3dd156a6	0.10221605
160	0x3ddcb7b4	0.10777226
161	0x3d784584	0.06061317
162	0xbd161ae7	-0.03664675
163	0xbca590dc	-0.020210676
164	0x3bcdc85d	0.0062799887
165	0xbd939203	-0.07205584
166	0x3d0997d0	0.033592045
167	0x3bdb569d	0.0066936747
168	0xbd558ccd	-0.05213623
169	0x3d7f4458	0.062321037
170	0x3db97374	0.09055224
171	0x3de5ff22	0.11230303
172	0x3d32c2ff	0.043642994
173	0xbd4a1ddf	-0.049344894
174	0x3da3010f	0.07959186
175	0x3d9b6f7f	0.075896256
176	0xbd6dfdf8	-0.05810353
177	0x3dd908be	0.105973706
178	0x3b6456a4	0.003484168
179	0xbe236138	-0.15955055
180	0xbbede80b	-0.0072603277
181	0xbca4a89c	-0.02009993
182	0xbbbd269c	-0.005772425
183	0x3d0cff15	0.034422953
184	0x3d52fd20	0.05151093
185	0xbcb54e76	-0.02213214
186	0xbde1921f	-0.110141985
187	0xbd89435a	-0.067022994
188	0xbcafc0f3	-0.02145431
189	0xbcd92b85	-0.02651001
190	0xbc8cc864	-0.017185397
191	0xbd8a685a	-0.06758185
192	0x3d3dc8eb	0.04633419
193	0x3dad5af0	0.084646106
194	0x3d144243	0.036196005
195	0xbc386af5	-0.011255969
196	0xbd8ff9cd	-0.070300676
197	0xbd8f5f79	-0.07000632
198	0x3db541e8	0.08850461
199	0x3da08c60	0.078392744
200	0x3cce4138	0.025177583
201	0x3d09b058	0.03361544
202	0x3da58614	0.08082214
203	0xbcb91260	-0.02259177
204	0xbab8cc5e	-0.0014098992
205	0x3d563cad	0.05230396
206	0x3d7bc479	0.061466668
207	0xbe3d2dfd	-0.18474574
208	0xbd3b9372	-0.04579491
209	0x3cd5ef8d	0.026115203
210	0xbe1eb7b6	-0.15499768
211	0x3daa5f3c	0.08318946
212	0x3de1f5c3	0.110332035
213	0xbc135ea3	-0.008994731
214	0x3bb7f3b8	0.0056137703
215	0x3e2c1577	0.16805063
216	0x3a3241c9	0.0006799964
217	0x3d5e05a7	0.05420461
218	0xbddb1244	-0.10696843
219	0xbd31aad5	-0.04337581
220	0xbcdfcb74	-0.027318694
221	0x3d06a238	0.032869548
222	0x3c7574b0	0.014981434
223	0x3c2c85c3	0.010529938
224	0xbc748273	-0.01492368
225	0xbcda5134	-0.026650049
226	0x3d6e9608	0.05824855
227	0x3c846957	0.016163511
228	0x3d05555f	0.03255212
229	0x3d3deb2b	0.04636685
230	0xbcc5dc92	-0.024153028
231	0x3d2eaa67	0.042642977
232	0x3bd45d07	0.0064808163
233	0x3aae2621	0.001328651
234	0x3d12a868	0.035805136
235	0xbba72fe4	-0.0051021446
236	0xbdc906a8	-0.09815723
237	0x3da36568	0.07978326
238	0x3d11f814	0.035636976
239	0x3d9c8bf5	0.07643882
240	0x3d794932	0.06086082
241	0x3de1037e	0.10986994
242	0x3ceedfbe	0.029159423
243	0x3d948e39	0.07253689
244	0xbd6ad507	-0.057332065
245	0xbddf9196	-0.1091644
246	0x3d841283	0.06448843
247	0xbcd78de5	-0.026312778
248	0xbdb5df0b	-0.08880433
249	0x3e0642bd	0.13111396
250	0x3d1da397	0.03848609
251	0x3d32a88e	0.043617778
252	0xbd463155	-0.04838689
253	0xbd0f2065	-0.034943003
254	0xbd5bb13c	-0.05363582
255	0x3d4d9ea8	0.050200135

conv4.0.bias f4 [120]
0	0x3dcfebbd	0.101523854
1	0x3c9e14e0	0.019297063
2	0xbd76a93c	-0.06021999
3	0x3d20e82d	0.03928392
4	0x3dab7a68	0.083729565
5	0xbc68dc7d	-0.014212725
6	0x3cf78040	0.030212522
7	0x3c1d3175	0.009594311
8	0x3dd4ac2e	0.10384403
9	0x3d34bd08	0.044125587
10	0xbd0b1687	-0.03395703
11	0x3ded1722	0.11576678
12	0xbd6e25da	-0.058141567
13	0xbca9bcad	-0.02071985
14	0xbd29c499	-0.041447256
15	0xbdc7ee24	-0.097622186
16	0xbd95bb40	-0.07311106
17	0x3cedab85	0.029012451
18	0x3e1691fc	0.14704126
19	0x3d95c154	0.07312265
20	0xbd9fb01a	-0.077972606
21	0x3df2b5c6	0.11851077
22	0xbde54730	-0.111952186
23	0xbe0aad54	-0.13542682
24	0x3e125216	0.14289126
25	0x3c9e2c97	0.019308371
26	0x3d33d039	0.04389975
27	0x3c0d5b98	0.008627795
28	0xbbf1ca57	-0.007378857
29	0x3c75f1b8	0.0150112435
30	0xbca2ba7b	-0.019864311
31	0xbd81d377	-0.06339162
32	0xbd45dd7b	-0.048306923
33	0x3d8847d0	0.06654322
34	0xbdc857f2	-0.09782399
35	0xbe06f581	-0.1317959
36	0xbdb4aff8	-0.08822626
37	0xb9ba2a04	-0.0003550799
38	0x3d934bfa	0.07192226
39	0xbd4e44bb	-0.050358515
40	0x3d5d9823	0.054100167
41	0xbc278991	-0.0102256695
42	0x3cbb8cb0	0.022894233
43	0x3e248c97	0.16069256
44	0xbd9c8a19	-0.076435275
45	0xbd32b4c7	-0.043629434
46	0x3ddde240	0.108341694
47	0xbe317603	-0.17330174
48	0x3de51b1e	0.11186813
49	0xbd9822f9	-0.074285455
50	0x3d8efa60	0.06981349
51	0xbd3c28cf	-0.045937356
52	0xbd910f5a	-0.07083006
53	0xbe09d1ac	-0.1345889
54	0x3dc19dab	0.09453901
55	0x3e3f16c9	0.18661036
56	0xbd78cb57	-0.060740795
57	0xbccc5eee	-0.02494761
58	0xbe1e3dde	-0.15453288
59	0xbda2a255	-0.07941119
60	0xbcb58d23	-0.022162026
61	0xbdd1aa69	-0.10237581
62	0x3d090479	0.03345153
63	0x3e0667ee	0.13125584
64	0x3dc7114c	0.09720096
65	0xbd1c37ff	-0.03813934
66	0x3cda5439	0.026651489
67	0x3e0700b5	0.13183863
68	0x3c8aa13a	0.016922582
69	0xbda0b2fe	-0.0784664
70	0x3e0ce0c7	0.13757621
71	0x3dbb045e	0.09131692
72	0x3e2eaf61	0.17059089
73	0xbe35aded	-0.17742129
74	0xbd9381c2	-0.07202484
75	0x3dd87280	0.10568714
76	0xbda1d0c4	-0.07901147
77	0xbe2fbb23	-0.1716123
78	0xbddbe6d4	-0.10737386
79	0xbbd61516	-0.0065332754
80	0x3e1a0546	0.15041074
81	0x3e0f78b7	0.14010893
82	0x3b57b533	0.00329144
83	0xbd78ae5c	-0.060713157
84	0xbe0ff9a6	-0.14060077
85	0xbd5013db	-0.050800186
86	0x3ced95e5	0.02900214
87	0x3e1e6d24	0.15471321
88	0xbd18f530	-0.037343204
89	0xbc5e0c4e	-0.013552738
90	0xbda2fd0f	-0.07958423
91	0xbdaf75e6	-0.08567409
92	0xbcc06a6d	-0.023488248
93	0x3ccc6096	0.0249484
94	0x3db851f2	0.09000005
95	0xbd100bdd	-0.035167564
96	0x3e123e83	0.14281659
97	0xbcc95c9c	-0.024580292
98	0xbd6643dc	-0.05621706
99	0xbe1e328e	-0.15448973
100	0x3c0d0950	0.008608177
101	0xbda6c67e	-0.08143328
102	0xbd8c31cf	-0.06845438
103	0x3e2413fb	0.16023247
104	0xbe377851	-0.17916991
105	0xbe0461b6	-0.12927899
106	0x3da36c21	0.07979608
107	0xbe0ddd2a	-0.13853899
108	0x3e643459	0.22285594
109	0xbca58052	-0.02020279
110	0x3c6869e9	0.014185407
111	0xbdc1587f	-0.094407074
112	0x3d344889	0.044014487
113	0xbe162ca9	-0.14665474
114	0xbc1af1c9	-0.00945706
115	0xbe48cdcb	-0.19609754
116	0xbdfa6193	-0.12225642
117	0x3d962bd8	0.07332581
118	0x3d2fbece	0.042906575
119	0x3dea0099	0.11425895

conv5.0.weight f4 [3, 120, 1, 1]
0	0xbca8e40c	-0.020616554
1	0xbe590d7b	-0.21196549
2	0xbd394a46	-0.04523685
3	0xbd874eec	-0.0660685
4	0x3ce463c6	0.027879607
5	0x3d5863d7	0.05282959
6	0xbcb4afa6	-0.022056412
7	0xbdfd202b	-0.12359651
8	0x3b12f57a	0.0022424147
9	0xbdc39402	-0.095497146
10	0xbdf60dea	-0.12014373
11	0xbdd7dea9	-0.10540516
12	0xbdaa139f	-0.08304524
13	0xbe2295b9	-0.15877427
14	0x3e31e37d	0.17371936
15	0x3dfe6902	0.124223724
16	0x3dcaa81c	0.098953456
17	0xbd9ced8c	-0.07662496
18	0xbdb71cec	-0.08941063
19	0xbe10c137	-0.14136206
20	0x3d811afd	0.06303976
21	0xb7fc0c3b	-3.0046436e-05
22	0xbcf9d750	-0.030498177
23	0xbe33ffc2	-0.17578033
24	0xbddc13b1	-0.10745943
25	0xbddd9b78	-0.10820669
26	0xbd40b58b	-0.047048133
27	0xbdae5a58	-0.085133255
28	0xbe15d992	-0.14633778
29	0xbb44d7b7	-0.0030035803
30	0xbe11b0b5	-0.14227565
31	0xbcb88f10	-0.022529155
32	0xbe4b95b8	-0.19881332
33	0xbc53edee	-0.012935145
34	0x3daf189e	0.08549617
35	0x3e1b5b98	0.15171659
36	0xbe30e871	-0.1727617
37	0xbe6558b6	-0.22397122
38	0x3cc7871d	0.02435642
39	0xbd4f28ac	-0.050575897
40	0x3d4a453e	0.04938244
41	0x3da4ffa5	0.08056573
42	0x3c9dfa24	0.019284315
43	0xbd0b4dd7	-0.03400978
44	0xbc696f64	-0.014247749
45	0x3e0e046d	0.13868876
46	0xbe20a8d4	-0.15689403
47	0xbe600338	-0.21876228
48	0xbd376ec6	-0.044783376
49	0xbd6a87dd	-0.057258476
50	0xbddbd565	-0.10734061
51	0xbdbc5eac	-0.09197745
52	0xbdae7480	-0.08518314
53	0x3db8f0bb	0.09030291
54	0xbc9ea161	-0.01936406
55	0xbc453318	-0.0120361075
56	0xbdf92f6b	-0.121672474
57	0x3de4d9ca	0.111743525
58	0x3d06aac5	0.032877702
59	0xbdffe197	-0.124942
60	0xbe1186be	-0.14211556
61	0xbe272455	-0.16322453
62	0x3de46ee2	0.11153962
63	0xbde89b57	-0.11357754
64	0x3c9e73b3	0.019342279
65	0x3dc78b41	0.097433574
66	0xbdc779f9	-0.09740061
67	0xbced01e3	-0.028931564
68	0xbe2fa63a	-0.17153254
69	0x3e4854b9	0.19563569
70	0xbce65615	-0.028117219
71	0xbe25decc	-0.16198272
72	0xbd0db1f4	-0.034593537
73	0xbc1ea70b	-0.009683381
74	0x3e183223	0.14862876
75	0xbe118992	-0.14212635
76	0xbd815ca4	-0.06316498
77	0x3d47a386	0.048739932
78	0xbd1d6a71	-0.03843159
79	0xbe7c1c0a	-0.24620071
80	0xbc71b267	-0.014752007
81	0xbc947135	-0.018120388
82	0xbe0a4be1	-0.13505508
83	0xbdc6a54b	-0.09699496
84	0x3e204288	0.1565038
85	0x3e0361dd	0.128303
86	0xbe4d4b6f	-0.20048307
87	0x3c242630	0.01001887
88	0x3e0ed7fa	0.13949576
89	0xbe02619a	-0.12732545
90	0x3d448589	0.04797891
91	0x3cdea23b	0.027176967
92	0xbda564fb	-0.08075901
93	0x3cc51293	0.024056708
94	0x3d854ec5	0.06509165
95	0x3d824cd3	0.06362309
96	0xbd80e9e6	-0.062946126
97	0x3d5f88a1	0.05457366
98	0xbdac7f29	-0.084226914
99	0x3dc83323	0.097753786
100	0xbe2aa46d	-0.16664286
101	0xbdc40dbb	-0.095729314
102	0xbe15f5a2	-0.14644483
103	0x3bd7f552	0.0065905238
104	0xbd8a667a	-0.06757827
105	0x3e632d4c	0.22185248
106	0x3bb87654	0.00562934
107	0x3e0d477a	0.13796797
108	0xbdd058ee	-0.10173212
109	0xbd0cc49d	-0.034367193
110	0x3d2aea09	0.0417271
111	0x3e53409f	0.2063012
112	0x3c8ae2f7	0.016953928
113	0xbd63823f	-0.055544134
114	0x3db69b6c	0.08916363
115	0x3c26bc7d	0.010176775
116	0xbe150828	-0.14553893
117	0xbc22385e	-0.009901134
118	0xbda4507d	-0.080231644
119	0xbc1a23df	-0.009407966
120	0xbe4b98b9	-0.19882478
121	0xbd24e635	-0.040258605
122	0x3ca8af62	0.020591442
123	0xbe4bc4e1	-0.19899322
124	0x3c1f0623	0.009706053
125	0xbe02800a	-0.12744156
126	0x3d539055	0.051651318
127	0xbe196cc3	-0.14982896
128	0xbdd1ec07	-0.10250097
129	0x3cd51d38	0.02601491
130	0xbc5ef8c1	-0.013609112
131	0xbe4e63b4	-0.20155221
132	0x3e8602b7	0.26173946
133	0x3dbb8b89	0.091574736
134	0x3e6a5ab4	0.22886163
135	0x3def291f	0.11677765
136	0x3dbd3040	0.092377186
137	0x3cbfbdd9	0.023405956
138	0xbe888a66	-0.2666809
139	0xbe614911	-0.22000529
140	0x3dd4cd9e	0.10390781
141	0xbe1da095	-0.15393288
142	0x3e875015	0.26428285
143	0x3e6dc2fd	0.23218913
144	0xbd5ec31d	-0.054385293
145	0x3d4415dc	0.04787241
146	0xbe4d4d89	-0.20049109
147	0x3dc33f52	0.09533562
148	0x3d4f87b9	0.050666545
149	0xbca37931	-0.01995525
150	0xbd594aa1	-0.053049687
151	0xbdc06f4e	-0.0939623
152	0x3e2a8f3d	0.16656204
153	0xbe6ab0b9	-0.22918977
154	0x3e0d801e	0.13818404
155	0x3e420b7c	0.18949693
156	0xbb95b6f4	-0.004568929
157	0xbe14e01f	-0.1453862
158	0xbe5cd99c	-0.21567386
159	0x3cb50e8b	0.022101661
160	0xbe056622	-0.13027242
161	0x3df7ad14	0.12093559
162	0xbdc4b323	-0.0960448
163	0xbe2bf324	-0.1679197
164	0x3e011f9d	0.12609716
165	0x3d980749	0.074232645
166	0xbe0d868e	-0.1382086
167	0x3e32b6d4	0.17452556
168	0xbe3c9cce	-0.18419191
169	0xbdacc7d3	-0.08436551
170	0x3d1f52b0	0.038897216
171	0x3e464ef2	0.19366053
172	0x3d9a9e94	0.075497776
173	0x3db621f3	0.08893194
174	0xbcf6dafe	-0.03013372
175	0xbdd87a00	-0.10570145
176	0x3e3fc094	0.18725806
177	0xbd84fb11	-0.064931996
178	0x3e869666	0.2628662
179	0x3e09bd4c	0.13451117
180	0x3e0c75e5	0.13716848
181	0x3e1000ea	0.14062849
182	0xbe172da1	-0.147635
183	0xbcdcb375	-0.02694104
184	0xbd40e36c	-0.047091886
185	0xbe1f7de0	-0.15575361
186	0x3d7aca4a	0.061228074
187	0xbe4d4ed7	-0.20049606
188	0x3d4d1fc4	0.050079122
189	0x3e1603a6	0.1464983
190	0xbe5c2d26	-0.21501598
191	0xbe83bf1c	-0.25731742
192	0xbe6b6e50	-0.229913
193	0x3db11b42	0.08647777
194	0xbc98efc3	-0.018669015
195	0xbceed83c	-0.029155843
196	0x3dbd8911	0.09254659
197	0x3e2ceb8d	0.1688673
198	0x3e0c6d69	0.13713612
199	0xbd8281af	-0.063723914
200	0xbe3197c0	-0.17343044
201	0xbe5a7dc8	-0.21337044
202	0xbd478c3e	-0.04871773
203	0x3de784b2	0.113046065
204	0x3d5594cb	0.052143853
205	0x3ce0b622	0.027430598
206	0x3da5029f	0.080571406
207	0xbdc501ce	-0.09619485
208	0x3d2e706b	0.04258768
209	0x3d8fec5a	0.07027502
210	0x3e1f591e	0.1556134
211	0xbe293341	-0.16523458
212	0xbdfdf430	-0.12400091
213	0xbdf0f4a9	-0.11765415
214	0xbd57df55	-0.05270322
215	0xbe40d0ef	-0.18829702
216	0xbe4168bf	-0.18887614
217	0x3dedd09f	0.11612057
218	0x3e1dfe5c	0.15429062
219	0xbb8c8668	-0.0042884834
220	0xbe081ad1	-0.1329148
221	0x3e143f79	0.14477338
222	0x3e789579	0.2427577
223	0xbd255515	-0.040364344
224	0x3e87afbf	0.2650127
225	0x3de5a78e	0.11213599
226	0xbd0db1e6	-0.034593485
227	0x3e0bc462	0.13649133
228	0xbd759f10	-0.059966147
229	0x3e007222	0.12543538
230	0x3cb0d80a	0.02158739
231	0x3e074cbb	0.13212864
232	0xbd205700	-0.03914547
233	0x3cfce818	0.03087239
234	0xbe3c358d	-0.18379803
235	0x3e625041	0.22100927
236	0x3e3e6299	0.185923
237	0xbe6b4a3b	-0.22977535
238	0x3d0a6137	0.033784118
239	0xbe2b806d	-0.1674821
240	0xbc7da944	-0.015482251
241	0xbd1a8a42	-0.03772951
242	0x3daec478	0.08533567
243	0x3ce2a586	0.027666818
244	0xbe5c9d94	-0.21544486
245	0xbda3a30c	-0.07990083
246	0xbe4b5cde	-0.19859645
247	0x3c87a064	0.016555972
248	0xbe2c21bc	-0.16809744
249	0xbe60ab46	-0.21940336
250	0x3e88b0d9	0.26697424
251	0xbd575ca6	-0.05257859
252	0x3cac514c	0.02103486
253	0xbddc214b	-0.10748538
254	0x3dfa6404	0.12226108
255	0x3dd8226f	0.10553443

conv5.0.bias f4 [3]
0	0x3d109c65	0.0353054
1	0xbdcfd86e	-0.101487026
2	0xbd8dd966	-0.06926231
