old_weights/BackCNN_amsgrad_best_weights.pth (torch, 647347 bytes, 32 tensors)

conv1.0.weight f4 [3]
00000000: f924 303f 77a1 553f 6ef1 3f3f
0.68806416 0.834495 0.7497777

conv1.0.bias f4 [3]
00000000: 40fe 503e 8940 ba3e d959 6d3e
0.20409489 0.3637736 0.23178805

conv1.0.running_mean f4 [3]
00000000: 7622 623e b91f 7c3e 2330 663e
0.22083458 0.24621476 0.224793

conv1.0.running_var f4 [3]
00000000: f07d 873d d51f 5f3d 61a1 333d
0.066158175 0.054473717 0.043855075

conv1.1.weight f4 [20, 3, 7, 7]
00000000: 9c75 45bd a43e a63d 9957 6f3d 76a5 ac3d
00000010: 4d9c f53c f018 c0bc d4d5 093d dc2d c0bc
00000020: c46d ca3d eb68 3b3e 416b 2f3e 4ed3 113e
00000030: e72b 073e 7dc1 883d 128e 963c f273 a43d
00000040: 54f9 533e c357 853e 4ef3 7b3e bb92 223e
00000050: 8f9d d13d 251a a03d 2e51 5e3d 11f3 243e
00000060: d5f3 803e 7a6d 753e 8d12 8b3d 1ef8 ed3c
00000070: 7878 c63c ea80 bb3d b12e 3b3e 7f70 2a3e
00000080: 0672 483e 12be 4f3d d2e9 c93d 0262 3e3d
00000090: 28d7 913d d164 1d3e 43a4 c33d 8e9b 263e
000000a0: 17b0 903d a486 8c3d 2d03 8f3d 4273 093e
000000b0: a286 1e3e cd64 163e 18a5 d53d 5034 103e
000000c0: 720d a03d bb78 37bd c126 92bb 141c 0f3a
000000d0: 7ca9 ccbc 07cd 063b d9d3 d8bc 3c65 a7bd
000000e0: 26a1 a3bd eeff c1bd bea9 9cbb 3c41 d33c
000000f0: cf12 863b 1a89 34bd 9b91 9fbd 9cc3 8ebd
00000100: 18af e3bd 3c2b f6bc 5e11 28bd 6eb7 52bd
00000110: cdef 2ebd 3c5b cbbd fe11 00be a168 bfbd
00000120: 74ed dabd 2e7b 0cbe 3461 1bbe acfc babd
00000130: 984e 27be 6fa2 08be 8434 05be 5805 12be
00000140: 1caa a5bd c047 48be f26c ebbd cf33 01be
00000150: 96e9 cfbd eb16 30be ba3c c4bd 08f0 46be
00000160: 7f0c 97bd 0e22 e5bd 1ab5 bcbd 6d3b d3bd
00000170: 29cc 52bd 9736 ebbd fa47 99bd ca9f 30bd
00000180: 87c4 10be 6ae3 c3bd 8bfa f0bd e15d a93c
00000190: b452 f83a 6d68 973c 90bd 233d eb60 c9bd
000001a0: 70cd 0abd 7570 b4bb 6221 3f3d 3a06 453e
000001b0: 5446 cf3d 6c9d 183e c6ef dc3d 8f19 d03d
000001c0: 1478 f8bb 698e af3c fca2 ec3d 9040 e83d
000001d0: 3a9d 1d3e 9c59 553d 9229 eabb 512e 553d
000001e0: e411 e03d 6d47 d53d 1b95 013e b82a 193e
000001f0: 1da5 bc3d 3c5d 9e3d bc4e 1f3d cb03 5539
00000200: b945 6b3d 617c 863d 0a9f d33d e0b9 ac3b
00000210: 2529 1d3c 4bfd 3d3d f108 423d 9c7f 343d
00000220: 5027 c23d e81f 3a3d d113 813d 79be 763d
00000230: 9b63 86bb 018b c63b 6458 683c dc42 ac3d
00000240: abd0 893d 9dc9 b33b 5505 68ba ca26 693d
00000250: 9654 263e 94ef fe3d 158d e3bc 8526 593c
00000260: 15c2 e13d 3b5a e73d 3315 183e 98de 2f3e
00000270: b043 973d cf1e 1d3d 408b 4c3d 6acf 213d
00000280: de45 033e 0b11 443e affc 5b3e af97 523e
00000290: 458c 0b3e 4cb3 023e 4b66 df3d db7a a93d
000002a0: 1973 6d3e f5fd 753e 6a32 8d3e 1fda 1c3e
000002b0: 306d a03d a0cb 443e 6103 1e3d c418 4bbd
000002c0: a36a 123d 204d babd f748 9fbe 833a a5bc
000002d0: eee5 2d3d d1ee bf3d 1525 cf3c 95fc 32be
000002e0: 6d1e 8abe aaa1 6ebe 8864 a93d 10a1 26bd
000002f0: f22b e0bd 5332 db3d 0f6a a2bd 7b38 31be
00000300: 6fb2 983d ea22 1a3e 3a97 303d 5aeb 5a3d
00000310: 21e1 2bbe b57b aabd 8a37 87bc cd4c 7fbd
00000320: 775b 4abd eb12 b2bd cb61 80bd bb3a d9bd
00000330: 43f5 28bc fbe0 d2ba 7884 f43c d4a0 8d3c
00000340: 188a 04be 38fe 18be a959 67bd 3e48 fc3c
00000350: 8d90 e33d 9583 153e 8bc0 493c 9904 1ebe
00000360: 6734 4abe e8e7 1abd f263 4a3e 4083 a73e
00000370: 43c8 963e eaf6 3f3d b52b 16be b057 26be
00000380: 0c39 1bbd 21d4 873e 77fa 943e ef3a 603e
00000390: 6586 323e 285d c4bb 24c9 193d e36f d0bd
000003a0: ff78 1b3e ad61 0a3e 9695 3c3e 2cb7 263e
000003b0: 82d8 82bd e16c 6abd 7104 abbc 1355 143e
000003c0: 1c53 893e edca 503e a196 8f3d 502a d5bc
000003d0: d0ab 28be db64 aebd 0086 d13c bbec aebc
000003e0: c825 b0bd fd46 b9bc 8532 dbbc b04a d43d
000003f0: 524a 0cbd 19dc 66bd bdd2 1e3c 7d7d b1bd
-0.048207864 0.081174165 0.05843315 0.08429997 0.029981757 -0.023449391 0.033651188 -0.023459367
0.098842174 0.18301742 0.17130758 0.14240763 0.13200341 0.0667753 0.018378291 0.08029927
0.2070058 0.2604352 0.24604532 0.15876286 0.1023513 0.07817487 0.054276638 0.16108347
0.2518603 0.23967543 0.06790648 0.029048976 0.024227366 0.09155448 0.1827953 0.16644476
0.19574746 0.050718375 0.09859051 0.046480186 0.07121116 0.1537049 0.09552815 0.16270277
0.070648365 0.06861618 0.069830276 0.13422874 0.15481046 0.1468689 0.1043188 0.14082456
0.078150645 -0.044792872 -0.004460186 0.0005459201 -0.02498316 0.0020568983 -0.026468204 -0.08173606
-0.07989721 -0.09472643 -0.004780977 0.025787942 0.0040915976 -0.044076063 -0.07791444 -0.06970903
-0.11117381 -0.030049913 -0.041032188 -0.051444463 -0.04270916 -0.09929511 -0.12506863 -0.09346128
-0.10689822 -0.13718864 -0.15173799 -0.091302246 -0.16338575 -0.13343213 -0.13008314 -0.14259851
-0.080890864 -0.1955862 -0.11495389 -0.1261742 -0.10151975 -0.17196243 -0.09581895 -0.19427502
-0.0737543 -0.11188136 -0.0921423 -0.10314069 -0.051464234 -0.114850216 -0.074844316 -0.043121137
-0.14137469 -0.0956486 -0.11766537 0.020674648 0.0018945546 0.018482411 0.039975703 -0.09832939
-0.033887327 -0.00550657 0.046662696 0.19240656 0.10120836 0.14903802 0.10787921 0.10161125
-0.007582674 0.021430211 0.11554524 0.11340439 0.15392008 0.05208741 -0.007146069 0.052046124
0.10940912 0.10414014 0.12654535 0.14957702 0.0921118 0.07732627 0.038893446 0.00020314676
0.05743954 0.06566692 0.10333069 0.0052711815 0.009592329 0.046384137 0.04737181 0.04406701
0.094801545 0.045440584 0.06302608 0.060240243 -0.0041012294 0.006059051 0.01418123 0.0841119
0.067292534 0.0054866807 -0.0008850892 0.056921758 0.16243204 0.1244804 -0.027777234 0.013253813
0.11023346 0.11296507 0.14851837 0.17174757 0.07385957 0.03835946 0.049937487 0.039504446
0.12819621 0.19147126 0.2148311 0.20565675 0.13627727 0.12763709 0.10908183 0.08275386
0.23188438 0.24022658 0.27577525 0.15317582 0.07833326 0.19218302 0.03857744 -0.049584165
0.035746228 -0.09096742 -0.31110355 -0.020169502 0.042455606 0.093717225 0.025286237 -0.17479165
-0.26976338 -0.23303857 0.08271128 -0.040680945 -0.10945882 0.10702958 -0.07930385 -0.17306702
0.074559085 0.15052381 0.04311297 0.053447105 -0.16785099 -0.083243765 -0.016505975 -0.062329102
-0.049403634 -0.086950146 -0.062686525 -0.10606905 -0.010312381 -0.0016088778 0.029848322 0.017288603
-0.12943304 -0.14940727 -0.05648199 0.030796167 0.11111555 0.14600976 0.012313972 -0.15431441
-0.19746552 -0.03781882 0.19764689 0.32717323 0.29449663 0.046866335 -0.1466511 -0.16244388
-0.0378962 0.2652903 0.2909734 0.21897481 0.1743408 -0.0059925504 0.03754534 -0.10177591
0.15182875 0.13513823 0.18416438 0.16280812 -0.06388952 -0.05723274 -0.020876141 0.14485578
0.2682122 0.2038991 0.07011152 -0.026021153 -0.16471791 -0.085153304 0.025576591 -0.021353116
-0.08600956 -0.022616858 -0.026757488 0.10365808 -0.034250565 -0.056362245 0.009693799 -0.08666513

conv1.3.weight f4 [20]
00000000: f12b 563f 978f 373f 0918 433f d444 873f
00000010: ef57 333f 2ca3 6a3f 7520 223f 3285 723f
00000020: 430c 3f3f 1ad4 643f 8357 4c3f 62da 403f
00000030: b49e 3a3f e832 323f 47e2 233f 5682 4b3f
00000040: cd14 2f3f d590 403f df27 173f 1045 073f
0.836608 0.71703476 0.7620855 1.056788 0.7005605 0.9165523 0.63330775 0.9473449
0.74628085 0.8938614 0.7982103 0.75333226 0.7289841 0.69608927 0.64017147 0.7949575
0.68391114 0.75220996 0.59045213 0.52839756

conv1.3.bias f4 [20]
00000000: 83c2 223e 76dc 07bf 4342 31be d9fe a13d
00000010: 706e 6dbd 2dec 00bf 6b4a c4be 68ea f9bd
00000020: ac0f 053e c8a6 3d3e 78fc f1be a49a febe
00000030: 594f f8be e129 52be ee34 13be 6d7e 12bc
00000040: d58c 46bf d185 58bf 2b3a 79be e3d4 673d
0.15894513 -0.5307077 -0.17310433 0.079099365 -0.05796665 -0.50360376 -0.38338026 -0.122029126
0.1299426 0.18520653 -0.4726293 -0.49727356 -0.48498037 -0.20523788 -0.1437566 -0.008941275
-0.7755864 -0.8457919 -0.24338596 0.05659951

conv1.3.running_mean f4 [20]
00000000: 0e33 313f 3253 cf3e ec08 523f 6f32 2c3f
00000010: b531 b23e abdd 013f d86b 153f 134c 843f
00000020: 7a91 453e 66da 5b3f 9118 973e 7972 3c3f
00000030: 6be8 cf3e c571 8d3e 16e0 5e3e f1c6 ea3e
00000040: 9c03 863e e694 023e 4f72 dc3e 8f8d ba3e
0.6921853 0.4049316 0.82044864 0.67264456 0.34803548 0.50728863 0.5836768 1.0335716
0.19293776 0.85880125 0.2951093 0.7361217 0.40607008 0.27625862 0.2176517 0.45854905
0.2617463 0.12752113 0.4305596 0.36436126

conv1.3.running_var f4 [20]
00000000: 4c85 4240 9393 033f f4ad a13f 3cf8 3d40
00000010: 06ae dd3e 78cb cc3e dbbc 5f3f 0729 6c40
00000020: 2cd7 2e3f 974b 9240 9334 a23e 2e9c 413f
00000030: c7b9 113f dde7 1d3f 8a44 e43e d958 f53e
00000040: 4ef7 5a3e 69ce 0b3e bd69 3f3f feb9 2340
3.0393858 0.51397055 1.2631211 2.968276 0.43296832 0.39998984 0.87397546 3.690004
0.68297076 4.5717273 0.31680736 0.75628936 0.569241 0.6168192 0.4458354 0.47919348
0.21383402 0.13652958 0.7477072 2.558227

conv2.0.weight f4 [40, 20, 7, 7]
00000000: 0bf9 dcba 5062 0b3c 11aa d8bc d24e b6bc
00000010: 73c5 03bc 2473 9f3b 40db bc3c 80f4 33bb
00000020: 9017 06bd 3785 36bd 9806 fdbc e638 c3bc
00000030: 4b0e 933c ac04 a43c 0d3e bcbc 3f7d 80bd
00000040: 666a 8abd a57d adbc adca 1bbd c778 dbbc
00000050: 3265 8bbb f2bc 11bd 3d44 f1bc 46fa f0bc
00000060: 7eec 90bd f4a3 ccbc f11e a8ba 23da dfbc
00000070: 4fb4 64bd 5f82 64bd 0e74 68bd a061 2cbd
00000080: 41d3 a1bc c09d 903b c5ab c4bc 0ecc 5cbc
00000090: ebfc 41bd 1693 69bd 7a20 08bd 0480 eabc
000000a0: e7aa 30bc 0650 7dbc dfa3 fb3b c460 40bd
000000b0: 1eb1 0dbd 6d9d 81bb 2028 f6bb 3c96 443d
000000c0: 3c40 b43a e765 b5bd 12a5 9bbd 3ed6 3bbc
000000d0: 7006 863d 62ae f13d daf8 da3d f46a da3b
000000e0: 09a6 e9bd d79d 12be 5b6a 8abd 03ef 303c
000000f0: 059c 903d 5005 45bc 7880 a8bc 1930 81bd
00000100: 6abe 2bbd 8fc2 333d c8be d83d 9478 9c3d
00000110: 4abd 7d3c 32f6 6ebb 8191 04be 292e f8bd
00000120: 5b73 06bd 2da3 4bbd 8c19 2ebd 2614 debd
00000130: 73c7 d2bd e2c0 2dbd a596 15bd 55fc b7bb
00000140: a2b9 8cbd 3ceb 25bd f03f dabd a973 8abd
00000150: af28 d2bc 7e4a 653c 8a2f 593d 0c6e 2cbc
00000160: d2bf 81bc ecfa afbd 8ad7 b2bc ac7e a93d
00000170: 36b5 6c3d dea1 1d3e 1e5f 483c accc 123d
00000180: ecc1 4fbd 9f69 babb a85e 353d ad22 873c
00000190: df9f 723d ff4b 013e 46f7 dc3d 97a2 a03d
000001a0: 48b1 be3d 7dad e23d 0959 ba3d e6ac 2b3e
000001b0: 72f0 183e 5b77 e23d 9977 d63d b79e d53d
000001c0: c8f7 9d3d dd00 e03d 0151 313e 0f34 1a3e
000001d0: 6293 283e ab91 4e3d 7388 913c e8ee ba3c
000001e0: b06e 7c3d cfe8 b33d 13ac 533e a44b 0a3e
000001f0: c00f 8d3c d3f1 533d 5224 bdbd 002d 49bd
00000200: 392b 60bc eaa6 9b3c c22b 8fbd 2002 c0bd
00000210: 7854 c4bd 53d6 a9bb b009 17bd 528a 17bd
00000220: 6af5 01bd 9f98 4dbd 9ec6 85bd 99f1 01be
00000230: e585 f6bc a284 0cbd 3969 bdbd 723a b8bd
00000240: a65f 51be 3c77 37be 626f 78be e1f6 07be
00000250: 1fb7 01bd b1b1 adbb d2da af3d 07d3 063e
00000260: b684 063e 58c7 473e 5f81 1fbe f608 bfbd
00000270: ed09 09bc d408 0b3d 3e10 c53d ad87 183e
00000280: 0738 003e 21f9 b5bd 5819 dbbc e4fb 763b
00000290: 40e9 6a3d 3d2d db3d a1bc 343e 29b7 073e
000002a0: 18eb fcbd 4c1a c4bd 7a95 79bd 3077 7dbc
000002b0: 0932 9e3c aefe 9f3d 22d8 af3c e69a 6ebd
000002c0: dca7 5cbc 3c99 a1bd e786 05bd ed31 1c3c
000002d0: df81 d23d 8835 823d aaf5 81bc d4e4 b3ba
000002e0: c505 683d 998b 783d d864 c03d 166e 1c3e
000002f0: 5252 243e df19 963d d64a 343d a63e be3d
00000300: 29cc a03d fbc6 223e 7032 833e 406d 7b3e
00000310: c0dd 19bb ae38 9cbd e49f 1dbe 37b1 25be
00000320: 3bbb 1cbe fbd8 6ebd 22ff 333d 88d5 52bd
00000330: b8b7 08be 6875 74be ffa3 7cbe 0311 81be
00000340: 0b29 0ebe 60b7 2ebd 655c 8ebd 3467 f3bd
00000350: 7d01 83be 51a0 83be 74a9 81be 0833 19be
00000360: 4892 c2bd af1b 32be c6c2 3abe 89c7 93be
00000370: 0971 5bbe e426 84be 1729 0dbe a588 84bd
00000380: 3a7c 47be 6718 4fbe 2b0e 9dbe b2bf 80be
00000390: f791 59be a312 ecbd 5f5a 8abc ca3b 51be
000003a0: d2f1 82be 18f8 afbe 4658 89be 18df 59be
000003b0: 08cc b8bd aa89 5bbc e078 2bbe adf2 4bbe
000003c0: bb55 6fbe 7301 30be e759 b0bd 10db efbc
000003d0: dd22 243d fa3e 883e 0973 e63d e498 a3bd
000003e0: ef36 ffbd d37e 53be b207 5fbe fd02 0dbe
000003f0: f2ad 7c3e 4d5a e73d aa00 33bc 433c 14be
-0.0016858889 0.008507326 -0.026448281 -0.022254381 -0.008042681 0.0048660208 0.023053765 -0.0027458966
-0.032737315 -0.044560637 -0.030886933 -0.023830842 0.017951151 0.020021759 -0.022978807 -0.06273889
-0.06758575 -0.021178076 -0.038035084 -0.02679099 -0.004254007 -0.035580583 -0.029451484 -0.029416215
-0.07076357 -0.024980523 -0.0012826604 -0.027325695 -0.05583602 -0.055788394 -0.056751303 -0.04208529
-0.019754054 0.0044133365 -0.024007687 -0.013476385 -0.047360342 -0.057025038 -0.033234097 -0.028625496
-0.010782934 -0.015460974 0.007679447 -0.046967283 -0.03459274 -0.003955534 -0.0075121075 0.047994837
0.0013752053 -0.08857327 -0.07599844 -0.011464654 0.065441966 0.11800839 0.10691996 0.006665582
-0.11408622 -0.14318024 -0.06758567 0.010799172 0.07061008 -0.012025192 -0.020569071 -0.06308002
-0.04192964 0.043886717 0.10583264 0.07640186 0.015487025 -0.0036462662 -0.1294613 -0.12118179
-0.032824855 -0.049716163 -0.042504832 -0.10843687 -0.10291948 -0.042420276 -0.03652062 -0.005614797
-0.06871344 -0.04050754 -0.10656726 -0.06760342 -0.025654165 0.013994811 0.053023852 -0.010524284
-0.015838537 -0.085927814 -0.021831293 0.08276114 0.057790004 0.15393779 0.012229709 0.03583972
-0.050722048 -0.0056888605 0.044279724 0.016496027 0.059234496 0.12626646 0.10789351 0.078435116
0.093111575 0.110682465 0.09099013 0.16765174 0.14935473 0.110579215 0.1047203 0.10430663
0.07713276 0.10937665 0.17316057 0.15058921 0.16462472 0.05043189 0.01776526 0.022818998
0.061628997 0.08784639 0.2067111 0.13505417 0.017219424 0.051744293 -0.09235443 -0.04911518
-0.01368218 0.01900049 -0.06990768 -0.09375405 -0.09586424 -0.00518302 -0.036874473 -0.036997147
-0.031728186 -0.05019438 -0.06532024 -0.12689818 -0.030093143 -0.034306176 -0.09248585 -0.089955226
-0.20446643 -0.17916578 -0.24261239 -0.1327777 -0.03166878 -0.0053007235 0.085866585 0.13166438
0.13136563 0.19509637 -0.15576695 -0.09327881 -0.008364183 0.033943966 0.096222386 0.14895506
0.12521373 -0.08885408 -0.026745483 0.003768676 0.05735135 0.10701988 0.17650081 0.13253464
-0.12349528 -0.09575328 -0.060933568 -0.015470311 0.019310968 0.07812248 0.021465365 -0.05825319
-0.013467755 -0.07890555 -0.032599356 0.009533388 0.10278677 0.063578665 -0.015864212 -0.0013724812
0.056646127 0.060680006 0.093942344 0.1527637 0.16047028 0.07329153 0.04401668 0.09289293
0.078514405 0.15896218 0.25624418 0.24553394 -0.002347812 -0.07627998 -0.15393025 -0.16180883
-0.15305798 -0.058312397 0.043944485 -0.05147317 -0.13351333 -0.23872912 -0.24671935 -0.2520829
-0.13882844 -0.04265535 -0.069512166 -0.11884919 -0.25587073 -0.2570825 -0.25324595 -0.14960873
-0.09500557 -0.17393373 -0.18238363 -0.2886317 -0.21429838 -0.2581092 -0.13785206 -0.064713754
-0.19480982 -0.20224153 -0.30674872 -0.25146252 -0.21247087 -0.11526992 -0.016888795 -0.20432964
-0.2557512 -0.34368968 -0.2682516 -0.2127651 -0.09023291 -0.013399521 -0.16745329 -0.19916792
-0.23372547 -0.17188053 -0.086108975 -0.029279262 0.04007231 0.26610547 0.1125241 -0.07988146
-0.124616496 -0.20653848 -0.2178028 -0.13770671 0.2467573 0.112965204 -0.010925451 -0.14476113

conv2.2.weight f4 [40]
00000000: 2cca 683f 15b4 683f 4f64 2b3f b730 343f
00000010: dbe9 6e3f 1de6 683f bdca 513f 98cb 323f
00000020: f6c6 7d3f a1e2 393f 7432 523f 670f 8c3f
00000030: b5ab 5b3f 9a9d ff3e b341 343f 15ac 1d3f
00000040: d22e 383f 0e13 243f 18e5 753f a774 353f
00000050: 06f2 373f 696a 5a3f 8a63 5a3f 0c42 443f
00000060: ccab 3f3f 3001 303f 3749 593f 9615 283f
00000070: a186 873f 4621 7e3f 32c8 433f af89 453f
00000080: f9f7 5b3f 5169 473f 94d9 333f 8035 5a3f
00000090: d9f5 473f cc98 1e3f ad00 4c3f c251 093f
0.9093349 0.90899783 0.66949934 0.7038683 0.93325585 0.90976125 0.8194998 0.6984191
0.99131715 0.72611433 0.82108235 1.09422 0.8580888 0.49924928 0.7041275 0.615907
0.7194644 0.64091575 0.96052694 0.7088112 0.71853673 0.8531862 0.85308135 0.7666328
0.74871516 0.6875181 0.8487734 0.6565794 1.058796 0.9926952 0.7647735 0.77163213
0.8592525 0.77895075 0.7025387 0.85237885 0.7810951 0.619519 0.7968853 0.5364038

conv2.2.bias f4 [40]
00000000: 52cc bd3e c3f5 fa3d 5089 aebe 580d bebe
00000010: 890a 233e 4d6a 8c3e d02d cf3d 11ee 2b3e
00000020: 3395 203e f1c9 25be 9355 53bd fdbe 323e
00000030: c4ce 183e da3f b53e 2bdd ddbd f1ad 973e
00000040: 35f3 9abb 1a2f 2fbe bdb7 bebe 941c 23be
00000050: aa79 9a3d f870 51be efc6 223e e92c f93d
00000060: efcf 1bbe b35d 2e3e e725 5a3e 60e6 58bd
00000070: 04f4 883e e23f 973d e47f b03e a6d0 e5be
00000080: e96e 4d3e 8ec9 35be 6a02 953e 5756 503e
00000090: 4721 00bd 7e44 6fbe 1120 48bd ad1b 72be
0.37069947 0.122539066 -0.34089136 -0.37119555 0.15921988 0.2742485 0.1011616 0.16790034
0.15681915 -0.16190316 -0.05159528 0.17455669 0.14922625 0.35400277 -0.108332 0.29624894
-0.0047286996 -0.17107812 -0.37249556 -0.1592887 0.07542737 -0.2045325 0.158962 0.12166769
-0.15216039 0.17027931 0.21303521 -0.052954078 0.2674867 0.073852316 0.34472573 -0.4488575
0.2006184 -0.17752668 0.29103404 0.20345436 -0.031281736 -0.23365971 -0.048858706 -0.2364337

conv2.2.running_mean f4 [40]
00000000: e90e 2e41 9fab 0c40 23f5 923f 505c ec3f
00000010: 0538 b740 a717 4840 3c22 4240 6da7 8d3f
00000020: 6a04 0e40 f9ee 5440 2b53 9a40 134b 8a40
00000030: 5abb 1141 603f 4340 4274 df40 24f3 6040
00000040: 6486 0040 331f 3c40 ce74 9a40 9c88 f63f
00000050: 294b 7a40 d947 0340 b5e7 5340 05fe 1e40
00000060: b5f4 5740 4268 aa40 7d47 5940 6124 3040
00000070: 5273 6640 d266 5840 2721 a840 51e0 883f
00000080: 6899 593f 0e64 c43f 4a2f 9540 f19d 0941
00000090: 9641 7940 e5b0 ea40 4441 b63f 7d45 1441
10.87864 2.197975 1.148106 1.8465672 5.7255883 3.1264436 3.0333395 1.1066719
2.2190194 3.3270857 4.8226523 4.3216643 9.10824 3.050743 6.9829416 3.5148401
2.0082026 2.9394042 4.8267584 1.926044 3.9108374 2.0512602 3.3110173 2.4842541
3.3743107 5.325227 3.3949883 2.7522204 3.6007886 3.3812757 5.254047 1.0693456
0.84999704 1.5343034 4.6620226 8.60106 3.894628 7.3340936 1.4238667 9.266965

conv2.2.running_var f4 [40]
00000000: 8256 0743 b8cb fe41 44cc 4e41 6fb4 1241
00000010: 9485 f741 8777 bc42 2c20 c541 9486 1541
00000020: 6941 5541 8fcf a841 9a3f ec41 5b64 e642
00000030: ec92 8442 3af4 bb42 ba53 4942 8c2f fa41
00000040: e2b2 9f41 00b9 f741 ef15 3042 95c1 d441
00000050: 26f8 1442 0d8b fb41 a10f da41 8db7 7141
00000060: e10d bf42 99ac 4b42 29a4 b942 9c6a 1142
00000070: 7f22 b142 cdad 9642 17ac ff41 f13f 7d41
00000080: 0f98 3441 bf1f 7e41 e857 0e42 d919 7b42
00000090: 7c77 7f41 c96b 3143 2c4a 6a41 4bd1 6f43
135.33792 31.849472 12.92487 9.169051 30.940224 94.23345 24.640709 9.345356
13.328469 21.101347 29.531055 115.19601 66.28696 93.977005 50.331764 31.273216
19.962345 30.965332 44.02142 26.594522 37.242332 31.442896 27.257631 15.107312
95.52711 50.918552 92.820625 36.35411 88.567375 75.339455 31.959028 15.828111
11.287124 15.8827505 35.585846 62.77524 15.966671 177.42104 14.643108 239.81755

conv3.0.weight f4 [80, 40, 3, 3]
00000000: cb43 163e d983 2c3e cd2f 973d 7c5c 633e
00000010: 9514 783e 9bce 113e cdb9 223e 993f 2c3e
00000020: df57 633d 7660 0c3e 9aa8 363e 7edb 993d
00000030: 10e3 b03d 3325 ed3d c319 103d d63e 433d
00000040: 3fc2 063e 724e 743d c099 2fbe e56d fdbd
00000050: 9219 49bc f9a1 15be 57d0 1abe a9e2 053b
00000060: 9b4c 2ebe e2d3 01be 5611 47bd 0ecf c03b
00000070: ad32 2dbd 9599 13be 780f 623d 783a 4ebd
00000080: aa0a 05be 1d09 d3bc 8b05 67bd 2fef b7bd
00000090: 68b6 49bd 463a 64be b064 5bbd 04b7 5d3d
000000a0: 155a 50bd cfab fe3a 2543 f53c 1ade 3d3d
000000b0: 8603 5c3d e256 2b3b 6ce6 1bbd 4bda a5bd
000000c0: 5a7c c53d c110 3a39 0e21 f5bc 47b0 d93c
000000d0: 6d57 fe3c e4ec 3dbc 8a2e 9abe 9ef0 42be
000000e0: d10f 19be 276e a9bd 09f1 0939 4c52 933d
000000f0: 7451 30be ee89 1cbe c460 a5bc d2ec dabd
00000100: e800 dcbd f100 0abe 4ad9 c2bd d354 13be
00000110: f2a5 21be 5d43 2dbe e162 92be cb9a acbe
00000120: 1f37 97bd a588 1c3d f92a 8a3d a694 55be
00000130: da06 2b3c a51f 5f3d b2ad 94be 01d6 20be
00000140: fb9b 22be ce03 91be 9cab cdbe 7735 cbbd
00000150: cc1d a6bd 0b17 21be fd47 4a3e 7edc 21be
00000160: 9f70 68be e1b8 433d 0be3 143e ddba 893d
00000170: 61d0 05bd 11aa 203c f86e 5bbd 774a 08be
00000180: ae81 b83d 0c72 55bc 76ab 803d 03c5 a93d
00000190: 388b 01bd 0c5c 1abe 366a 543d 174b 3abc
000001a0: 4121 42be dcbc a23d 32a8 20bd 3c06 00be
000001b0: 7600 d2bb c64b ab3d 2393 0a3c 6fdc f73c
000001c0: 7b15 a43d 5f01 133d 2168 133d 0b4a c73d
000001d0: c106 8e3c cb90 05be b6d2 1ebe 2a17 a5bd
000001e0: db7d 98bd c585 25bd 84ee ddbd cbce b5bd
000001f0: 0bf6 38bd 21e9 65bd e3a8 b1bc a24d d6bd
00000200: 47a1 64bd 4172 0e3d dfde afbc d5c7 313d
00000210: 2c3e c5bd 5b9e 38be 165d 3fbd 3fcf 88bd
00000220: 69b1 7bbd 759b a5bd 52d7 ebbd 20ad a7bd
00000230: 7eb9 b7bd 9c28 5bbe cf02 2fbe 741f f9bd
00000240: 8e50 48be 04ac 70bd 62fa 3b3d 1f1c 5ebe
00000250: 2211 3dbb 8761 bb3d 273a 7ebe df52 04be
00000260: 7b5e b9bd 64ed ee3b 1c10 05bc c69b 86bc
00000270: 324b 58bb 4e30 f7bd f7d8 e8bc 9518 c73d
00000280: 40f6 30bd 0daa eb3c 1186 1abd 48a6 7b3d
00000290: d328 753e 14e2 a9bd c9c1 5f3a bf01 2c3e
000002a0: ebaa b1bd 6d7d cbbd 1930 93bd d3ab 353d
000002b0: 9059 03bb 90b1 01bd f865 0e3e e43d 823d
000002c0: 9e70 a8bc 3108 4a3e 8e21 ad3d 874d 42bd
000002d0: 88b6 58be 47c0 2fbe 1db3 20be d0e9 5ebe
000002e0: 3b66 68be 3e53 fbbd f2c3 8abe d559 7abe
000002f0: 275a dfbd 16f7 833d e683 cabd 25d2 fdbd
00000300: db1e 963d 0d66 07be d020 99bd b18f 52bd
00000310: c1d7 18be 8216 f9bd 01e1 6cba b0c7 a2bd
00000320: e9cb 483d c6bc de3a 9f47 213d f5e4 543d
00000330: 1673 0e3e aa9b 263e 252d 953e 0169 6cbe
00000340: f381 86be dfc3 3ebe 2fe5 3abd 171b 64bd
00000350: 122b ddbd e3a6 c6bd 2027 ddbd d181 23be
00000360: fc14 87bd 403d f6bc 7e6b 9c3c b201 8cbd
00000370: 37cf aabd 4601 af3c 071a 49bc 89e2 8abd
00000380: 9df3 97bc 6b23 173e d510 e73d bfb3 233e
00000390: d283 633d 2ac3 31bc 63fe a7bd 2ebe b63d
000003a0: 252f b6bc 7816 e8bc 45e7 403e bf04 e73d
000003b0: 5c20 5cbd 69d8 473e 2d21 f43d ca6f 87bd
000003c0: 50fa 793e 2ec5 5d3e 6c79 a93d 08a6 80bd
000003d0: 1a65 a5bc 831c dc3a 9c3b 14be 1415 d3bd
000003e0: 7320 0fbe 0a0a 55be 6d19 0cbe 82ba 75bd
000003f0: 5e78 253e 93f6 5c3d 180c ac3c 7df1 323d
0.14674298 0.16847171 0.07382164 0.22203249 0.24226601 0.1423897 0.1589119 0.16821136
0.055503722 0.13708672 0.17837754 0.07512568 0.08637059 0.11579361 0.03518082 0.047667347
0.13160037 0.059645124 -0.17148495 -0.12374476 -0.012274163 -0.14612569 -0.15118538 0.002042929
-0.1702141 -0.12678483 -0.048600517 0.005884058 -0.042284656 -0.14414056 0.055190533 -0.05034873
-0.1299235 -0.025761181 -0.05640177 -0.089811675 -0.04924622 -0.22287855 -0.05356282 0.054129615
-0.05086716 0.0019429865 0.029939244 0.04635439 0.053714298 0.0026144315 -0.038061544 -0.08098277
0.09642859 0.00017744584 -0.029922988 0.026573313 0.031047547 -0.011592124 -0.3011363 -0.190371
-0.1494744 -0.08272963 0.00013155131 0.07193431 -0.17218572 -0.15286991 -0.020187743 -0.10689701
-0.1074236 -0.13476922 -0.09514101 -0.14387827 -0.1578596 -0.16920228 -0.28591064 -0.33711848
-0.073835604 0.038216252 0.06746478 -0.20857486 0.010438645 0.054473538 -0.2903877 -0.15706636
-0.15879814 -0.28323215 -0.4016999 -0.09922307 -0.08111152 -0.15731446 0.19754024 -0.15806767
-0.22699212 0.047783736 0.14539735 0.067250945 -0.03266943 0.009806172 -0.053572625 -0.13309656
0.090091094 -0.013027679 0.062827036 0.0828953 -0.03162691 -0.15074176 0.051859103 -0.011370442
-0.18957998 0.07946178 -0.039222904 -0.12502378 -0.0064087464 0.08364062 0.008457932 0.030256478
0.080119096 0.03588998 0.035987977 0.097309195 0.017337205 -0.13043515 -0.15510067 -0.08061059
-0.0744588 -0.040410776 -0.10836509 -0.08877333 -0.04515652 -0.056130532 -0.021686977 -0.10464026
-0.05581787 0.03477693 -0.021468578 0.043403465 -0.09630999 -0.18029158 -0.046719633 -0.06680154
-0.06144849 -0.08086292 -0.115156785 -0.08187318 -0.08970927 -0.2140221 -0.17090915 -0.12164202
-0.19561979 -0.058757797 0.04589308 -0.21690415 -0.0028849323 0.09149461 -0.24826871 -0.12922238
-0.09051224 0.0072914828 -0.008121517 -0.0164317 -0.0033003804 -0.1206976 -0.02842377 0.097214855
-0.043203592 0.02876761 -0.037725512 0.061437875 0.23941354 -0.08295074 0.0008535651 0.16797541
-0.08675178 -0.099360324 -0.07186908 0.044353317 -0.0020042397 -0.031663477 0.13906085 0.06359461
-0.020561513 0.19729687 0.08453666 -0.047437217 -0.2116338 -0.17163192 -0.15693326 -0.2176888
-0.22695248 -0.122717366 -0.2710262 -0.2444833 -0.10905867 0.06443612 -0.09888439 -0.123935975
0.07330104 -0.13222523 -0.074769616 -0.051406566 -0.14926054 -0.12162496 -0.0009036214 -0.079482436
0.04902259 0.0016993515 0.039374944 0.051976163 0.1391109 0.16270319 0.29136005 -0.23086931
-0.26271018 -0.18629406 -0.045628723 -0.055689897 -0.10799231 -0.096998 -0.10798478 -0.1596749
-0.06595799 -0.030058503 0.019094225 -0.06836261 -0.08340304 0.021362912 -0.012274272 -0.067814894
-0.018548781 0.14759605 0.11282507 0.15986536 0.055545636 -0.010849753 -0.08202817 0.08922993
-0.022239277 -0.028331026 0.18838222 0.11280202 -0.053741798 0.19516148 0.1192039 -0.06613119
0.24411893 0.2165725 0.082751125 -0.06281668 -0.02018981 0.0016793165 -0.14475864 -0.10306755
-0.13977222 -0.20804611 -0.13681574 -0.05999232 0.16159198 0.05394609 0.02100186 0.043687332

conv3.0.bias f4 [80]
00000000: 9067 16be 0169 82be c49e 39bd 0107 823e
00000010: 7ef6 abbc a296 68be 0457 dabe 8fe5 0bbf
00000020: 9cb2 f8bd a949 06bf f466 02bf 83d1 8b3d
00000030: 7f57 50be af9b 22bf a42c 07bf 6f37 3cbd
00000040: 3626 c2be 5ccd cd3b 800e 61be e2fa 9e3e
00000050: 9d57 68bf 2663 9d3d 4ead a2be 33ad 64be
00000060: 7145 94bf c745 87bf 7057 38be fc29 9fbd
00000070: fa93 adbd b5fc 9bbe b097 8bbe 09ea 933d
00000080: 9da0 f3bd f9d7 a0bf 2701 b4be 8952 c1be
00000090: ddb6 663e d854 18bf 6c05 c2be fbdf 0cbf
000000a0: 97cc 20bf 7363 3c3e 648d 0b3f 53dd 1fbe
000000b0: 83d0 39bd 229b 13be 5ec4 1c3e f955 003f
000000c0: e87a f1be 26bb f9be 1e96 b1bd 9471 0dbf
000000d0: f82a dfbe fe40 80be ccf1 233f 5269 08bf
000000e0: 3ea2 0dbf 4ced a3bf 7b27 9fbe 8201 f73e
000000f0: 7208 98be 02c7 903e a382 963d 6394 62bf
00000100: c8bc 72bf 6dee 723d aaf9 5abe a26c ae3e
00000110: 85cd 95be 7c68 f5be 821e eebe 3865 32bf
00000120: b7b2 07bf 0ce9 dbbd 38f8 7bbe 04c9 32bf
00000130: 9ce1 b8be 3d1b 39be d45d 153e 64e7 4bbf
-0.14687943 -0.25470737 -0.045317426 0.2539597 -0.02099156 -0.22713712 -0.42644513 -0.54647154
-0.12143442 -0.52456146 -0.50938344 0.068270706 -0.20345877 -0.63518804 -0.5280249 -0.045951303
-0.37919778 0.0062805843 -0.21978188 0.31050783 -0.9075869 0.07684927 -0.31772846 -0.22331695
-1.1583692 -1.0568169 -0.18002105 -0.0777168 -0.0847549 -0.30466238 -0.27264166 0.07222373
-0.11895869 -1.256591 -0.3515713 -0.37758282 0.22530694 -0.5950446 -0.37894762 -0.5502927
-0.6281218 0.18397312 0.5451262 -0.15611772 -0.045364868 -0.14414647 0.15309283 0.50131184
-0.47164083 -0.48775595 -0.08671211 -0.5525143 -0.4358747 -0.25049585 0.6404083 -0.53285706
-0.55325687 -1.2806792 -0.3108481 0.48243338 -0.29693943 0.2827683 0.07349136 -0.8850767
-0.9481931 0.05930941 -0.21384302 0.34067255 -0.2925836 -0.47931278 -0.4650765 -0.696857
-0.5300707 -0.107378095 -0.24606407 -0.69837976 -0.36109626 -0.18076797 0.14586574 -0.7964995

conv3.2.weight f4 [80]
00000000: 5293 643f 248c f43e 86c5 1a3f db32 503f
00000010: 68ea 583f 54b4 4f3f 134d 2e3f 97ed 323f
00000020: 5dcf 1d3f 0f5e 363f b98a 213f aec9 5c3f
00000030: 9697 673f fe33 403f 2d41 113f 7b1c 873f
00000040: 7081 243f 2ef0 623f 9149 2b3f 2fa6 4c3f
00000050: e936 2f3f c8aa 3b3f 47f0 7e3f 9dc7 193f
00000060: 5bd3 693f 6ead 4d3f b066 163f 60dc 773f
00000070: 5100 053f e664 373f 357b 733f 2d48 363f
00000080: 3c05 1e3f 0c35 5d3f ef8a 263f e7ff a03e
00000090: dedd 473f dd86 3f3f a768 453f d997 4a3f
000000a0: 6462 483f 3cc3 813f 78fa 513f 03bd 5e3f
000000b0: 4503 2c3f 372d 353f 4eb1 103f e9ed 4f3f
000000c0: 9923 6d3f 5a55 613f 1d25 393f 2057 3f3f
000000d0: eecf 0a3f f2e6 553f bfa7 703f 51bd 2c3f
000000e0: 58c2 2c3f 54b6 4b3f 22a5 243f 548d 393f
000000f0: c45b 293f 680a 5a3f 98bb 3b3f 58a9 3b3f
00000100: ad15 183f e8f3 273f b96d 173f 3d42 653f
00000110: 2267 3f3f 09cf 353f 3b86 4e3f 6fd8 db3e
00000120: c0ea 2b3f ff9a 603f d405 3b3f 0618 6f3f
00000130: fa4f 6a3f 0f38 323f d4f1 563f d6ea 183f
0.8928729 0.4776317 0.60457647 0.813276 0.84732676 0.81134534 0.68086356 0.69893783
0.61644536 0.7123727 0.631023 0.8624524 0.90465677 0.75079334 0.56740075 1.0555567
0.64260006 0.88647735 0.6690913 0.79941076 0.6844316 0.73307467 0.99585384 0.6007021
0.9133813 0.8034276 0.5875044 0.9682064 0.5195361 0.71638334 0.95109874 0.7120388
0.6172674 0.8640907 0.65055746 0.31445238 0.7807292 0.7481516 0.7711281 0.7913795
0.7827513 1.0137706 0.8202281 0.8700716 0.6719249 0.7077212 0.56520545 0.812224
0.9263244 0.8802086 0.72322255 0.7474232 0.54223526 0.8355552 0.9400596 0.67476374
0.67484045 0.79575086 0.6431447 0.72481275 0.6615565 0.8517213 0.7333312 0.73305273
0.59408075 0.65606546 0.591518 0.89554197 0.74766743 0.71019036 0.8067357 0.42938563
0.67155075 0.87736505 0.7305577 0.9339603 0.91528285 0.6961679 0.8396275 0.5973333

conv3.2.bias f4 [80]
00000000: 56e8 1c3f cb7f e43d b8ae 393e dcb0 89bd
00000010: 09b8 be3e 1cbd e63e 72e6 4d3d f6ec c7be
00000020: f498 4f3e 99a0 14bd b6e8 c4bc 7e87 133f
00000030: 1708 133f 689e 2a3e 14dd c1be 400e 223f
00000040: a4e3 92be fce9 173f b996 a13e f9f7 14be
00000050: c174 88bd 46ea b53e 839a 003f efeb a6bd
00000060: 7b53 8c3e ab17 593e dacd fd3d 4a6f e43e
00000070: a2c7 f6bd f213 af3d 927d d53e 7773 89be
00000080: 2b00 8cbe 9c27 3a3e 44b9 613d 67cf b3be
00000090: 4a46 773e 7316 d0bd 9335 623e 4880 953e
000000a0: e06c 153d 2e49 233f c86c fd3e b809 453e
000000b0: b272 4d3d d943 ecbe 1add 59bf d227 0e3f
000000c0: 0ee5 af3e 0f92 a93e ed6e 213e 9e01 213e
000000d0: 5019 35bf 5aa9 803e 2ddf 173f 9377 e0be
000000e0: f91e eb3d 5f6c 753e a13b 333e 0c08 e5be
000000f0: 77d0 0fbe 4615 073f b432 c7bd bbbe c4be
00000100: c115 73bf ceb6 f33d 42ac 55bd b20f 823e
00000110: de42 8a3e e643 993e d1d4 a43e 2a5a 2bbf
00000120: 5a6b 663e dc6d bb3e 3149 ce3d 9571 e23e
00000130: 3172 eb3e 6323 67be 9af2 9d3e c493 23bf
0.61292017 0.11157187 0.18133056 -0.067231864 0.37249783 0.45066154 0.050268598 -0.39047974
0.2027319 -0.03628597 -0.024036746 0.5762862 0.5743422 0.1666199 -0.37863982 0.63302994
-0.286893 0.59341407 0.31560305 -0.14547719 -0.06662894 0.355303 0.50235766 -0.081504695
0.2740744 0.21200435 0.12392779 0.44616157 -0.12049796 0.08548726 0.41697365 -0.26845905
-0.27343878 0.18179172 0.055108324 -0.35119173 0.24147907 -0.10160532 0.2209075 0.29199433
0.036480784 0.6378354 0.49497056 0.19241989 0.05015821 -0.46145514 -0.85103 0.5552951
0.34354442 0.33119246 0.15764971 0.15723273 -0.7074175 0.25129205 0.59324914 -0.43841228
0.11480517 0.23967122 0.17503215 -0.44732702 -0.14044367 0.52766836 -0.09726468 -0.38426766
-0.9495507 0.119001016 -0.05216623 0.254026 0.2700414 0.29934615 0.32193616 -0.66934454
0.22501889 0.36607254 0.10072554 0.4422728 0.4598556 -0.22572093 0.30849153 -0.6389735

conv3.2.running_mean f4 [80]
00000000: 628c 7940 910f ed3f c700 9f3f ec16 ea3f
00000010: 7c14 1940 824c b43f 49ac a63f 493f a13e
00000020: 175f b83f 3fc2 9d3f 7ef5 1240 6293 5040
00000030: 4ff9 683f 3fb8 0440 a441 8c3f 7451 0c40
00000040: 9d3f 2940 cb75 e43f fb6b e23f b799 fa3f
00000050: 42e7 0e3e 9f7d 0440 acd1 c23f 1f3b 773f
00000060: 0126 583f 1989 323f b5b4 263f 14fd 1040
00000070: b6be 0540 04a3 7a3f 25d7 2440 7ab3 1840
00000080: c6a7 353f 8b09 6a3f fe91 6b3f 734a f63f
00000090: e1ee 2340 1833 c23e b2d9 393f 1da6 d93f
000000a0: 9322 603f 363a 6c40 d266 8a40 941c 4140
000000b0: 03b8 1540 43b7 293f e2e1 173f 07ea 7b40
000000c0: ca76 a73f 1f0d d13f 542a d13f 2e48 ac3e
000000d0: a078 2d3f 4503 5e3f 3b37 4240 6640 8d3d
000000e0: 1119 8c3f b3cf 9a3f 8693 0240 986e 5140
000000f0: 0353 2b3f 88b0 6040 06eb d73f 5dcb 223f
00000100: b786 61bc ed27 763f 22f8 b23f 1e36 0e40
00000110: 48e0 903f f504 a03f 4c7b ac3f 1afb da3d
00000120: 686f f43f e574 903f 8377 0940 08dc 493f
00000130: 440e 1640 9751 983f 725f 0140 d41b da3c
3.8991933 1.8520375 1.2422112 1.8288245 2.3918753 1.4085848 1.3021327 0.31493595
1.4404019 1.2324904 2.2962337 3.2589955 0.91005415 2.0737455 1.0957532 2.1924715
2.6445076 1.7848448 1.7689203 1.957816 0.13955405 2.0701673 1.5220237 0.96574587
0.8443299 0.69740444 0.6511949 2.2654467 2.089765 0.9790499 2.5756314 2.3859544
0.70959127 0.9142081 0.9201964 1.924147 2.561455 0.37929606 0.725978 1.7003819
0.87552756 3.691053 4.3250513 3.0173693 2.3393562 0.6629526 0.59329045 3.936159
1.3083127 1.6332129 1.6341043 0.3364882 0.67762184 0.8672374 3.034621 0.06897049
1.094515 1.2094635 2.040254 3.272375 0.6692354 3.5107746 1.6868598 0.6359156
-0.013765029 0.9615467 1.3981974 2.222053 1.1318445 1.2501513 1.3475127 0.10692425
1.9096498 1.1285673 2.1479194 0.78851366 2.3446207 1.1899899 2.0214505 0.026624598

conv3.2.running_var f4 [80]
00000000: 49a5 a641 7ff1 2e41 4a9e 8540 3dc7 6a40
00000010: db62 8941 fb7e cd40 8c90 9040 8191 df3f
00000020: ca29 cf40 2d4a 5141 faca 8241 5b16 5c41
00000030: 2da2 5b40 2f61 5c41 b34c 7740 fb64 0841
00000040: 37d8 2041 9124 fc40 fc2f 8240 0539 8140
00000050: 1ec5 823f 077d ee40 f726 2241 6028 0341
00000060: f3cb 1841 40cc c040 4f74 3b40 193f 0741
00000070: 9591 4041 8f71 9740 b03d 4641 957a aa40
00000080: b56a 0e40 5c6e e040 9396 9c40 a379 4b41
00000090: bd6e 2341 6494 3040 db4f d940 d403 8c41
000000a0: eef6 d440 4f2f 2e41 3652 4841 28fe 6041
000000b0: aac3 0241 775b 4140 61e4 e83f 8996 0a41
000000c0: 5f0e 5f41 9853 9f41 1414 5e41 8836 1f40
000000d0: c60f 0540 d9e3 2b40 22b2 e540 a22f 8c3f
000000e0: 9248 6f40 185e 8741 79d8 9a41 dd36 1041
000000f0: ad48 2f40 4ffa 1b41 63e8 0d41 4832 8740
00000100: 11f3 e63e 52ff 8440 c5b2 6f40 a17d c240
00000110: 8bc7 1741 373b 1e41 8be2 2441 e4bc 343f
00000120: 69fc bb41 acac 9540 8ead 8941 9aec bf40
00000130: 1bb7 4941 aedd 8e40 6a87 fa40 8ec6 293f
20.830706 10.933959 4.1755724 3.6684105 17.17327 6.4217505 4.517645 1.7466279
6.473851 13.080609 16.34911 13.755458 3.4317734 13.773726 3.8640563 8.524653
10.052787 7.8794637 4.0683575 4.0382104 1.0216405 7.452762 10.134513 8.197357
9.549792 6.024933 2.928974 8.452905 12.0355425 4.732612 12.39006 5.3274636
2.2252629 7.0134716 4.8933806 12.717196 10.214536 2.759057 6.790998 17.50187
6.655143 10.88655 12.520071 14.06205 8.17277 3.0212076 1.8194696 8.661752
13.941009 19.915817 13.879902 2.4877033 2.0790877 2.6857817 7.1779947 1.0952036
3.7388043 16.920944 19.3557 9.013394 2.7388108 9.7486105 8.869235 4.224888
0.4510732 4.156167 3.7452862 6.0778356 9.486217 9.889457 10.305308 0.70600724
23.498247 4.677328 17.209743 5.997632 12.6072035 4.4645605 7.82903 0.66318595

conv4.0.weight f4 [120, 80, 3, 3]
00000000: 8976 c8bc a62b 543d 5224 fdbd f196 54bd
00000010: ddd2 69bc 142e b8bc 1912 be3d 1f63 903d
00000020: bc05 3c3d 2d0a 973c d856 87bd feff 0abe
00000030: 1348 a33d de61 45bb f921 82bd 2990 2d3d
00000040: 7be9 babd 20e1 6cbd a3f7 0d3e bf9a 553e
00000050: 6e46 e83d 43a0 473e accd 403d 4e11 793d
00000060: f08b 12be 81d6 15bd 5b03 5fbd 22be bb3d
00000070: 2480 0c3d 1a6d e3bb 3871 803b ffe4 d33c
00000080: c5da 0d3e da4d c83d 8505 343d 28db bc3c
00000090: e2f5 1fbe 8bc5 34be 7b5f d9bc 8be8 1ebe
000000a0: 05f2 76be 2f78 e5bd 299d 4b3e 32cb f3bd
000000b0: e030 b53b 0b3f 203e 988e 623e 28c2 853c
000000c0: 12f2 f1bc 64a9 523e d688 253e 3080 e9bd
000000d0: b8e5 37be e207 a2bc 0fd0 4f3e 2732 eb3d
000000e0: 7f8d 393d a760 b73d a872 413e bbd3 a13e
000000f0: a950 11be 7670 11be 0e82 ae3b bc55 ec3d
00000100: 1a8f 3a3e 2e6a c73d 3e25 13bd 23e9 043e
00000110: 1514 8b3d d513 4cbe 8e90 86bd bf8a 093e
00000120: 11c4 3bbe df9b 6bbd d9a6 efbd b7ea 1cbc
00000130: d5d5 be3c e81a debc 1908 d0be 4a33 9ebe
00000140: 4597 65be 698c ae3d a12a e7bc a880 e6bc
00000150: 52be 303d 3228 53bb 938d f1bd 4ece 983c
00000160: 2c6b 47bd 237b 21be ccac 563d 56e3 383d
00000170: 94ec a53c 0a1f ba3d 9fc8 6c3d 6a53 b83c
00000180: 5aee 8fbc ea82 c4bc 48a6 663d d63a 7fbe
00000190: ac85 04be 67ab d2bd 3067 34be 5959 55bd
000001a0: 3071 a1bd 2a72 223d 0281 9bbd c931 5bbd
000001b0: b7a2 b8bd 5a72 2abe d968 2dbe f4df b83d
000001c0: 9937 c83b e9ed 97be 42ab 4a3e 61de babd
000001d0: 9e93 9dbd 81bc a63c 27e9 943d c3f7 933d
000001e0: 0b65 793e ac93 c23d 1826 123d ab1a 133e
000001f0: 03be b1bd edfe 90bc 1ff4 0abd cb65 fdbd
00000200: 74c1 acbd ac26 b03d 3045 263c 1fd6 2a3c
00000210: 21d4 e03d a481 3f3d 2620 bdbc c8f3 5b3d
00000220: 916c 003e 63c5 d23d 56ef 163c c8b9 363e
00000230: 941a 353e bdb8 193e 36ad aa3d f045 9d3e
00000240: 6b16 423d 616e d7bc 951d ea3d d851 0a3e
00000250: f300 bbbb b490 733e f5ed 373c 900c 503d
00000260: 7597 3b3d 11cf 163d b842 9b3d c49f c0be
00000270: 93d3 9fbd f469 af3d a38b 0fbe b0b1 40be
00000280: 6736 46bc 64a6 96be af99 373c 48ac bd3c
00000290: dc3e 403b c9b2 2cbe e637 35be 6ad7 c6bd
000002a0: 81f2 8bbe e7b5 9cbe 7279 51be e07b 033e
000002b0: ab6e b03d 9d19 593e 29d4 e83d 7c50 993d
000002c0: 9068 5e3e 05ae 003e 4367 16bc d849 1c3e
000002d0: 26a6 0a3e c550 043e 9b4a 433d d628 bf3d
000002e0: da71 3cbc 280a 17bd 9f9f fabc f009 bbbd
000002f0: b607 cdbc 30c2 d63d 980d 0c3e 6512 293d
00000300: d3e0 033e 24b5 8c3e dd47 5e3e a5e4 bebd
00000310: 8e28 c53d f05f a33b ae98 bfbc 28b5 0c3e
00000320: c0b7 89bd 395e d03d af38 073e 3be9 edbc
00000330: 6cfc e33b 488b 023d 9d40 58be b911 d73d
00000340: 98bc 02bc 1504 07bc 17d6 b73d cfe6 2d3d
00000350: cfb0 a83c 7be2 c5bd 81dd 30be 5135 79bd
00000360: 9e52 593e d766 263e 4644 cebd d4f8 363e
00000370: ebf0 953d 028d 57be a208 333e 7357 80be
00000380: 5329 79be 14a2 03be c1b2 983c 71c9 c33a
00000390: 493c a03c 0198 693c 672a 003c 15a6 013e
000003a0: 5286 b03d 5f7e 1dbe 8eec 183e 84fd 243e
000003b0: 7827 cabd 6971 643d 5832 d0bc 7d1e 0c3e
000003c0: e780 33bd 4fb3 d7bd 5875 abbd e390 33be
000003d0: 21fe 88bd fad6 27bc 3b20 3fbe de05 a5bd
000003e0: 389b 9b3b c795 d4bd 22b1 72bd 0ee2 09bd
000003f0: b4bf 8e3d c86b 80bd 049a 1fbe aea0 3f3d
-0.024470584 0.05179944 -0.12360443 -0.05190176 -0.014271465 -0.02248291 0.092807956 0.07050156
0.045903906 0.01843747 -0.06608361 -0.13574216 0.079727314 -0.0030118148 -0.06354136 0.04237381
-0.09126564 -0.057831883 0.13863997 0.20859812 0.113415584 0.19494729 0.047071144 0.06080752
-0.14311194 -0.03658152 -0.05444656 0.09167124 0.034301892 -0.006940496 0.0039197467 0.02586603
0.13852985 0.09780474 0.043950576 0.02305372 -0.1562114 -0.17653482 -0.026534786 -0.15518396
-0.2411576 -0.11204564 0.1988417 -0.11903991 0.005529508 0.15649049 0.22124708 0.016327932
-0.029534373 0.2057243 0.1616548 -0.11401403 -0.17958724 -0.01977915 0.20294212 0.11484175
0.045300957 0.08953982 0.18891394 0.3160685 -0.14190926 -0.14203057 0.0053255623 0.1153979
0.18218651 0.09737049 -0.03592419 0.1297956 0.0679094 -0.1992944 -0.0657054 0.13431834
-0.18336512 -0.057521697 -0.117017455 -0.009577445 0.023295322 -0.02711244 -0.40631178 -0.30898505
-0.22420986 0.08522875 -0.02821857 -0.02813752 0.043150254 -0.0032220003 -0.11794581 0.018653061
-0.04868619 -0.15769629 0.052410886 0.04513868 0.02025441 0.090879515 0.057808515 0.022500712
-0.01756971 -0.023988206 0.056310922 -0.24924788 -0.12941617 -0.10286599 -0.17617488 -0.05208716
-0.07882917 0.039659657 -0.07592966 -0.053514276 -0.090154104 -0.16645184 -0.16934527 0.09027091
0.0061101434 -0.296737 0.19791892 -0.09124447 -0.07694171 0.020353558 0.07271033 0.07224991
0.24354951 0.095008224 0.03568086 0.14365642 -0.0867882 -0.017699683 -0.03392422 -0.12372931
-0.08435336 0.08601126 0.0101483315 0.010427027 0.109779604 0.046754494 -0.023086619 0.053699285
0.12541415 0.10291555 0.009212336 0.17844307 0.1768592 0.15011878 0.083338186 0.3071742
0.04738466 -0.02629775 0.114314236 0.13507783 -0.0057069003 0.23785669 0.011226167 0.05079323
0.045798738 0.036818568 0.07581085 -0.37621891 -0.078040265 0.08565131 -0.14018111 -0.18817782
-0.0120979315 -0.2942382 0.011206075 0.02315344 0.0029334342 -0.16865076 -0.17697105 -0.09709056
-0.27333453 -0.3060753 -0.20456484 0.12840223 0.08614858 0.21201177 0.11368591 0.07486054
0.21719575 0.12566383 -0.009179893 0.15262544 0.13539943 0.12921436 0.04767857 0.09333961
-0.011501754 -0.03687492 -0.030593691 -0.09132755 -0.02502809 0.10486257 0.1367706 0.041277308
0.12878732 0.2748195 0.21707101 -0.09320954 0.09626876 0.004985802 -0.023388233 0.1374098
-0.06724501 0.101742215 0.13205217 -0.029041877 0.0069575813 0.03187111 -0.21118398 0.10501427
-0.007979535 -0.008240719 0.08976381 0.042456444 0.020592121 -0.09662338 -0.17271997 -0.060841862
0.21222922 0.16250168 -0.10071616 0.17868358 0.07321342 -0.21049884 0.17483762 -0.25066718
-0.2433217 -0.12854797 0.018639924 0.0014937354 0.019559996 0.014257432 0.0078226095 0.12661012
0.086193696 -0.15380238 0.14933988 0.16112334 -0.09870809 0.05577222 -0.02541463 0.13683505
-0.043824103 -0.10532247 -0.08371991 -0.17535739 -0.06689096 -0.0102441255 -0.18664639 -0.0805776
0.004748728 -0.1038013 -0.05925096 -0.03366285 0.06970158 -0.06270558 -0.15586096 0.046784095

conv4.0.bias f4 [120]
00000000: 3100 4fbe 825e 2dbd 2a40 ccbd 92f3 a3bd
00000010: e1a7 72be 0829 af3e 2c5e edbe d1d5 32bf
00000020: 576e 53bd 717e bcbe 48f4 04be bdc8 5bbe
00000030: 44c6 43bd 78b5 82be afc2 70bd 2574 8dbd
00000040: dfd2 aabe f6af 58bf 61fa 8fbd e102 aabe
00000050: 7eb8 97be 32f8 983e 6b01 a2bd 6b7c 05bf
00000060: 86fb 1ebe 0e12 1bbf 0bcc 6cbe 3931 f5bc
00000070: f138 7ebe 695f 0cbf 2863 68bf d74b b4be
00000080: 580b 51bf 9581 c1be 1231 513e 42b8 cf3e
00000090: 5f2a 8bbe e0be bcbe bfdc f6be 6b7d c6bd
000000a0: 2d75 413e 05ca 80be 8f76 83be 7935 69bf
000000b0: ebdb 81be 513d 30bf f488 6fbe d04e 5abe
000000c0: 7033 b7bd 541b 24be 2ea5 0dbe de18 c73d
000000d0: 2ce8 6bbe 95ec ce3e b18c 5abe 3fdc fa3d
000000e0: 4d13 e6be 0d60 a4be fb6b 58bf 1df5 c0be
000000f0: 2a9d f8be c024 70be febf 81be c2db e0be
00000100: 3176 58be 3dce fabe cfe4 7ebe 1659 dcbe
00000110: 976d 99be a8d4 0dbd 31dd a7be 5ccc 40be
00000120: 7981 29bf b295 f0be e67a fabd cd9a aabe
00000130: baff e0bd 03de a3be bdc5 91be 4096 a83e
00000140: b205 2ebe 26e5 9ebe 1c70 8ebe 8e94 a8bc
00000150: cfbc 3bbe 801d d8be fb7e 05be 4d29 d1be
00000160: bc34 b2be 34f0 a5be 885a bbbe 865e b6bd
00000170: c91c 5dbe 58c8 24be 2406 fabd 64b5 80be
00000180: 383b 1dbf 5883 45be fe8b 8abe 5cbb c3be
00000190: bd29 5fbe c113 5dbf b5e5 62be d18b a5be
000001a0: 2fae f0be 75bf 45be 5b2f d0be 6154 58be
000001b0: f818 ccbb a767 41be 0ad2 893d ae13 c2be
000001c0: f73a b9be 42da 1bbe 22c0 a8be e79d 5abe
000001d0: a38e 0abf ba08 32bf e78f fbbe ccb6 08be
-0.20214917 -0.042326458 -0.09973176 -0.08005442 -0.23696853 0.34210992 -0.4636091 -0.6985751
-0.0516189 -0.36815217 -0.12983811 -0.21463294 -0.047796503 -0.25529075 -0.058779415 -0.069069184
-0.33364007 -0.84643495 -0.07030178 -0.3320532 -0.29632944 0.29876858 -0.07910427 -0.5214297
-0.15525636 -0.60574424 -0.23124711 -0.029930698 -0.24826409 -0.54833084 -0.907763 -0.3521411
-0.81657934 -0.37794176 0.20428875 0.40570265 -0.27180764 -0.36864376 -0.4821529 -0.0969189
0.18892355 -0.2515413 -0.2567639 -0.9109722 -0.25363097 -0.6884356 -0.23392087 -0.21319127
-0.08945358 -0.1602605 -0.13832542 0.0972154 -0.23037785 0.40414873 -0.21342732 0.1224904
-0.449366 -0.3210453 -0.84539765 -0.37687007 -0.48557407 -0.23451519 -0.2534179 -0.43917662
-0.21138836 -0.48985472 -0.24891971 -0.43036717 -0.29966423 -0.034626633 -0.32785943 -0.18827957
-0.66213185 -0.46989208 -0.12230472 -0.3332123 -0.10986276 -0.3200532 -0.28471175 0.32927132
-0.1699436 -0.310342 -0.27819908 -0.020578649 -0.18333744 -0.42210007 -0.1303672 -0.40851822
-0.34805858 -0.32409823 -0.36592507 -0.08904748 -0.21593012 -0.1609205 -0.122082025 -0.2513839
-0.61418486 -0.19288385 -0.2705993 -0.3822888 -0.21793266 -0.8635827 -0.22157939 -0.32333234
-0.47007892 -0.19311316 -0.4066113 -0.21125938 -0.0062285624 -0.18887196 0.06729515 -0.3790564
-0.361778 -0.15219977 -0.32959086 -0.21349297 -0.54123896 -0.69544566 -0.49133226 -0.13350981

conv4.2.weight f4 [120]
00000000: 47b9 423f 1f87 333f 00cc 443f bc27 393f
00000010: abb6 3a3f 0a80 883f 91fc 423f ff65 363f
00000020: 3fe4 723f f6f1 6a3f be8c 483f 1089 633f
00000030: 1462 6f3f fd63 523f c172 403f d071 743f
00000040: 3374 413f 6ae4 433f b376 623f 4095 5a3f
00000050: b549 683f 6b21 5c3f c64c 323f b05e 453f
00000060: d838 593f 6222 5d3f e49f 503f b3f6 3c3f
00000070: dad8 203f d51a 543f 04ab 4d3f 4bba 3d3f
00000080: c8dc 433f ba5b 613f 837a 6f3f 0d57 8d3f
00000090: 3968 6c3f 5015 423f 9ead 743f 75c5 503f
000000a0: 3898 773f a248 393f 087f 483f b0cb 6b3f
000000b0: 0df2 5b3f 16aa 463f aa1a 933f f711 483f
000000c0: 0bf0 473f c539 4a3f 81e0 6f3f c394 6b3f
000000d0: bddd 413f e2e0 6d3f 67d3 463f a95f 533f
000000e0: 13fe 823f e96d 603f 15ee 673f 9b4e 593f
000000f0: bf53 373f 2a27 413f b376 513f 997b 713f
00000100: 2499 423f d32e 493f c730 3b3f 3c58 513f
00000110: d7b4 303f 73a6 5d3f 5d92 543f 7290 623f
00000120: 0af4 5b3f 18f1 6c3f 79e0 523f a76e 3e3f
00000130: f927 653f 9549 783f d80b 3e3f 9410 813f
00000140: aa66 373f 1a28 5d3f ebdf 403f 033a 9a3f
00000150: 5604 613f 8819 533f f110 4d3f 34b6 523f
00000160: 8042 6b3f e26f 3e3f 0371 623f 123f 683f
00000170: 3239 563f a311 423f f46c 313f 1e34 6b3f
00000180: 4965 413f 09e9 573f 0a0f 433f 5b40 283f
00000190: 0933 6d3f a1a3 5b3f 546f 383f a425 4b3f
000001a0: ebf2 413f 3a03 4a3f 8bc6 463f 87c1 463f
000001b0: 1bdd 6f3f be37 313f b4f6 1c3f d584 543f
000001c0: 2f30 2f3f 719b 803f 098c 4d3f 6a6e 413f
000001d0: 3dff 3f3f a3eb 2d3f 6496 383f ced0 293f
0.7606396 0.70128053 0.7687378 0.72326255 0.7293498 1.0664074 0.76166636 0.71249384
0.94879526 0.91775453 0.78339756 0.88881016 0.9350903 0.8218382 0.751751 0.95486164
0.7556793 0.7652041 0.8846237 0.8538399 0.9073747 0.8598849 0.69648397 0.77097607
0.8485236 0.8638059 0.81493974 0.73813933 0.6283089 0.8285344 0.80339074 0.74112386
0.7650876 0.8803059 0.93546313 1.1042191 0.9234653 0.7581377 0.9557742 0.81551296
0.9671664 0.72376454 0.78318834 0.9210768 0.85916215 0.7760328 1.1492512 0.7815241
0.7810065 0.789944 0.9370194 0.9202387 0.7572897 0.9292127 0.77666324 0.8256784
1.0233787 0.8766771 0.9059766 0.8488557 0.7161216 0.75450385 0.81821746 0.9432922
0.76014924 0.78587073 0.73121303 0.8177526 0.6902594 0.86582106 0.8303583 0.88501656
0.8591925 0.9255538 0.8237377 0.7438759 0.8951412 0.9698728 0.7423682 1.0083184
0.7164103 0.86389315 0.7534167 1.2048954 0.8789724 0.8246083 0.80103976 0.8230927
0.91898346 0.7438947 0.8845369 0.9072124 0.83681023 0.7580816 0.69306874 0.918764
0.75545174 0.8433996 0.7619482 0.657232 0.92656 0.8579655 0.72044873 0.7935431
0.7576129 0.78911173 0.776467 0.7763905 0.93696755 0.6922568 0.6131394 0.83015186
0.684329 1.0047437 0.802918 0.75559103 0.7499884 0.6793768 0.7210448 0.66334236

conv4.2.bias f4 [120]
00000000: af0f 383e 6abb 14be 814a a9bd d23f 98be
00000010: 1fb8 46bd e147 393e 6833 23be 8ccf bd3d
00000020: 06ca e0bd d1e8 93be fe1d 21be 9a04 1dbe
00000030: 1158 a13a 8a18 ad3d b1c6 a8bd c0df a83d
00000040: 631d 99bd a973 98be dda6 9abc 65aa 9abe
00000050: a4bf c0be 5839 29bd 7b8b 213e a53f 013e
00000060: 241f d5be 8ff3 593e 3c0c 54be f2cf 6ebe
00000070: e64d 413b b923 fabe acea b5bd 7f08 94be
00000080: edf5 8538 fd93 11be 67e6 173d f0b0 09bd
00000090: 010e b8be 52f5 9dbe acea fabe dad1 84be
000000a0: 4e0f 493d 35c8 1cbf 3e43 35bd 5053 aa3b
000000b0: 6d3f babd d4a2 87bd c89d 26be b8b7 e53c
000000c0: 9322 2abe 8c7d fd3d 84f6 b2be 2779 123e
000000d0: 5190 00bf c2ad 993c 32b8 a3be 8cc3 09be
000000e0: 8d9d b83d 7ae3 07be 37e6 3c3e 18ea e8bd
000000f0: 7a99 9d3e 1ebf 25be 978d 8cbe 50b8 56bf
00000100: 5c90 49be ad11 fbbe f85b 3cbd 6495 c3be
00000110: dff9 76be 6b5c 083e 8f53 69be dd10 84bd
00000120: c56c 013b 1eee 58be 32e1 8abe 230b a5be
00000130: 8429 03be 05f6 c3be a856 133e affc b4bd
00000140: e3a8 b5bd 2723 26be d9f9 ddbd cd6b 243d
00000150: 5203 e1bd 58f5 9dbe b6c2 afbe 88b9 6dbf
00000160: e967 8dbd 23e9 cfbe e6d1 a9be 01ca 40bd
00000170: 0448 a4be b34b 94be 4267 08bf 9f71 b4be
00000180: e30f 693b ed19 d0be a861 02be d679 02bf
00000190: 0d02 47be f6f5 23be 4fd4 00be 1c3f bbbe
000001a0: 0442 133d db89 8dbe d1f8 ebbd 7831 eebd
000001b0: 5b65 27be 09d0 10bf a183 0fbe 347b f4be
000001c0: 665f 5c3d 6bfe a43d 3e3d 11bf 63c8 4bbe
000001d0: 2b47 ecbc 855b babd 90bb 1e3b 2f85 ccbd
0.17974733 -0.14524618 -0.082661636 -0.2973619 -0.048515435 0.18093826 -0.15937579 0.09268102
-0.10976033 -0.28888562 -0.15734097 -0.15333787 0.0012309571 0.08451946 -0.082410224 0.08245802
-0.07476308 -0.29775742 -0.018878395 -0.30208126 -0.3764621 -0.041314453 0.15775864 0.12621935
-0.4162532 0.21284316 -0.20707792 -0.23321512 0.0029495894 -0.4885538 -0.08882651 -0.28912732
6.3877415e-05 -0.1421661 0.037084963 -0.033616006 -0.35948184 -0.30851227 -0.49007165 -0.25941354
0.04908686 -0.6124299 -0.04425358 0.00519792 -0.09094129 -0.06622854 -0.16271126 0.028041705
-0.16614752 0.12377462 -0.34953701 0.14304028 -0.5022021 0.018759612 -0.31976467 -0.13453501
0.090144254 -0.13270369 0.18447195 -0.11372775 0.30781156 -0.16186187 -0.27451774 -0.8387499
-0.19683975 -0.49036923 -0.045986146 -0.38199914 -0.24118756 0.13316505 -0.22785781 -0.06448529
0.001974867 -0.21184584 -0.27124935 -0.3223506 -0.12808806 -0.38273636 0.14388525 -0.08837258
-0.08870103 -0.16224347 -0.1083867 0.04014187 -0.109869614 -0.30851245 -0.3432824 -0.92861223
-0.06904585 -0.40607557 -0.33167952 -0.047067646 -0.32086194 -0.28964004 -0.5328256 -0.35242936
0.0035562448 -0.4064478 -0.12732565 -0.50967157 -0.19434376 -0.16011795 -0.1258099 -0.36571586
0.03595163 -0.27644238 -0.11522067 -0.11630529 -0.16347258 -0.56567436 -0.14015056 -0.47750247
0.053801917 0.08056339 -0.56734073 -0.1990066 -0.02884253 -0.09099487 0.0024220683 -0.0998634
