old_weights/BackCNN_best_weights2.pth (torch, 568892 bytes, 29 tensors)

conv1.0.weight f4 [3]
000000 3f c6 57 3f 2e e5 7e 3f 03 c1 50 3f
       0.84286875 0.9956845 0.8154451

conv1.0.bias f4 [3]
000000 21 fb 7f 3e 9f 1e e5 3e 3c b7 a9 3e
       0.24998142 0.44749925 0.3314761

conv1.0.running_mean f4 [3]
000000 71 4f 5a 3e 48 33 78 3e e9 0d 62 3e
       0.21319367 0.24238312 0.22075619

conv1.0.running_var f4 [3]
000000 d2 1f 75 3d 76 d6 4e 3d 83 90 21 3d
       0.0598448 0.050497495 0.039444458

conv1.1.weight f4 [20, 3, 7, 7]
000000 9a 2f 2c 3e 11 71 81 3e 54 65 74 3e b4 3d b4 3e
       0.16815034 0.25281575 0.23866779 0.35203326
000010 61 fd b3 3e e2 8d d0 3e 83 eb 90 3e 3f 25 43 3e
       0.3515425 0.40733248 0.2830468 0.19057177
000020 3e b6 37 3e 79 c8 b6 3e 72 4d 17 3f 38 8d 1e 3f
       0.17940614 0.35699823 0.5910255 0.6193423
000030 07 69 12 3f 3c 92 81 3e 23 1d 24 3e fd 90 1d 3e
       0.5719151 0.2530688 0.1602674 0.1538734
000040 19 3a a1 3e 3e 70 fd 3e 08 f6 0c 3f e2 88 00 3f
       0.31489637 0.49499696 0.55062914 0.50208867
000050 1a 28 af 3e c2 ee 2e 3e 41 4a 14 3e 73 8d b9 3d
       0.34210283 0.17083266 0.1448145 0.090601824
000060 08 9a 9c 3e cf 01 9f 3e 90 eb 6a 3e 13 37 47 3e
       0.30586267 0.31056067 0.22941422 0.19454603
000070 d3 ba 82 bd 71 b7 b0 3c f9 77 be 3d 59 c7 0b 3e
       -0.0638329 0.021571847 0.09300227 0.13650264
000080 28 d6 8f 3d fc ca 1c 3e 75 a1 d8 3c 71 b6 da bd
       0.07023269 0.15311807 0.026444176 -0.10679329
000090 37 4c 5c bc 86 54 78 bd b7 fd 19 bc f5 be 23 bd
       -0.013445905 -0.060627483 -0.009398869 -0.039977033
0000a0 1e 5e 96 3d ed 5b 47 bd 59 85 94 bd 51 94 06 be
       0.0734217 -0.04867165 -0.072519965 -0.13142516
0000b0 60 20 13 be 8c 21 3d 3d f7 af ba bd 54 ef 0d bd
       -0.14367819 0.04617457 -0.09115594 -0.03465207
0000c0 ef d9 14 3d 9b 2b ca be 35 f4 84 be b6 5e 62 be
       0.03634065 -0.39486393 -0.25967565 -0.22106442
0000d0 24 58 70 be 01 2d 2a be 55 80 5d be da 3a a6 be
       -0.23471123 -0.1661873 -0.21630986 -0.32466775
0000e0 61 21 af be ae 3b 67 be 4e 5a 54 bd 78 30 77 bd
       -0.34205154 -0.2258136 -0.051843934 -0.060348958
0000f0 8a 82 15 be 0f 13 88 bd 8a 58 3e be b6 11 84 be
       -0.14600578 -0.0664426 -0.18588462 -0.25794762
000100 d7 b2 3f be e5 62 64 be fa 77 0c be e7 a8 ae bd
       -0.18720566 -0.2230335 -0.13717642 -0.08528309
000110 cf 31 a3 bd 84 b9 92 be 68 e3 82 be 94 22 75 be
       -0.079684846 -0.28657162 -0.25564122 -0.23938972
000120 9b 3f 94 be 9d eb 6e be a2 92 3a be 8b 05 e3 bd
       -0.28954777 -0.23332067 -0.18219998 -0.110850416
000130 ed a3 8d be 3d f1 b6 be 37 55 c7 be 51 b6 b9 be
       -0.27664128 -0.35730925 -0.389322 -0.3627191
000140 bb b6 7e be a8 81 97 be d1 eb 61 be 1e 65 cd be
       -0.24874394 -0.29591107 -0.22062613 -0.4011621
000150 b8 a6 ad be b8 74 e4 be 19 66 ac be ca bb b7 be
       -0.3391626 -0.446203 -0.33671644 -0.3588546
000160 38 0a b9 be e2 83 9d be 30 a4 de be a8 47 ea bd
       -0.3614061 -0.3076468 -0.4348464 -0.114394486
000170 ce 49 a2 be e9 8f c0 be f5 a1 82 be 1e e8 b6 be
       -0.31696934 -0.37609795 -0.25514188 -0.35723966
000180 9b 9c 80 be 74 95 ad be 95 76 88 bd 3c c8 49 3d
       -0.2511948 -0.33903086 -0.06663243 0.049263224
000190 35 4f 80 3c 16 a0 6e 3e 24 b0 2f 3e 09 1d 7e 3e
       0.015662769 0.23303255 0.17157036 0.24815764
0001a0 1d a5 ea 3d 44 67 ed 3d 83 44 03 3e 73 26 b9 3e
       0.11457274 0.11591962 0.12819104 0.36162147
0001b0 a1 38 b4 3e 68 fa ae 3e 18 5b a0 3e c8 c4 91 3e
       0.35199454 0.3417542 0.313195 0.28470445
0001c0 87 8a 10 3e 51 d0 40 3e 67 31 17 3e 32 75 8d 3e
       0.14115344 0.18829466 0.14764939 0.27628475
0001d0 00 c3 ae 3e 92 8e d3 3e 5a f1 68 3e 2b 41 aa 3d
       0.34133148 0.4131971 0.22748318 0.08313211
0001e0 98 c8 83 bc 95 89 12 3e 83 13 40 3e 78 6a 98 3e
       -0.016086861 0.14310296 0.18757443 0.2976873
0001f0 9e d7 4c 3e cc af 18 3e 6a b3 82 bc 5f 8c 68 3b
       0.20004126 0.14910811 -0.015954692 0.0035484058
000200 06 be 52 3d 77 6e ad 3d 3d af 53 3d 70 c4 07 3e
       0.05145075 0.08468335 0.051680792 0.13258529
000210 0b 90 04 3e 29 60 fd bd df 5b 0b be 6d 1c 05 be
       0.12945573 -0.12371857 -0.13609265 -0.12999125
000220 fc ef 52 3d b7 da 35 bd a8 21 85 3d 1c 3c 92 bd
       0.0514984 -0.044398036 0.0650056 -0.07140371
000230 67 79 35 be f6 43 68 be 24 cf 0b be 2a 15 34 be
       -0.17722093 -0.22682175 -0.13653237 -0.17586198
000240 18 a8 4d be 2b 1d 60 bd f5 b0 55 be b0 7c eb 3d
       -0.20083654 -0.054715317 -0.20868285 0.11498392
000250 be f4 94 3d 85 a9 89 3d 3a 0c 2e 3e 9e 1d 03 3e
       0.07273243 0.067217864 0.16996852 0.12804267
000260 55 4a c8 3d 1b b9 ab bc e1 24 0e 3e 7d c5 e6 3a
       0.09779803 -0.020962289 0.13881256 0.0017606464
000270 a1 5d 3b 3d e0 76 f7 ba 12 65 6b bd 89 71 98 3c
       0.04574359 -0.0018880032 -0.057469435 0.018608825
000280 54 fc 13 3b 29 bc 9d 3c c1 ab 60 3d e9 40 81 3c
       0.002258082 0.01925476 0.054851297 0.015778022
000290 7b 88 6e 3d 6e d2 99 bc 9f fb 4f 3c 1a f4 d5 3c
       0.058235627 -0.018777099 0.0126942685 0.026117373
0002a0 fb 86 0f 3c 7a b7 92 bd c3 b8 ac bd 21 a4 10 bc
       0.008760209 -0.071639016 -0.08433678 -0.008828194
0002b0 d6 ce d8 bd 82 0c a5 3c 6d 15 01 bd 91 a0 14 3d
       -0.10586326 0.020147566 -0.031514574 0.03628594
0002c0 cb 2c 82 bb 94 1b 5c bc 4b 8e 84 3d 13 9a 64 bc
       -0.003972625 -0.0134343095 0.06472453 -0.01395275
0002d0 d9 f1 ec ba 54 3d 11 be 22 fe d9 bd 60 8f 6f bd
       -0.0018077447 -0.14183551 -0.10644175 -0.058486342
0002e0 c8 b1 f3 bd d4 d9 11 bd 3c 94 40 bd 49 5e 3b 3c
       -0.118991435 -0.035608128 -0.047016367 0.011436054
0002f0 da 81 7a bd d4 b4 24 be 2d 15 89 bd 0b d4 b7 bd
       -0.061158992 -0.16084605 -0.06693492 -0.08975991
000300 bf 11 c7 bd 4a 50 43 bd f8 47 24 be 79 96 0f bd
       -0.09720182 -0.04768399 -0.16043079 -0.03505561
000310 4d b2 66 be fc 02 23 be 8c 3d 26 be 53 0e 47 be
       -0.22528954 -0.15919107 -0.16234416 -0.19439058
000320 3e 8a 4b bd 8c 4e 4b be 53 45 1d be 9b 79 8c be
       -0.049692385 -0.19854182 -0.15358476 -0.27436528
000330 e4 7e 44 be cf c3 e5 bd a2 e6 37 be 25 64 66 be
       -0.1918903 -0.11218988 -0.17959073 -0.2249914
000340 8e 7e 63 be 6f 4c 1d be 92 02 82 be 82 04 3c be
       -0.22216246 -0.15361188 -0.25392586 -0.18361095
000350 68 1a 6c be ed 23 70 be e6 16 3c be d2 e3 60 be
       -0.23056948 -0.23451205 -0.1836811 -0.21961907
000360 19 34 3a be d9 04 c0 be bc 9f 11 be f8 c0 50 be
       -0.18183936 -0.37503698 -0.1422109 -0.20386112
000370 0d 08 3b be fd 57 05 be 23 6a 0d be ad 4a 44 be
       -0.1826479 -0.13021846 -0.13810019 -0.19169112
000380 85 0d b3 be f7 d7 7c be c3 58 2b be d1 e8 36 be
       -0.34971252 -0.24691759 -0.16733079 -0.1786225
000390 6c 78 07 be 02 e1 2e be fc fe 96 be d3 2f 80 be
       -0.13229531 -0.17078021 -0.29491413 -0.25036487
0003a0 a2 b9 80 be 24 83 33 be 75 d9 63 bd 23 46 23 be
       -0.25141627 -0.17530495 -0.055627305 -0.15944724
0003b0 d6 e1 96 be 03 a2 ce be ec d7 76 be 7b 30 52 be
       -0.29469174 -0.4035798 -0.24105805 -0.20526306
0003c0 dc 63 88 be 2d ef 57 be 90 ee 15 be 39 9f ac be
       -0.26638687 -0.21087332 -0.14641786 -0.33715227
0003d0 bc 48 b7 be 45 3d 88 3e d2 b7 d4 3e d9 0f d6 3e
       -0.3579768 0.26609245 0.41546494 0.41808966
0003e0 9c 01 bb 3e 41 38 d2 3e 54 1d 90 3e 6d a0 6c 3e
       0.36524665 0.41058543 0.28147376 0.23108073
0003f0 02 1c 99 3e ad eb 9b 3e 36 39 a4 3e e6 23 b5 3e
       0.2990418 0.30453244 0.32074898 0.3537895

conv2.0.weight f4 [20]
000000 e7 8e 6d 3f 28 f4 3f 3f f4 61 68 3f 7f 36 9f 3f
       0.92796177 0.7498193 0.90774465 1.2438506
000010 ac a6 64 3f ce 24 8e 3f fb 9a d6 3e e7 94 88 3f
       0.8931682 1.1104982 0.41915116 1.0670441
000020 c8 d7 3d 3f c0 bf 4c 3f 95 0d 80 3f 04 8e 99 3f
       0.7415738 0.7998009 1.0004145 1.1996465
000030 51 a1 a4 3f f9 2e 8a 3f bb 23 90 3f 05 b4 69 3f
       1.286173 1.0795585 1.1260904 0.91290313
000040 29 25 96 3f 8b 6a 13 3f 6d 17 58 3f 25 57 aa 3f
       1.173009 0.57584447 0.84410745 1.3307844

conv2.0.bias f4 [20]
000000 12 8c 30 be f3 94 64 3e 0e bd dc 3e a7 74 29 3d
       -0.17240933 0.22322445 0.43112987 0.041371014
000010 d2 ec 68 be f4 0b 4e 3e 54 0c 6e 3c 1d a5 6d 3e
       -0.2274659 0.20121747 0.014529306 0.23207517
000020 2a 22 3c be c6 dd 26 be 55 09 b3 3e d1 ec 88 3d
       -0.18372408 -0.16295537 0.34968057 0.06685794
000030 d2 72 f2 be 81 31 5d 3f 45 50 e5 be 08 9e 96 be
       -0.47353226 0.8640366 -0.44787803 -0.29417443
000040 2d 5f f4 3e 22 5b fc bd 56 4d fc 3e 11 d5 05 3f
       0.47728863 -0.1232207 0.49277753 0.5227824

conv2.0.running_mean f4 [20]
000000 51 ab 75 3f ef 1b 93 3f 15 d3 33 40 04 12 36 3f
       0.95964533 1.14929 2.8097584 0.7112124
000010 c0 d4 68 3f 2c 59 cc 3f f3 bd 76 40 82 96 18 3f
       0.9094963 1.5964713 3.8553436 0.59604657
000020 76 aa 4d 40 94 de 22 40 65 b9 66 3f 46 cb 61 3f
       3.213529 2.544835 0.9012664 0.88200796
000030 f9 42 e3 3f e8 ae 11 40 0e 5b df 3e aa 7c 17 40
       1.7754813 2.2763004 0.43624157 2.366984
000040 31 b7 9d 3f 22 7e 91 3f 91 eb 29 40 dc b1 0a 40
       1.232153 1.1366618 2.6550028 2.1671057

conv2.0.running_var f4 [20]
000000 eb c9 84 40 ac 05 65 41 d4 a3 af 41 cd 6e 3f 40
       4.149648 14.313885 21.954994 2.9911377
000010 c2 a9 51 40 ff 1f 1a 41 e1 ee 1b 42 8a 74 ba 3f
       3.2759862 9.632812 38.98328 1.4566815
000020 56 47 5c 42 1b 90 95 41 18 3d 6a 40 d1 f4 10 40
       55.069664 18.695364 3.6599789 2.2649424
000030 0d 19 85 41 b0 28 14 42 08 79 45 3f 5b 04 13 41
       16.637232 37.039734 0.77137804 9.188563
000040 f5 fa 17 41 da 0e 86 40 ec ca d4 41 8e f4 0f 42
       9.498769 4.189313 26.599083 35.988823

conv2.1.weight f4 [40, 20, 5, 5]
000000 aa f4 a6 bd db 83 82 3d 94 dc ff 3d f6 a7 1d 3e
       -0.08152135 0.06372806 0.12493244 0.15396103
000010 4e e2 6f 3e fa 18 2a 3d 74 5d e7 bc 0f ff a8 3d
       0.23426172 0.041527726 -0.028242804 0.082517736
000020 c4 b8 e6 3d 5f 1d ab 3e 5b fc 83 be db 49 ca bd
       0.1126571 0.33420846 -0.2577847 -0.09877368
000030 1d 6f e2 bd ad af 5e 3d 7a c9 ed 3d 6c 4f 6f 3e
       -0.110563494 0.054366756 0.11610694 0.23370141
000040 83 8a df 3d be 90 bc 3d ea f7 ad 3d 6a 73 81 3d
       0.10915091 0.09207295 0.084945515 0.063208416
000050 37 58 18 bd d7 02 93 3d 32 38 c3 bd ef ad 55 3d
       -0.037193503 0.07178276 -0.09532203 0.05216783
000060 72 9b 08 3e e0 72 44 bd cb c2 8e bd 82 09 0b bb
       0.13340548 -0.047961116 -0.069707476 -0.0021215384
000070 7a df da 3c f4 40 11 3e df 8a 42 bd 45 34 c9 bd
       0.02671789 0.14184934 -0.04749572 -0.09824423
000080 81 ba dd 3c d4 99 d1 bb c8 b9 24 3c 87 5c f5 bd
       0.027066471 -0.0063965116 0.010054059 -0.11980539
000090 11 4b f4 bd 2c 48 f2 bd fd 60 a6 bd a5 37 2a bc
       -0.1192838 -0.11830172 -0.08123968 -0.010389243
0000a0 e0 ee 83 bd d6 dd c3 bd ae db 98 bd 86 af 09 bd
       -0.06442046 -0.09563796 -0.074637756 -0.033614658
0000b0 ed 70 1b 3c d7 3f 71 bd f0 b9 b1 bd 9e 0d 64 bd
       0.009487373 -0.058898773 -0.08678043 -0.05567705
0000c0 90 e9 79 bd b0 d5 74 3d 37 7e 13 be d6 2c 76 be
       -0.06101376 0.0597741 -0.14403616 -0.24040541
0000d0 99 a0 93 be f2 b0 98 be bb 58 55 be 7f ee 30 bd
       -0.28833464 -0.298225 -0.20834629 -0.043196198
0000e0 d0 2b 82 bd fb 65 43 be 8c f4 31 be cd 07 a1 3d
       -0.06356013 -0.19081871 -0.17378443 0.07862816
0000f0 9d ad ca bd 83 8f ec bd 30 0e 3b be 09 98 be bd
       -0.09896395 -0.1155081 -0.18267131 -0.09306342
000100 c5 2e 62 3d dc 4c 98 bd c4 8a c4 bd f2 1f 34 be
       0.055220384 -0.07436535 -0.0959678 -0.17590311
000110 1d 67 1c be 2e 06 17 3e b6 69 9c bd b1 e1 0f be
       -0.1527371 0.14748451 -0.0763735 -0.14050938
000120 ce 50 b4 be e7 bd 7c be 9f b8 ff 3d 45 92 3b bd
       -0.352179 -0.24681817 0.124863856 -0.04579379
000130 c3 47 22 bd ee 79 9c bc 7f 92 e5 3d 9e 74 e6 3d
       -0.03961922 -0.01910111 0.112095825 0.11252712
000140 de b7 be 3c 7f ff f8 bc 03 63 72 bd 85 42 d9 3d
       0.023281034 -0.030395268 -0.059176456 0.10608391
000150 b2 68 1e 3e d2 2e 15 bc 71 12 8a bd 50 84 60 bc
       0.15469626 -0.009105401 -0.06741799 -0.013703421
000160 36 3d 38 3d aa a2 5e 3d b8 df 9a 3d df 52 08 3e
       0.04498025 0.054354347 0.07562202 0.13312863
000170 3c 80 80 3d e3 5e 18 3d 95 47 a7 3b ab 57 8b 3c
       0.06274459 0.037199866 0.005104969 0.017009577
000180 b9 c9 3f bc 91 e3 0d be bd 8b 93 bd dc 64 0b 3b
       -0.011705809 -0.13856341 -0.07204387 0.0021269834
000190 0d 7d 7e 3d 7f 12 d8 3d 89 89 c8 bc af 45 75 3c
       0.062130976 0.10550403 -0.024479644 0.014970227
0001a0 71 d0 8e 3d 8e 54 74 bc b9 ad ff bc 63 e1 34 3c
       0.06973351 -0.0149127375 -0.031210767 0.0110400645
0001b0 58 d8 9d 3d 5e bb 83 3d aa 00 70 3e f1 74 56 3e
       0.0770728 0.06432222 0.23437753 0.20943047
0001c0 d4 01 7b 3e 4c 05 57 3e a0 5a 55 3e 0a 37 57 3e
       0.24512416 0.20998114 0.20835352 0.2101709
0001d0 0e 49 69 3e 21 a3 60 3e cb 9b 8a 3e c0 10 8b 3e
       0.22781774 0.21937229 0.27071986 0.27161217
0001e0 fe b4 88 3e 72 a5 88 3e 21 69 85 3e 90 75 94 3e
       0.26700586 0.26688725 0.2605677 0.28995943
0001f0 4d b0 b4 3e dd cb 77 be 28 1c 2b be 20 5f 36 bd
       0.35290757 -0.24198861 -0.1670996 -0.044524312
000200 f4 60 6d 3d c0 c4 1f 3d 83 b2 8f bd 43 96 d9 bd
       0.05795379 0.039005995 -0.0701647 -0.10624363
000210 6c 72 1d be ba 5e 20 be 36 f2 0c bc 78 c7 90 be
       -0.1537568 -0.15661135 -0.008602669 -0.28277183
000220 56 1c 3e be 5c 82 22 be bd 7a 24 be 87 a1 da bc
       -0.18565497 -0.1587004 -0.16062446 -0.02668835
000230 15 65 10 3d 54 d0 25 be 68 5e 24 be 2b db 01 be
       0.03525265 -0.16192752 -0.16051638 -0.12681262
000240 d9 80 d1 bd 91 b2 d5 bd eb 1a 9c bd fa 3e 59 be
       -0.10229654 -0.104344495 -0.07622322 -0.2121543
000250 29 94 a2 be f2 b5 40 be 0c e4 80 be 86 05 4b be
       -0.31753662 -0.18819407 -0.25173986 -0.19826326
000260 fa 1d 57 be 8b 62 75 be e2 70 ac be fc dc 98 be
       -0.21007529 -0.23963372 -0.33679873 -0.29856098
000270 b3 73 8e be b8 e3 73 be dd 86 92 be 3f 66 d9 be
       -0.27822646 -0.23817337 -0.28618518 -0.4246082
000280 ef 44 46 be 25 dd 8f be 21 b1 a8 be 3a bc 5a be
       -0.19362234 -0.28098407 -0.3294764 -0.21360865
000290 1c 52 09 be 5d 27 af be 7c 97 7b be 93 8b 64 bd
       -0.13410228 -0.3420972 -0.24569505 -0.05579717
0002a0 4d 4b 58 bd e6 9b 1e 3c 2f 4a 61 be 5f e6 f3 bc
       -0.052806187 0.009680724 -0.22000955 -0.029772935
0002b0 cd ae 4e 3d d3 bd d6 3c c0 8f 09 3d 9b fe 78 bd
       0.05045967 0.026213562 0.033584356 -0.060789686
0002c0 88 c5 9b bd 79 bd 6f 3d ab 58 71 bc 59 00 a2 3d
       -0.076060355 0.058530305 -0.014730613 0.079102226
0002d0 b7 be de bd 68 56 e8 bd 52 fc 9a bd a6 f6 ae bc
       -0.1087622 -0.11344606 -0.075676575 -0.021357846
0002e0 83 4c 45 3e ec ff 24 bd 3c 10 a8 bd 18 fd d4 bc
       0.19267468 -0.04028313 -0.082062215 -0.02599959
0002f0 dd c3 61 3d 03 34 1e 3e 3c 2b fd bb c1 cf e9 3b
       0.05511843 0.15449528 -0.007726101 0.007135362
000300 7f 45 2a 3c db 46 8e bd 9d 56 80 3c d5 ef 75 3c
       0.010392546 -0.06947108 0.0156663 0.015010794
000310 3c 16 82 bd 43 01 ba ba d2 a4 4b bd d0 2c b0 3d
       -0.06351897 -0.001419105 -0.04971773 0.08602297
000320 92 f6 df bd f1 fb 41 bc a3 70 5b bc 2f 97 d9 bc
       -0.109357014 -0.011839853 -0.013393554 -0.026561348
000330 21 91 d3 3c 55 4d 8c bd 15 6a b1 bc 43 12 6a bd
       0.025826039 -0.068506874 -0.02165703 -0.057146322
000340 90 61 0e bd 88 c3 51 bd 5e 1a 42 bd 4a 8c 1d bd
       -0.03476101 -0.051211864 -0.047388427 -0.03846387
000350 bf e3 c3 3b 7d 6f 8f bd 04 99 dd bc 93 b3 19 3d
       0.005978077 -0.070036866 -0.027050503 0.03752477
000360 09 b3 10 3b 6a 9b e4 3b 2d 48 d3 bb 58 43 73 bb
       0.002207937 0.0069765346 -0.006447813 -0.0037118997
000370 63 93 2c bd 96 61 a3 bb 53 f1 d2 3c f0 a8 8f 3d
       -0.042132746 -0.0049859984 0.025749838 0.07014644
000380 d7 3e 41 3d c4 84 75 be a6 5d a7 be d5 75 9e be
       0.04717907 -0.23976427 -0.32688636 -0.30949274
000390 61 05 79 be a5 2e ac bd 85 ca 76 be c6 b8 74 be
       -0.24318458 -0.08407334 -0.24100693 -0.2389861
0003a0 38 0e 9a be b3 49 5d be 5a 90 5b 3d 6d 51 07 be
       -0.30088973 -0.21610145 0.05360446 -0.13214655
0003b0 cc 69 23 be 65 55 2c be 99 36 32 be f5 b9 af 3c
       -0.15958327 -0.1682945 -0.1740364 0.021450976
0003c0 28 69 6c be 43 40 79 be 98 80 84 be 3f f9 64 be
       -0.23086989 -0.2434092 -0.2587936 -0.22360705
0003d0 39 8a b4 3d f8 6e ca bd bb 5d 0a be 25 8c 49 be
       0.088154264 -0.09884447 -0.13512318 -0.19682367
0003e0 1b 08 32 be a9 7f 88 3c eb f4 96 be fe c4 96 be
       -0.17385904 0.016662436 -0.29483733 -0.29447168
0003f0 c2 26 80 be 4b f0 1c be 66 fd bf bc 4b 49 30 be
       -0.2502957 -0.1532604 -0.02343626 -0.17215459

conv3.0.weight f4 [40]
000000 71 76 37 3f 01 03 31 3f b9 7b 8d 3f 49 4e 53 3f
       0.716651 0.6914521 1.1053382 0.8254133
000010 00 04 89 3f 1d 8c b8 3f 10 95 a6 3f 49 92 7d 3f
       1.0704346 1.4417759 1.301424 0.9905134
000020 e9 02 94 3f 83 31 a3 3f 9a 74 93 3f 36 8d 91 3f
       1.1563388 1.2749485 1.1519959 1.1371219
000030 77 fc 79 3f 19 29 6d 3f 2e fb 78 3f e3 8a b9 3f
       0.97650856 0.92640835 0.9725827 1.449551
000040 2b 97 a1 3f b5 81 af 3f ff 2e 6a 3f 47 89 99 3f
       1.2624258 1.3711458 0.9147796 1.1995019
000050 47 6b 70 3f e5 af 38 3f 78 d1 83 3f 3c 16 9f 3f
       0.9391369 0.72143394 1.02983 1.242866
000060 32 cd 36 3f cc 91 66 3f 10 9d 9c 3f 6c ca 4a 3f
       0.71406853 0.9006622 1.2235432 0.7921512
000070 d0 46 50 3f 77 81 90 3f 24 53 61 3f 6b 1e 4e 3f
       0.8135805 1.128951 0.8801749 0.80515164
000080 a6 db 9c 3f aa eb 6b 3f b6 fd 5f 3f c8 66 69 3f
       1.2254531 0.9215647 0.8749651 0.91172457
000090 ec ce 7f 3f 55 ed 8f 3f 91 83 6a 3f d5 93 2a 3f
       0.9992511 1.1244303 0.91607004 0.66631824

conv3.0.bias f4 [40]
000000 63 ed 0c 3f be c8 dd 3e f5 91 16 bd 61 0f 8f 3e
       0.55049723 0.43317217 -0.03676029 0.2794142
000010 ea 40 46 be 7f bb 65 3e 71 79 de 3e 35 59 cf 3e
       -0.193607 0.22434805 0.43452027 0.40497747
000020 b6 fa 9b 3d 8a 39 0e 3e 19 27 1a be 7c 06 01 3f
       0.07616179 0.13889137 -0.15053977 0.5040052
000030 aa 96 48 3e 38 1f 36 3e cc 6d ce be 24 d7 d9 3e
       0.19588724 0.17785347 -0.40318143 0.42546952
000040 a8 d6 b4 3e f1 ee f3 be 68 5f 1e 3e 74 23 d6 3e
       0.3532002 -0.47643235 0.15466082 0.41823924
000050 c5 b6 15 3e c2 f3 92 3e 65 bf 30 3e 32 36 5c be
       0.14620502 0.28701597 0.17260511 -0.21505049
000060 94 2a 03 3f 73 85 34 bd 66 d6 11 3f a4 99 3b 3e
       0.51236844 -0.04407258 0.5696777 0.18320328
000070 f1 2b 9d 3d e6 99 b7 be 8e 57 b2 3e 7c cf 05 be
       0.07674397 -0.35859603 0.34832424 -0.1306743
000080 32 7b b5 3e b4 ed 8e 3e d3 13 fe 3e 73 34 5e bd
       0.35445553 0.27915728 0.496245 -0.05424924
000090 87 26 6e 3e a7 6b 72 3e b2 9f 67 3d 68 4c a3 3d
       0.23256885 0.23673879 0.05654878 0.07973558

conv3.0.running_mean f4 [40]
000000 77 fc a2 40 b6 c0 07 41 ba 79 86 40 7e 94 c5 40
       5.0933185 8.484549 4.202359 6.1743765
000010 01 53 e5 3e 89 5d 21 40 d7 01 3a 40 e1 2e 61 40
       0.4478989 2.521334 2.9063623 3.5184863
000020 aa 01 76 40 26 28 9f 40 da 80 8c 40 b0 af 1f 3e
       3.8438516 4.973651 4.390729 0.15594363
000030 07 70 d4 3f 23 22 02 40 9d 45 95 3f 37 9c 32 3f
       1.6596688 2.0333335 1.1661869 0.69769615
000040 72 59 56 40 c3 99 f3 3e 4a 0e 80 40 b4 af 8a 40
       3.3492093 0.47578248 4.0017443 4.333948
000050 f6 cf 19 41 01 60 96 3f e6 57 dc 40 9a fb f6 3f
       9.613272 1.1748048 6.88573 1.9295533
000060 2e 13 03 41 96 f8 6f 40 b1 17 e6 40 be 90 fe 40
       8.192183 3.7495475 7.190392 7.9551687
000070 34 c6 b2 3f 2c cb 5f 3e 7e 03 63 40 d3 1d 13 41
       1.3966737 0.21854848 3.5470881 9.194781
000080 84 86 97 3f de 92 e1 3e 11 40 9e 3f 78 26 8b 3e
       1.1837926 0.44057363 1.2363302 0.27177787
000090 2c fc cf 3f b4 05 6f 40 bc 2d 08 40 fd 9f 15 40
       1.6248832 3.734723 2.1277914 2.33789

conv3.0.running_var f4 [40]
000000 0e 34 4c 42 32 29 d5 43 2b 56 00 43 65 9c 15 43
       51.050835 426.32184 128.3366 149.61092
000010 07 12 f2 40 0a 6d d0 42 58 21 8e 42 12 47 0d 42
       7.5647006 104.21297 71.065125 35.319405
000020 0f a8 21 43 44 56 af 42 0b e5 83 42 83 a4 51 40
       161.65648 87.66849 65.94735 3.275666
000030 42 3e 88 42 f3 1f 56 42 56 8e 07 41 cd 81 b8 41
       68.1216 53.5312 8.47225 23.06338
000040 21 61 dc 42 17 19 bb 40 d0 52 34 42 af ef 49 43
       110.189705 5.8468127 45.08087 201.93626
000050 88 60 96 43 60 a9 9d 41 c6 bc eb 42 60 35 02 42
       300.75415 19.707703 117.8687 32.552124
000060 6c 00 30 43 36 84 5d 42 20 93 bd 43 ca d4 b5 42
       176.00165 55.379112 379.1494 90.9156
000070 a1 61 6e 41 fc 24 7b 40 00 6f ed 42 77 3d 49 43
       14.898835 3.9241323 118.7168 201.2401
000080 e2 ff eb 41 e7 43 10 41 3d 45 9d 41 3b ae 70 40
       29.499943 9.016578 19.658808 3.7606342
000090 41 18 63 41 00 46 71 42 3c 10 c3 41 05 fc 9a 41
       14.193421 60.31836 24.382927 19.373056

conv3.1.weight f4 [80, 40, 3, 3]
000000 1f 54 83 3d bc a3 a9 3c 84 39 5c bd ec 8f d3 bc
       0.06412529 0.020707957 -0.05376579 -0.025825463
000010 9f 61 7e bd f2 a1 c9 bd e9 c6 b7 bd 8f 81 f6 bd
       -0.062104817 -0.09845342 -0.08973486 -0.1203643
000020 04 57 2e be 76 09 62 3c ee d4 41 bc 65 20 8f 3d
       -0.17025381 0.013796201 -0.011830552 0.06988601
000030 3b 71 ef 3d 00 de 82 3d b3 a9 23 3e 9f 40 58 3b
       0.11691519 0.063899994 0.15982704 0.0032997502
000040 1f 19 51 3c 47 22 ba 3c 13 66 15 bd 5d 4c 86 bd
       0.012762337 0.022721423 -0.0364743 -0.06557534
000050 49 10 cf 3d 6c 7d c0 bd 0a ed 20 be 9f e5 3c bc
       0.10110528 -0.09398922 -0.15715423 -0.011529355
000060 32 fa f3 bd 74 1e 6c be 30 60 42 be 19 9b 85 bb
       -0.11912955 -0.23058492 -0.18982005 -0.004077327
000070 57 54 d2 3d 51 a2 d5 3d 5a 2e 93 bd d1 ef 64 bd
       0.10269993 0.1043135 -0.07186575 -0.05589277
000080 6d 6c fd bd 0c 9c 11 bd e6 f0 c5 be d1 0e f9 bd
       -0.12374196 -0.03554921 -0.38660353 -0.12161029
000090 cf 2c e7 3d 7d 60 45 be 62 b1 11 be 4c 65 a0 bd
       0.112878434 -0.19275089 -0.14227822 -0.07831821
0000a0 8e b0 e1 bd ac d1 59 bd 1e af 3a be ab ba 58 be
       -0.11020003 -0.053178474 -0.18230864 -0.21164958
0000b0 59 b3 93 be 5d 46 18 bd d8 f1 43 be bc f1 b8 bd
       -0.2884777 -0.03717648 -0.19135225 -0.09030482
0000c0 e1 fd 31 3d ef 7c 5a bd 58 4c e9 bc da 95 40 3e
       0.04345501 -0.053341802 -0.028478786 0.18807164
0000d0 70 3c 84 3d a3 df 89 3d 99 71 00 be 92 38 4f be
       0.0645684 0.067321084 -0.12543334 -0.20236424
0000e0 f7 5e a9 3c cb f5 e0 bd 56 28 a6 be b4 d5 43 be
       0.020675166 -0.10984381 -0.3245265 -0.1912449
0000f0 e5 a4 24 bd 3b 68 4d 3c 6f 03 2e bd ca 9e 47 bb
       -0.04019632 0.0125370575 -0.042483743 -0.0030459636
000100 4c d6 88 be 76 fc 40 be 7c bc cf 3d a0 c3 e0 bd
       -0.26725996 -0.18846306 0.101433724 -0.109748125
000110 fe f3 2b bd e8 b2 a3 bd f9 2b c8 be 75 9b 18 be
       -0.041980736 -0.07993108 -0.39096048 -0.14903052
000120 7d 19 6e 3e bd c8 11 3e d3 65 34 3d 96 d2 84 3d
       0.2325191 0.14236732 0.04404242 0.064854786
000130 6f ea ce 3c 05 39 d5 bc 3a 31 fc 3d 88 05 c0 3d
       0.025258271 -0.026028166 0.12314077 0.09376055
000140 4e c5 ae 3b ae 93 c1 bc dd 1b 32 be aa 76 df bb
       0.005333579 -0.02362999 -0.17393441 -0.006819566
000150 1d cb aa 3c 29 c6 6f be fd 24 41 3d 83 07 8f 3d
       0.020848805 -0.23415436 0.047154415 0.069838546
000160 90 cd dc bd d0 e8 53 3d 72 7d 85 bd 23 43 0f be
       -0.107813954 0.0517357 -0.065180674 -0.13990454
000170 d1 99 c1 bd 1c d8 a1 bd 68 de ec bd f1 e6 cd bd
       -0.09453166 -0.07902548 -0.11565858 -0.10053814
000180 cb 89 80 bd 77 be 6d be 83 3c 12 be 01 3e 31 3d
       -0.06276282 -0.23217188 -0.14280896 0.043272022
000190 57 90 bb 3d 32 ac a3 3d a3 9b 0e bd e9 06 85 bc
       0.0915839 0.07991828 -0.034816395 -0.016238647
0001a0 d7 27 eb bd 58 79 d8 3d 5c 1f 80 3e 42 2f ce bc
       -0.11482208 0.105700195 0.25023925 -0.025169019
0001b0 e4 23 0b 3c dd 07 be bd 9d 7d 32 be a7 5c 39 3d
       0.008492444 -0.092788436 -0.1743073 0.045254376
0001c0 c2 e4 4f bc 70 d7 4e bd 27 6f b8 3d 37 d5 3f 3d
       -0.012688817 -0.050498426 0.090055756 0.046834197
0001d0 72 55 83 bd 45 ca 63 bc b5 fb a1 3d 4e d7 ca 3d
       -0.06412782 -0.013903205 0.079093374 0.09904347
0001e0 2a dd a1 bd 06 51 39 3d 97 5d f7 3b 5f 18 0d 3d
       -0.07903512 0.045243286 0.0075489986 0.03444707
0001f0 a4 15 9b 3d 21 77 dd bb 53 78 e0 bb f3 c1 2a 3d
       0.07572487 -0.006758586 -0.0068502813 0.04168887
000200 3d 13 81 bd d2 96 a7 3d 0c 8a 87 3d d3 82 0d be
       -0.063024975 0.081830636 0.06618127 -0.13819437
000210 86 69 ad 3c f9 65 a0 bd 65 db 01 be ac cb 40 bd
       0.021168482 -0.0783195 -0.12681349 -0.047069237
000220 f2 a8 bf bd 64 e0 0e be e8 63 e5 bd 6a cb 6f be
       -0.09358396 -0.13952786 -0.11200696 -0.2341744
000230 36 f9 4b be 97 27 8f 3c b2 1f d6 3b 62 30 94 bd
       -0.19919285 0.017474933 0.00653454 -0.07235791
000240 04 ba d2 3c 92 55 b8 3c 9b 30 ee 3b 23 16 25 3c
       0.025723465 0.02250174 0.007268978 0.010076079
000250 6e f7 f5 bb e7 a7 98 bd 7f bc 86 bd 31 6f e9 bd
       -0.0075063026 -0.074539 -0.065789215 -0.11398161
000260 1d 73 d4 3c c5 27 34 be da 3e b4 3d f7 82 06 3e
       0.025933797 -0.17593296 0.088010505 0.13135897
000270 60 c1 18 be 84 d0 ff 3d 16 c1 2a 3e e1 2b 27 be
       -0.14917517 0.12490943 0.16675219 -0.16325332
000280 e4 a5 93 3d 52 1e d3 3d 9e cb d1 3c b0 42 8f bd
       0.072093755 0.103085175 0.025609788 -0.069951415
000290 03 2d ce bd 4a 6a 10 3d b0 50 e6 bd 0c 35 dd bd
       -0.10067179 0.035257615 -0.11245859 -0.108011335
0002a0 88 68 a8 38 60 cd b1 bd 77 6a 9b bd 41 58 07 bc
       8.030335e-05 -0.0868175 -0.07588666 -0.008260787
0002b0 ef 26 a8 3c 01 f1 06 bd f6 5f 17 bd 8f f4 9b bc
       0.020526377 -0.032944683 -0.03695675 -0.019037513
0002c0 02 62 9a bd 66 2a 10 3e fc 66 a9 3d 1e 0c 82 3b
       -0.07538225 0.14078674 0.08271596 0.0039687296
0002d0 9c 59 1f 3e 60 df 12 3e e3 72 c9 3d 5e 6b 34 3e
       0.15561527 0.14343023 0.09836366 0.17619082
0002e0 4a 13 3c bd 29 89 11 3e 2e a3 88 3e c2 e0 b1 3d
       -0.045916833 0.14212479 0.26686996 0.08685447
0002f0 77 31 9c 3d 5a 66 19 bd 4e 25 86 3c e8 c4 fd 3d
       0.07626622 -0.037451126 0.01637521 0.123910725
000300 cd ce f0 bd e3 f2 39 3c 29 f7 42 3e a6 7f 4c 3d
       -0.11758194 0.011349413 0.19039597 0.049926423
000310 be e1 1f 3e 9c 43 44 3e ef ea 86 3d a5 b6 ee 3c
       0.15613458 0.19166416 0.06587779 0.029139826
000320 b3 c5 68 bd 04 8a bf 3d 3e 80 e0 3d cb ee 8b 3c
       -0.056829166 0.09352496 0.1096196 0.017081639
000330 cd 77 28 3c 75 4c 19 3d 1b 5e 53 bd 94 92 98 3e
       0.010282469 0.03742643 -0.051603418 0.2979933
000340 70 5c 8a 3e af 56 1b bd 79 1c 87 3d 8c 0f db 3e
       0.2702365 -0.037924465 0.065972276 0.427853
000350 1e 58 56 be 36 5a bd 3d dc 3a ba 3e f7 2c 94 bc
       -0.20932052 0.09245722 0.3637303 -0.018087847
000360 c1 27 24 3e ee f0 c6 3d a2 6b 24 be 23 4e 37 3e
       0.1603079 0.097139224 -0.16056684 0.179009
000370 2f e6 fc 3d 6b 5a 56 be 23 b1 31 bd d1 c2 b8 bc
       0.123485915 -0.20932929 -0.04338182 -0.022553833
000380 46 7c 3c be cf b8 73 bd 66 12 5f 3d 0e 9c 97 bb
       -0.18406782 -0.05950242 0.054460905 -0.0046267575
000390 62 31 91 bc 15 73 18 3e 61 00 a5 3d 28 58 04 3c
       -0.017723743 0.1488765 0.08056713 0.008077659
0003a0 be 19 56 3e b4 a9 38 3e 84 10 d6 3d 1f 72 7c 3d
       0.20908257 0.18033487 0.10452369 0.06163227
0003b0 75 f5 34 bc d6 df 2e 3e 06 e2 19 3d 32 4a 1e bd
       -0.01104485 0.17077574 0.03756907 -0.038644977
0003c0 1d 19 4e 3e 36 2a 16 3e 85 29 7f bd b4 ff e4 bc
       0.20126767 0.1466454 -0.062295455 -0.02795396
0003d0 9b d6 66 bd 40 cf ec bd db 6d 4e 3e c7 27 95 3d
       -0.056357007 -0.11562967 0.20159094 0.072829776
0003e0 dd de b6 bd 6d 08 0e 3e a9 0d 8f 3e 09 a5 18 3d
       -0.089292265 0.13870402 0.2794011 0.037266765
0003f0 63 29 bb bc 6a 2e 90 bd 81 b1 df bd 39 bf f7 3d
       -0.022846883 -0.07040103 -0.10922528 0.1209702

conv4.0.weight f4 [80]
000000 ac 31 3e 3f f9 02 af 3f 62 89 4b 3f 20 4c ca 3f
       0.74294543 1.3672782 0.79506505 1.5804482
000010 a5 b1 43 3f 6e a8 84 3f be 57 69 3f 25 45 6e 3f
       0.7644294 1.0363901 0.9114951 0.93074256
000020 f5 4c 72 3f ad 3e 74 3f b2 c4 a1 3f 5a 79 1a 3f
       0.9464868 0.95408136 1.2638152 0.6034142
000030 e9 15 c9 3f cf ab 64 3f f2 bc a7 3f 9a 16 3c 3f
       1.5709811 0.8932466 1.3104537 0.7347199
000040 5b 2a 1f 3f b8 57 21 3f eb 87 61 3f 77 f4 8b 3f
       0.62174004 0.63024473 0.8809802 1.093398
000050 60 e8 63 3f c6 9b b3 3f ba a8 a7 3f af 95 89 3f
       0.8902645 1.4031913 1.3098366 1.0748805
000060 6c ab 83 3f ff f5 1d 3f d0 df 79 3f ee 8c 3b 3f
       1.0286689 0.61703485 0.97607136 0.73261917
000070 2b 24 6c 3f 54 c4 be 3e 2f a0 95 3f e7 b6 a3 3f
       0.9224269 0.3725916 1.1689509 1.2790192
000080 72 3c 47 3f 25 99 1b 3f 7c ee ec 3f dc a2 25 3f
       0.7782661 0.60780555 1.851028 0.6470163
000090 f2 7d 86 3f 5c 30 14 3f 8c 76 9e 3f 10 f1 8c 3f
       1.0507185 0.5788629 1.2379928 1.1011066
0000a0 4d 2a 2d 3f f2 80 a5 3f 82 ee 4b 3f 7a 21 5d 3f
       0.6764267 1.2929976 0.7966081 0.86379206
0000b0 3e 17 5e 3f ea 4a 7a 3f ab 70 a3 3f 3d 91 8a 3f
       0.86754215 0.9777056 1.2768759 1.0825573
0000c0 2d 8a 8c 3f da 92 80 3f 8d 0f 5a 3f 11 2c 87 3f
       1.0979668 1.0044816 0.8517998 1.0560323
0000d0 4a 65 81 3f 90 2e 79 3f 4b 85 9a 3f 18 e6 2f 3f
       1.0109036 0.97336674 1.2071928 0.6871047
0000e0 50 06 8f 3f a4 ed 6a 3f c6 1d 82 3f 31 4a 06 3f
       1.1173801 0.9176886 1.0165336 0.5245696
0000f0 02 05 68 3f 19 e9 1a 3f 4b 06 a7 3f 5a 30 a1 3f
       0.9063264 0.6051193 1.3048795 1.2592881
000100 9f 7d 29 3f d4 3e 6d 3f e8 e3 54 3f 38 38 85 3f
       0.6620731 0.92673993 0.8316026 1.0407782
000110 4a 92 45 3f 10 ba 36 3f 6d 8a 70 3f 59 19 44 3f
       0.77176344 0.7137766 0.9396122 0.7660118
000120 a1 0e 00 3f b9 fd 9a 3f bc b6 85 3f 4c 8d 98 3f
       0.5002232 1.210868 1.0446391 1.191812
000130 e1 ce 33 3f 26 46 87 3f f8 ce 0b 3f 8c 3b 96 3f
       0.7023755 1.0568283 0.54612684 1.1736922

conv4.0.bias f4 [80]
000000 aa 8b 16 bd 9a 63 52 bd f0 d6 32 bc f9 37 e5 3e
       -0.036754288 -0.05136452 -0.010915503 0.44769266
000010 4c e7 bb 3e ff e6 f8 3d 01 87 d7 3e c7 98 85 3e
       0.36699903 0.12153434 0.42095187 0.26093122
000020 f9 59 85 3e 0b 97 26 be d8 89 57 3e d1 33 bb be
       0.26045206 -0.16268556 0.21048677 -0.3656297
000030 d7 6c e0 3d 0f 15 06 3f b8 ee 2d bd 72 09 58 3e
       0.109582596 0.5237588 -0.042463988 0.21097353
000040 51 a4 e7 3e e5 7f b5 bd 7b de 5a be 23 c6 82 3e
       0.4524255 -0.088622846 -0.21373932 0.2554179
000050 44 21 7f 3e f6 4e a7 be e9 39 bd be 43 fd 46 3e
       0.24915034 -0.3267743 -0.36958244 0.19432549
000060 48 f2 bc 3d eb d0 c2 be 36 87 6b 3e 0f 73 58 be
       0.09225899 -0.38050017 0.23000798 -0.21137641
000070 6d ee 62 3e d9 fe 9d be 25 c6 0e 3f 0a 69 9e be
       0.22161265 -0.30858496 0.55771095 -0.30939513
000080 94 91 c6 3e b0 51 fa 3b 11 f7 b9 3e bd 57 02 bd
       0.38782942 0.0076391324 0.3632131 -0.031821955
000090 f1 09 31 3e 8a 42 42 3e e7 b1 ec 3e d2 74 45 3e
       0.17288949 0.18970695 0.4622948 0.19282845
0000a0 f2 2c 04 3e 5f bf 02 be 8e 63 ec 3d c5 7f b3 3e
       0.1290777 -0.12768315 0.11542426 0.35058418
0000b0 c3 e0 6d 3e d3 73 50 3e d3 67 35 be d8 46 0a bf
       0.23230271 0.20356683 -0.17715387 -0.5401435
0000c0 a2 45 dd 3e a7 59 75 3d 85 a8 da 3e 5b 1a 8f be
       0.43217188 0.059899952 0.42706695 -0.27949795
0000d0 e6 4f 00 3f bd c8 01 3f 21 bf df 3e 21 5a d7 3e
       0.50121915 0.5069693 0.43700507 0.4206095
0000e0 64 e5 85 3d a6 9c 84 3e af 3e cf be 68 31 7c 3c
       0.065378934 0.25900763 -0.4047751 0.015392639
0000f0 de 3f 3c 3e 7e 3b 8b 3e a4 01 0b 3d 0f 6d 32 3e
       0.18383738 0.27193826 0.03393711 0.17424415
000100 ab 83 42 be b8 81 c4 3e 79 52 60 3e cf 1c 2f be
       -0.1899554 0.38380218 0.21906461 -0.17100833
000110 cc 24 88 3e 15 5d 4c 3e 45 95 55 3e d6 df 91 be
       0.26590574 0.19957383 0.20857723 -0.28491086
000120 cf c5 3c 3e b3 af 09 3f 32 8f 83 3e 85 a6 ea 3d
       0.18434833 0.5378372 0.25695187 0.11457542
000130 73 be 26 3e 8a f4 c5 3e 64 d1 a2 3e 7e 67 c5 3d
       0.16283588 0.3866313 0.31800377 0.0963888

conv4.0.running_mean f4 [80]
000000 0c c3 d7 3f bb 47 23 3f b4 8c 6b 40 4d db a8 40
       1.6856399 0.63781327 3.6804628 5.27677
000010 b6 d4 09 40 01 26 9c 40 35 31 1d 40 bb ee b3 40
       2.1536078 4.879639 2.4561284 5.622892
000020 8f 46 7d 3f 0c 43 08 3e 41 cc 7c 3f 36 a3 17 40
       0.9893579 0.13306826 0.98749167 2.3693366
000030 64 75 48 3f 9e 1a 1c 40 e3 ae b4 3f 2f 8f 02 40
       0.78304124 2.4391246 1.4115871 2.0399892
000040 b1 9b 98 40 9d 59 a4 3f f2 bf ca 40 95 f2 79 40
       4.7690053 1.2839848 6.335931 3.905431
000050 b8 2f 2b 3f f2 d5 5c 3e 50 9c 96 3f 66 2d f2 3f
       0.6686969 0.21565989 1.1766453 1.8920105
000060 71 2e a1 3f e4 e3 d8 3f 79 54 ef 3f 94 54 c0 3f
       1.2592298 1.6944547 1.8697654 1.5025811
000070 65 88 4b 40 7a e1 4a 40 29 26 71 40 01 89 89 3e
       3.1801999 3.170012 3.767954 0.26862338
000080 02 27 86 40 33 9a c4 3f 52 b5 a5 3f b1 ca a1 40
       4.1922617 1.5359558 1.294596 5.0559926
000090 5a d3 90 3e 49 f6 2c 40 ae dc 68 3f a0 14 4e 40
       0.28286248 2.702532 0.9096173 3.2200089
0000a0 0c a1 89 40 fa 86 a7 3e 05 c8 25 3f c0 6e 1e 40
       4.300909 0.32720166 0.6475833 2.4755096
0000b0 17 13 1e 40 67 0b 85 3f 03 81 10 3e 0a 5e 20 3f
       2.4699152 1.0394105 0.14111714 0.6264349
0000c0 d4 bb 26 40 52 91 7a 40 09 ff 9b 3f e6 b3 a7 3e
       2.605214 3.9151196 1.2187206 0.3275444
0000d0 93 02 08 3e e1 20 8d 40 30 8b 01 40 98 57 90 3f
       0.13282232 4.4102635 2.0241203 1.1276731
0000e0 e6 0f 7e 40 d5 1d 48 40 b1 ba c8 3e 3c 9c 0a 40
       3.9697204 3.1268208 0.39204934 2.1657858
0000f0 66 41 cb 3f ce 81 90 3f 1f 34 39 3f 00 84 76 40
       1.5879333 1.1289613 0.72345155 3.8518066
000100 5b e1 a5 40 ea 81 91 40 ec 12 96 40 b5 13 c9 3f
       5.183759 4.5471087 4.68981 1.5709139
000110 a7 f1 2d 40 2b 03 74 3f 68 69 fd 3e 0f 0b 23 3f
       2.7178743 0.95317334 0.4949448 0.6368875
000120 a8 af 18 40 e4 5c 23 40 52 f1 a0 3f 55 e9 61 40
       2.3857212 2.5525446 1.2573645 3.5298665
000130 46 e7 00 40 c2 f2 96 3f f5 ec 77 40 90 b9 b3 3f
       2.0141158 1.1792834 3.8738377 1.4041004

conv4.0.running_var f4 [80]
000000 99 d7 42 41 5c aa 07 41 2e 2f fc 41 af 64 0b 42
       12.177636 8.479092 31.523037 34.848324
000010 bc 6c 45 41 07 ae 04 42 81 d1 e5 41 8c 3b dd 41
       12.3390465 33.16995 28.727297 27.654076
000020 fe fa c9 41 4d 90 35 40 69 2f e3 40 a3 9e 20 42
       25.247555 2.8369324 7.0995374 40.15492
000030 e5 40 ba 40 09 21 78 41 76 75 da 40 16 65 1d 42
       5.8204217 15.508065 6.8268385 39.348717
000040 03 7f 02 43 bb 9b 1f 41 e4 7b 23 42 8e 48 c7 42
       130.49614 9.97552 40.870987 99.64171
000050 09 6c 82 41 d8 f6 52 40 70 c5 aa 40 d4 19 09 42
       16.302752 3.2963161 5.3366013 34.275223
000060 c4 3f 1c 41 07 a0 02 42 a2 f5 b8 41 b1 60 05 41
       9.765568 32.656277 23.119938 8.336106
000070 fe 15 e0 41 b1 4c 15 42 85 8b 16 43 e6 ca 80 40
       28.010738 37.324894 150.545 4.024768
000080 7d a7 31 42 aa 8c e8 41 3f b5 16 41 87 a4 99 42
       44.413563 29.068684 9.41925 76.82134
000090 37 15 19 40 70 8e 0a 42 a7 88 6f 40 bb aa 04 42
       2.3919199 34.6391 3.7427156 33.16673
0000a0 a4 7b 4a 42 dd aa 70 40 0b b8 5a 41 ee 95 ae 42
       50.620743 3.7604287 13.669932 87.29283
0000b0 60 88 f0 41 41 e5 e0 40 39 19 2d 40 19 9e 8b 40
       30.06659 7.027985 2.7046645 4.363049
0000c0 22 e5 a8 41 e9 b8 b5 41 44 7c 27 41 5b 24 1b 40
       21.111881 22.715288 10.467838 2.424094
0000d0 c0 79 06 40 d2 d5 08 43 15 c7 73 42 49 d1 5c 41
       2.101181 136.83524 60.944416 13.801095
0000e0 54 0b 5a 41 fa 15 85 41 e4 d3 6c 40 56 c1 7a 41
       13.627766 16.63573 3.7004328 15.672201
0000f0 78 62 9c 41 7c 65 fd 40 e0 36 6a 40 c5 83 93 41
       19.54808 7.918638 3.6595993 18.43934
000100 a3 c8 0c 43 84 d2 11 43 37 76 7c 42 79 7f 2e 41
       140.78374 145.82233 63.115444 10.906121
000110 f4 ef aa 42 00 11 e9 41 42 5f a5 40 09 8a ba 40
       85.46866 29.1333 5.167878 5.82935
000120 fb 23 1c 42 c8 1f 5b 42 4c 7d 33 41 da b6 42 41
       39.035137 54.781036 11.21809 12.1696415
000130 b3 44 1d 42 7b 71 44 41 c8 c4 51 42 2f 7c 88 41
       39.31709 12.277705 52.44217 17.060637

conv4.1.weight f4 [120, 80, 3, 3]
000000 e3 a0 36 3d 6f 7e 6c 3c e7 94 ea 3b ef f2 bb 3c
       0.044587027 0.014434441 0.007158864 0.022942988
000010 61 09 dc 3b db 16 45 bc de ec 54 3e 19 3a 61 bd
       0.0067149852 -0.012029375 0.20793483 -0.054987047
000020 95 90 dd 3c 4f a0 2d 3e d6 11 50 3e 3d 26 65 be
       0.027046481 0.16955684 0.20319304 -0.22377868
000030 6b ee a1 bd 25 89 1b 3e 5e c6 88 be 17 4a 08 3e
       -0.07906803 0.15189035 -0.26713842 0.13309513
000040 86 73 33 3e ad f2 1d be 92 81 33 bd fd cd c9 be
       0.17524537 -0.15424605 -0.04382474 -0.3941497
000050 f6 41 5a be 89 ee 4c bd ff bf e0 bd ad e6 be bc
       -0.21314225 -0.050032172 -0.1097412 -0.023303354
000060 0a 26 72 bc 46 b5 2c be c9 e5 2f 3e fa b3 1d be
       -0.014779577 -0.16866025 0.171775 -0.15400687
000070 52 14 a9 bc ae 76 87 be 36 2a 38 bc 17 36 41 3e
       -0.020639572 -0.26457733 -0.011240533 0.1886829
000080 a6 81 50 be 21 9e af bc b7 2f 99 3e 23 c9 c5 be
       -0.20361957 -0.021437706 0.29919216 -0.38630018
000090 67 81 a0 be 6b bf d7 be 78 0e 88 be 70 d1 c3 bc
       -0.31348726 -0.42138228 -0.2657354 -0.023903579
0000a0 f4 1e 1a be fe 09 6e 3e 6c 28 3d be 3a 5c fa be
       -0.1505087 0.23245999 -0.18472451 -0.48898488
0000b0 45 66 a4 3d f6 fc 68 be 2f 18 8c be 5b 8c 59 be
       0.08027319 -0.22752747 -0.273622 -0.21244948
0000c0 5e bc bc 3d 43 f0 09 3e 71 bd 8c 3e ae 34 36 bd
       0.09215616 0.13470559 0.27488282 -0.044483833
0000d0 94 08 2f 3d fe b4 c3 3c 4b a2 45 be da 5c 2d 3c
       0.04273279 0.023890015 -0.19300191 0.01058122
0000e0 25 c8 14 3c 8d a8 8c be b6 6e b3 bd 41 03 55 be
       0.009080921 -0.27472344 -0.08761351 -0.20802023
0000f0 da 1a 7e be 4c ea fd bd ea 84 8b be 69 ba 76 be
       -0.2481493 -0.12398204 -0.27249843 -0.24094547
000100 1b a6 14 be 14 24 f4 3d c2 89 1a bd 97 c8 39 be
       -0.14516489 0.11920944 -0.037729032 -0.18142925
000110 bc a4 d8 3e 57 30 ef bc a8 1c 97 bd 47 47 3d 3e
       0.42313182 -0.029197855 -0.073785126 0.18484221
000120 1f d1 59 be 2e 64 e5 be e8 7f cf be 50 e7 b9 be
       -0.2127118 -0.44802994 -0.40527272 -0.3630929
000130 cb a8 35 bf 2d c4 fa be 64 4c af be ba f3 27 bf
       -0.7096068 -0.48977795 -0.3423797 -0.6560627
000140 8f c1 b4 be fc 9b de 3d e9 b9 3f 3e ee fe ef 3e
       -0.35303923 0.108695954 0.18723263 0.46874183
000150 dd 1c a5 bd b4 b4 41 be ff c6 43 be c3 00 7e bd
       -0.08062146 -0.18916589 -0.1911888 -0.062012445
000160 77 18 8f be 67 24 80 bd a8 d3 dc bd 3c cf 5f 3d
       -0.27948353 -0.06256943 -0.10782558 0.054640993
000170 11 b3 f3 3e a7 5d 80 be 2a 75 c3 be 3f 46 dc 3e
       0.47597554 -0.2507145 -0.38175327 0.43022344
000180 c7 0c 9d be 1e c0 64 be e8 a4 12 3f bf 81 42 3d
       -0.3067381 -0.22338912 0.57282877 0.047487017
000190 f7 07 36 3e 69 35 bc 3e e3 7e 35 3c e2 2a a6 3d
       0.17776476 0.367595 0.011077615 0.08113648
0001a0 6f eb 93 3e 6d a5 98 3d c7 e2 cd 3d ba 7b 96 3e
       0.2889056 0.074534275 0.1005302 0.2939127
0001b0 d5 29 46 3d 4a 5b b4 be b7 96 a9 3d 43 b1 bd be
       0.048379738 -0.35225898 0.082807 -0.37049302
0001c0 ce b8 f3 be 63 5d 13 3e a6 08 95 be 1d 10 fc be
       -0.47601932 0.14391093 -0.2910816 -0.49231043
0001d0 83 22 93 3d 4f 38 86 be 01 7a 0d 3e a7 91 2f 3e
       0.07184317 -0.26214835 0.13816072 0.17145406
0001e0 83 03 65 be 33 c2 6e be cd b1 88 3e cc 71 33 be
       -0.22364621 -0.23316269 0.2669815 -0.17523879
0001f0 b9 cd c3 be 64 8f 84 3e af 0b 58 bd 62 6c b7 3c
       -0.3824289 0.25890648 -0.052745517 0.022390548
000200 1b 15 5f 3e 34 89 e4 3c 4d 63 c8 bc 8d 59 a4 3e
       0.21785395 0.027897455 -0.024461413 0.32099572
000210 5f 1c bc be 5f 2a 1e be de 89 6f 3e a7 65 a5 be
       -0.36740395 -0.15445851 0.23392436 -0.32304117
000220 04 6a c1 be bf 6c 08 bf 5c 7f e1 be a6 0c 11 bf
       -0.37776196 -0.53290933 -0.4404248 -0.56659925
000230 7c 4d f9 be fd 3c b2 be 46 39 29 bf 25 8e 15 bf
       -0.48691928 -0.34812155 -0.6610302 -0.5842002
000240 5e c9 43 be 63 b5 80 be 05 6a f9 be f0 7d c9 be
       -0.19119784 -0.25138387 -0.487137 -0.39353895
000250 b3 72 bd be 9b ff fa be 3b 11 e6 be 47 37 92 be
       -0.3700157 -0.49023136 -0.4493502 -0.28557798
000260 5d 52 32 bf 64 60 7c be ec 35 90 be f1 25 ec bd
       -0.69656926 -0.24646145 -0.2816614 -0.11530674
000270 1d 26 be bd 2d 4d ba bd fe ef 47 3e ff 08 48 3e
       -0.09284613 -0.09096751 0.19525144 0.19534682
000280 81 7c c5 bd 19 11 48 3e 82 03 81 be de f5 bf 3d
       -0.09642888 0.19537772 -0.2519799 0.09373067
000290 f5 fb 05 3e 6e 34 ac 3c a7 8c 12 3d 60 98 d3 3e
       0.13084395 0.021021094 0.035778668 0.4132719
0002a0 53 77 c7 bd 19 c2 a4 3d d8 21 ec 3d 1c 20 a8 3e
       -0.09739556 0.08044834 0.11529893 0.32836998
0002b0 8d e8 cf 3d 13 e1 ad 3c 3b ed df 3c 93 18 fa bc
       0.101517774 0.021225488 0.0273348 -0.030529296
0002c0 ad bf 81 bd 38 68 c4 3d bc 9b c7 3c 12 2e 04 3c
       -0.063353874 0.09590191 0.024366252 0.008067625
0002d0 70 1a c6 bc 6e f1 b0 3c 12 47 d4 be a2 a9 ba be
       -0.024182528 0.021599498 -0.41460472 -0.36457545
0002e0 ed bd 05 bf d6 06 e1 be e3 d9 1d bf 36 fe 13 bf
       -0.5224293 -0.43950528 -0.61660594 -0.5780977
0002f0 6f 30 13 bf f3 4a 44 3e b9 cd 19 3f 43 58 1c 3e
       -0.5749578 0.19169216 0.6007953 0.15268044
000300 2e 47 1e 3e e8 44 a7 3e c2 f6 6a bd 29 bc ed bd
       0.1545684 0.3266976 -0.057364233 -0.11608154
000310 67 35 7f 3e bb 61 fb bd 90 a3 50 3e 55 4f eb 3e
       0.24922715 -0.122745 0.20374894 0.45958963
000320 44 a6 49 3e dd 2f 89 3e 5a 5a 3a 3e 08 0d 3c 3e
       0.19692332 0.2679433 0.18198529 0.18364346
000330 65 0f 1a bd aa 25 8a 3e 56 ed d4 be 87 c6 a2 be
       -0.037612338 0.2698186 -0.41587323 -0.3179209
000340 41 d8 d6 be 6c 84 c2 be 45 c1 34 be 88 0c c4 be
       -0.41961864 -0.37991655 -0.17651851 -0.3829081
000350 21 30 bf be 00 05 50 be 17 ba 42 be 36 ee 95 be
       -0.37341407 -0.20314407 -0.190163 -0.29283303
000360 23 b7 02 be b4 c8 9b be 85 2e 05 3b 1f 8c bc be
       -0.12765174 -0.30426562 0.0020321917 -0.36825654
000370 0b 92 a3 be 76 43 ab bd d4 fa 90 be 66 8c 17 bf
       -0.3194736 -0.083624765 -0.28316367 -0.59198606
000380 47 eb 14 be bf 20 59 3e f2 af 3b 3c 7d d4 30 3d
       -0.14542876 0.21203898 0.011455523 0.043171395
000390 a4 16 b5 3e d7 4b 05 3e c3 14 18 bb 86 f1 60 3e
       0.35368836 0.13017212 -0.0023205734 0.21967134
0003a0 5e 00 5d 3d c8 32 10 bd 60 48 32 bd 36 a5 89 be
       0.05395543 -0.03520468 -0.043526053 -0.26883858
0003b0 21 03 11 be c1 55 36 be 7e f8 c1 be e9 2f 0a be
       -0.1416135 -0.1780615 -0.37884897 -0.13494839
0003c0 61 7c 8e bd 4d ad 02 be b1 96 22 be 52 3c 00 be
       -0.06957317 -0.12761422 -0.15877797 -0.1252301
0003d0 bf 0e b2 be e9 56 51 be 15 d8 f0 bd bd b8 a0 be
       -0.34776875 -0.2044331 -0.117599644 -0.31390944
0003e0 27 71 c3 bd 0d f5 48 be 61 8c 8c be a7 8b 10 be
       -0.095430665 -0.1962473 -0.2745085 -0.14115773
0003f0 1b e0 47 be af 78 06 bb 9b 72 5a 3c 4f 4f 23 3d
       -0.19519083 -0.002051871 0.013332988 0.039870556

conv5.0.weight f4 [120]
000000 9c ec 91 3f 6d 7a 9b 3f dc 27 6d 3f 68 20 81 3f
       1.1400332 1.2146736 0.92638946 1.0088015
000010 9a 01 90 3f c1 01 81 3f cf 4e ad 3f 04 ed 86 3f
       1.1250489 1.007866 1.3539675 1.0541081
000020 28 95 19 3f 29 82 73 3f 98 03 6a 3f 31 85 67 3f
       0.5999322 0.95120484 0.91411734 0.9043761
000030 81 86 8b 3f 44 00 2d 3f cb 68 a5 3f 14 00 5c 3f
       1.0900422 0.6757853 1.2922605 0.8593762
000040 8d 49 8a 3f d1 41 9c 3f 03 be 5b 3f 0e 96 71 3f
       1.0803696 1.2207586 0.8583681 0.9436959
000050 0f 17 98 3f ab af 85 3f 94 db 6d 3f e0 a8 32 3f
       1.1882037 1.0444235 0.92913175 0.6978893
000060 a9 4e b9 3f d3 73 5d 3f 7a 28 b5 3f f8 ff ac 3f
       1.447713 0.8650486 1.4152977 1.3515615
000070 4a 6a 58 3f 21 1f 4a 3f f8 fe 41 3f b4 85 b0 3f
       0.84537184 0.7895375 0.75779676 1.3790803
000080 d4 a0 83 3f 54 3e 81 3f 7d bd 79 3f f0 21 8e 3f
       1.0283456 1.0097146 0.9755476 1.1104107
000090 a1 ad 7b 3f 0e 96 54 3f f7 40 6d 3f e2 53 85 3f
       0.9831181 0.83041465 0.92677253 1.0416224
0000a0 23 8d 42 3f 6e 69 76 3f ab c1 2d 3f 80 2d 6f 3f
       0.7599661 0.9625462 0.6787364 0.934288
0000b0 f8 2c 83 3f 22 a2 a5 3f 58 1e 83 3f 89 fb 5a 3f
       1.0248098 1.2940104 1.0243635 0.8554006
0000c0 b7 d7 63 3f 17 94 a2 3f 67 1d 74 3f 5c 4d 73 3f
       0.8900103 1.2701443 0.95357364 0.95039916
0000d0 ba 9d 77 3f 92 07 a2 3f ae 4d 69 3f 32 2b a5 3f
       0.96725047 1.265856 0.91134155 1.2903807
0000e0 e7 7b 2d 3f 38 44 93 3f ce c8 93 3f 53 3c a5 3f
       0.67767185 1.1505194 1.1545656 1.2909034
0000f0 f9 19 b6 3f 6b ec 3b 3f ac fc 89 3f d4 27 6b 3f
       1.4226676 0.7340762 1.0780234 0.9185765
000100 1b c9 8e 3f 26 3c 92 3f 23 c6 86 3f fb 8b 94 3f
       1.1155123 1.1424606 1.0529217 1.1605219
000110 24 3f 29 3f 7a 17 6d 3f 35 7f 86 3f 02 65 b1 3f
       0.6611197 0.9261395 1.050757 1.385895
000120 f2 62 88 3f c3 c3 80 3f d7 aa 41 3f a5 d9 49 3f
       1.0655196 1.0059742 0.75651306 0.78847724
000130 32 92 80 3f 20 3a 13 3f c2 34 95 3f 7f e9 74 3f
       1.0044615 0.57510567 1.1656725 0.95668787
000140 75 a3 90 3f 00 33 3a 3f 3e 7b 89 3f 41 60 a8 3f
       1.1299883 0.7273407 1.0740736 1.3154374
000150 79 0c 62 3f 7e 58 88 3f 18 eb 55 3f 7d 72 8c 3f
       0.8830028 1.0652006 0.8356185 1.0972439
000160 ca e3 92 3f c6 26 4e 3f e0 52 71 3f 59 66 81 3f
       1.1475766 0.80527914 0.9426708 1.0109359
000170 ab 80 47 3f 5c 5e 83 3f 65 ee 24 3f c2 13 45 3f
       0.77930707 1.0263171 0.6442626 0.76983273
000180 82 0f 54 3f f8 5a 42 3f 2b 3b 91 3f 72 75 90 3f
       0.82836163 0.7592006 1.1346182 1.1285841
000190 e7 7f 52 3f 52 e5 8d 3f ad 7f 54 3f 75 9a aa 3f
       0.82226413 1.1085608 0.8300732 1.3328387
0001a0 0e 36 50 3f 17 d9 4d 3f 83 85 39 3f ee ee 3a 3f
       0.8133248 0.8040938 0.7246935 0.7302083
0001b0 8b 7e 56 3f 49 98 65 3f 42 1b 38 3f cb de 39 3f
       0.8378684 0.89685494 0.7191659 0.7260558
0001c0 de 47 37 3f b8 7d 0c 3f 27 69 a3 3f 85 a7 ac 3f
       0.71594036 0.5487933 1.2766465 1.3488623
0001d0 17 07 99 3f bd 34 90 3f b6 e1 4b 3f 36 29 87 3f
       1.1955289 1.1266094 0.7964128 1.0559452

conv5.0.bias f4 [120]
000000 1a 22 a0 3c ef 3f 26 bb 55 ae 09 3c 23 f4 70 3b
       0.01954751 -0.0025367697 0.00840338 0.003676661
000010 f7 e3 97 3c 49 27 f0 3b 3f 3b 03 3c 9e 11 06 3c
       0.01854132 0.007328902 0.008009731 0.008182911
000020 fb a6 23 bc 86 b5 fe ba 6c 2f 36 bc bf 21 0a 3c
       -0.009988542 -0.001943276 -0.011119705 0.008430897
000030 26 dc d4 bb 4c 39 15 ba be 1e cd 3b 99 bb ce bb
       -0.0064959703 -0.0005692437 0.0062597683 -0.0063089845
000040 a0 25 87 3b 12 7a 9c 3b 13 34 28 bc 5e 6f 18 bc
       0.0041243583 0.004775294 -0.010266322 -0.009303896
000050 95 1b 77 3c ee b2 25 bc 6d 13 c6 3b aa 1a bf ba
       0.01508226 -0.010113461 0.006044796 -0.001458009
000060 ee 30 58 3c a8 20 13 bb 1d ef 98 3c a6 2f 7f 3b
       0.0131952595 -0.0022449885 0.018668706 0.0038938313
000070 04 2e ae bb c3 c5 bc bb ef 81 13 bc 78 67 bd 3c
       -0.005315544 -0.0057608797 -0.009003147 0.023120627
000080 af b1 de b9 e0 7c b9 3b b6 24 37 3c 9f c5 55 3c
       -0.00042475524 0.005660638 0.011178186 0.013047605
000090 29 fd 0d 3b ce d7 32 bb d9 59 5f bc 8b 8f 01 3c
       0.0021665788 -0.0027289274 -0.013632261 0.0079077585
0000a0 a0 2a 50 bc e8 d5 16 3c 04 af 21 bc 5f f8 12 3c
       -0.012705475 0.009206273 -0.009868387 0.008970349
0000b0 22 bf d6 3b 70 d6 3c 3c 05 1f e2 3b 3d 4a d5 bb
       0.0065535465 0.011525735 0.0069006705 -0.006509094
0000c0 8d 6e 8e 3b 8c 5c 5e 3c 75 77 00 3b c7 b2 46 bc
       0.004346675 0.01357187 0.0019602452 -0.012127585
0000d0 d0 6d 69 3b 9f b7 c4 3c 2f 8f 75 bc 33 6a 0e 3c
       0.0035618432 0.024013339 -0.014987751 0.008692312
0000e0 c1 5a c0 bb 4a 24 14 bc e6 bd 6e 3c 87 11 2a 3b
       -0.0058701937 -0.009041855 0.0145716425 0.0025950389
0000f0 4b 0c a5 3b f8 2b 0b bc d8 cd c9 3b 3b 83 0a 3b
       0.005036866 -0.00849437 0.0061585717 0.0021135348
000100 37 87 e8 38 7f 0e 49 bc 9a 5e 86 3c 4a 21 d7 3b
       0.00011087808 -0.012271523 0.016402531 0.0065652477
000110 6f 14 b3 bb 67 5c 7b ba f3 ec f0 3b 35 2c 05 3b
       -0.0054650824 -0.0009588659 0.0073524653 0.002032054
000120 b1 2b 8f 3c d8 f0 ae bb 60 fa 11 3b af e9 67 3c
       0.017476888 -0.0053387694 0.002227448 0.014154836
000130 81 38 20 3b 47 0a a9 bb ad fe c3 3b ce 5b 35 bb
       0.0024447741 -0.005158696 0.0059812875 -0.0027673128
000140 3b 30 81 3a 5b 70 fc bb ef 33 e5 3b 2c 56 94 3c
       0.0009856293 -0.0077038235 0.0069947164 0.018107496
000150 d2 b1 3d 3c 6e 70 4b bb e4 5b 9d 3b f8 33 86 bb
       0.01157804 -0.0031042355 0.004802214 -0.0040955506
000160 99 40 89 3b e8 11 1b bb 69 ce 6c 3c 72 74 8a 3b
       0.004188609 -0.0023661796 0.014453509 0.004225307
000170 31 75 ba 39 9d ab 34 3c a1 31 17 3c e9 cb fa bb
       0.00035564 0.011027244 0.009228141 -0.0076537025
000180 d1 ac 39 bc 2a b5 82 3c 33 0b 8b bb 47 7a 1e 3c
       -0.011332707 0.015955526 -0.0042432784 0.009672708
000190 2b d6 58 bb 6d 6c 7d 3c e5 02 77 bc 47 69 97 3c
       -0.0033086638 0.015467745 -0.015076374 0.018482817
0001a0 86 32 4e bc 17 b2 f0 bb 03 a9 de 3a 8b de 29 bc
       -0.012585288 -0.0073454487 0.0016987625 -0.010368
0001b0 61 82 a7 bb c4 65 b8 3b 6f 98 e3 bb 4e a9 be b9
       -0.005111978 0.005627366 -0.0069456617 -0.00036365766
0001c0 2b 21 37 bc 0a 6c 77 bb 91 57 19 3a 55 31 29 3b
       -0.011177341 -0.0037753605 0.0005849535 0.0025816758
0001d0 ea ad 11 3d 28 6d 7b 3c f9 63 18 bc 8f 8e 90 bb
       0.035566248 0.015345849 -0.009301179 -0.0044115256
