old_weights/BackCNN_best_weights.pth (torch, 647347 bytes, 32 tensors)

conv1.0.weight f4 [3]
0.8727551 0.9986456 0.96437716
00000000: e16c 5f3f 3da7 7f3f 6ce1 763f

conv1.0.bias f4 [3]
0.13918287 0.26792777 0.14560133
00000000: f485 0e3e d42d 893e 8418 153e

conv1.0.running_mean f4 [3]
0.2228732 0.2460243 0.2210494
00000000: df38 643e cbed 7b3e c65a 623e

conv1.0.running_var f4 [3]
0.061956815 0.048758216 0.037813105
00000000: 6ec6 7d3d b2b6 473d eae1 1a3d

conv1.1.weight f4 [20, 3, 7, 7]
-0.0259287 -0.035255633 -0.07890995 0.023216704 -0.021809952 -0.026839064 0.016961997 0.030840473
-0.032860357 0.025686761 -0.017074788 -0.0049923114 -0.009070703 -0.0077379537 -0.068438284 0.0018530727
0.0028067895 -0.052883007 -0.008324562 -0.064909294 0.030226234 -0.011921488 -0.07604171 -0.024921076
0.022148559 -0.04080508 -0.029419884 -0.026552258 0.015301565 -0.025149943 -0.04208224 0.03621113
-0.06827111 -0.023916716 0.051263656 -0.016700411 0.0073572476 0.041932873 -0.041192837 -0.07738286
0.029327882 -0.0021237032 -0.0044649076 -0.022773635 -0.04010542 -0.03450904 -0.04589573 -0.013215858
-0.035854507 0.014272848 0.008878471 0.008407381 -0.035138194 0.15372126 0.00876658 -0.010427338
-0.060296874 -0.07998025 -0.0839605 0.089892864 0.0901373 0.099948436 0.08759467 -0.03974786
-0.0072080377 -0.020578917 0.045031875 0.11145175 0.18534724 0.009965302 0.049472954 0.014315239
-0.022383453 0.064878926 0.11339534 0.15138216 0.11245537 -0.036954433 -0.012537171 -0.030142233
0.12033641 0.090589724 0.13308498 0.008326939 0.022898205 0.030500341 -0.06493387 0.096322194
0.1361944 0.040564127 -0.018474696 -0.0043231584 -0.0016137965 0.028785734 0.10089004 0.14410354
0.14763376 0.108648755 -0.0035563887 0.05319671 0.061756533 -0.042329583 -0.11807563 -0.009686396
-0.04797444 0.035347853 0.07772672 0.004295819 -0.06315951 -0.16362303 -0.1694124 -0.059206024
0.059869513 0.041939635 -0.007833025 -0.049701806 -0.16804023 -0.12880604 -0.09987964 -0.043886647
0.031937506 0.0066922638 -0.08375734 -0.07407049 -0.15980354 -0.10842008 0.0011968839 0.06553735
0.031137213 -0.13178723 -0.086653076 -0.13139474 -0.06834605 -0.0153102325 -0.03256824 -0.0007935298
-0.10964055 -0.09754042 -0.14408173 0.016431946 -0.0072192424 0.009748907 -0.0075516775 -0.08894369
-0.1424989 -0.1319925 -0.06214302 -0.06997017 -0.064871356 -0.14710736 -0.18534927 -0.14924039
-0.1578254 -0.00582741 -0.06642669 -0.20581305 -0.11451827 -0.16399395 -0.2199374 -0.16516294
-0.16233549 -0.1874449 -0.1918544 -0.25113723 -0.1456657 -0.13319564 -0.18772322 -0.15262333
-0.10683553 -0.1868075 -0.21829304 -0.10865219 -0.093186215 -0.07175729 -0.14180076 -0.10653441
-0.07422729 -0.102002114 -0.16278437 -0.1210214 -0.02076881 -0.0037646014 -0.052774824 -0.046722572
-0.03635368 -0.019941112 -0.11041789 -0.09673459 -0.020922469 0.0005373971 -0.0109274015 -0.036580015
-0.046275962 -0.0033964019 0.0031423478 -0.074340045 0.099159434 0.115959294 -0.019985335 0.08279404
0.02523375 0.040388543 0.09488612 0.06362534 -0.013823713 -0.031720653 0.075442575 0.059866972
0.021102415 0.04353315 0.0485143 -0.0990442 0.014986307 0.07375353 0.008287732 0.07455259
-0.018236015 0.038219996 -0.08971581 -0.07146872 -0.045425855 -0.0029020158 0.06404891 0.026086276
-0.10164594 0.0044959616 0.073881984 0.0017834912 0.011357682 0.07036341 0.021256736 0.04468435
-0.08847578 0.011456691 -0.054824587 -0.017882477 0.019038161 -0.068600036 -0.037209656 -0.09239022
-0.0353933 0.0353616 -0.013436619 0.0099101 -0.063816495 -0.06464601 -0.06555064 -0.053244777
0.068186566 0.043423392 -0.052360676 0.056809973 0.06995437 0.086595565 0.09701615 0.06255523
00000000: 6d68 d4bc 3668 10bd 8a9b a1bd f530 be3c
00000010: c9aa b2bc 99dd dbbc e3f3 8a3c 29a5 fc3c
00000020: 9598 06bd 0b6d d23c 6de0 8bbc 8b96 a3bb
00000030: 499d 14bc a98e fdbb 5f29 8cbd cde2 f23a
00000040: 1df2 373b da9b 58bd be63 08bc 2aef 84bd
00000050: 029d f73c 5852 43bc c2bb 9bbd 4927 ccbc
00000060: e570 b53c 3a23 27bd f801 f1bc 1f84 d9bc
00000070: 6ab3 7a3c 4107 cebc 6d5e 2cbd 1f52 143d
00000080: b9d1 8bbd fdec c3bc d7f9 513d 4dcf 88bc
00000090: 1115 f13b cec1 2b3d d2b9 28bd e87a 9ebd
000000a0: 0741 f03c d42d 0bbb 5c4e 92bb c68f babc
000000b0: 9545 24bd 5a59 0dbd 29fd 3bbd 5387 58bc
000000c0: 2ddc 12bd aad8 693c 0277 113c 1dbf 093c
000000d0: 11ed 0fbd 1b69 1d3e b4a1 0f3c 6dd7 2abc
000000e0: dbf9 76bd afcc a3bd 7cf3 abbd c019 b83d
000000f0: e899 b83d c4b1 cc3d d664 b33d a7ce 22bd
00000100: 6731 ecbb 1e95 a8bc 5873 383d d140 e43d
00000110: abcb 3d3e 8245 233c 27a4 4a3d 778a 6a3c
00000120: 815d b7bc 3edf 843d d13b e83d ed03 1b3e
00000130: 004f e63d 885d 17bd b568 4dbc d8ec f6bc
00000140: f072 f63d 1b87 b93d 6e47 083e b76d 083c
00000150: 0495 bb3c dadb f93c 0dfc 84bd 9244 c53d
00000160: 8b76 0b3e 9226 263d 3f58 97bc 48a9 8dbb
00000170: 0686 d3ba 0fd0 eb3c 709f ce3d e18f 133e
00000180: 4e2d 173e 3d83 de3d 4d12 69bb cbe4 593d
00000190: 6bf4 7c3d c961 2dbd a3d1 f1bd b1b3 1ebc
000001a0: d980 44bd e9c8 103d 302f 9f3d f1c3 8c3b
000001b0: c659 81bd cc8c 27be 727a 2dbe 0482 72bd
000001c0: bc39 753d e5c8 2b3d 1756 00bc 1f94 4bbd
000001d0: bd12 2cbe bbe5 03be b28d ccbd 7cc2 33bd
000001e0: e7d0 023d c74a db3b f888 abbd 45b2 97bd
000001f0: 8aa3 23be 590b debd c2e0 9c3a 7238 863d
00000200: 7813 ff3c 3bf3 06be 2b77 b1bd 588c 06be
00000210: 04f9 8bbd c5d7 7abc 4666 05bd e204 50ba
00000220: 3a8b e0bd 46c3 c7bd 298a 13be 4a9c 863c
00000230: 658f ecbb e1b9 1f3c 1074 f7bb 1c28 b6bd
00000240: 3beb 11be 0b29 07be ae89 7ebd 854c 8fbd
00000250: 46db 84bd 50a3 16be 33cc 3dbe 79d2 18be
00000260: fb9c 21be dcf3 bebb b70a 88bd a8c0 52be
00000270: 8e88 eabd 08ee 27be 4537 61be 7920 29be
00000280: 463b 26be 8ef1 3fbe 7b75 44be 0f95 80be
00000290: 6429 15be 7064 08be 843a 40be 4a49 1cbe
000002a0: 96cc dabd 774a 3fbe 3688 5fbe 0a85 debd
000002b0: 6ad8 bebd 7cf5 92bd 3834 11be b62e dabd
000002c0: 7a04 98bd 7ce6 d0bd f2b0 26be 11da f7bd
000002d0: 5a23 aabc 88b7 76bb 6a2a 58bd 2b60 3fbd
000002e0: 99e7 14bd 8b5b a3bc c622 e2bd c91c c6bd
000002f0: 9965 abbc 1ce0 0c3a d808 33bc edd4 15bd
00000300: dd8b 3dbd 2b96 5ebb d9ef 4d3b 983f 98bd
00000310: 1a14 cb3d 117c ed3d 49b8 a3bc ec8f a93d
00000320: 02b7 ce3c 756e 253d a753 c23d 014e 823d
00000330: db7c 62bc 84ed 01bd a381 9a3d 1237 753d
00000340: f9de ac3c d14f 323d eeb6 463d afd7 cabd
00000350: 2189 753c 170c 973d 44c9 073c 07af 983d
00000360: b263 95bc 928c 1c3d ecbc b7bd 315e 92bd
00000370: 7610 3abd bf2f 3ebb 132c 833d e3b2 d53c
00000380: bf2b d0bd dc52 933b 704f 973d 09c4 e93a
00000390: 9215 3a3c b11a 903d 9b22 ae3c f006 373d
000003a0: ca32 b5bd d8b4 3b3c bf8f 60bd 467e 92bc
000003b0: ebf5 9b3c 2d7e 8cbd 2769 18bd 1537 bdbd
000003c0: 91f8 10bd 53d7 103d 4425 5cbc f95d 223c
000003d0: 39b2 82bd 2165 84bd 6a3f 86bd 3217 5abd
000003e0: 66a5 8b3d badc 313d 2678 56bd 93b1 683d
000003f0: 3d44 8f3d 0459 b13d 67b0 c63d f51c 803d

conv1.3.weight f4 [20]
0.9107858 1.0291702 1.000722 0.81558484 0.8529991 0.90327626 0.92641866 0.8800354
0.96086574 0.95602584 1.0369644 0.9599489 0.9796964 0.9567179 0.8757563 1.0358866
0.94388187 0.99295336 0.92551017 1.0214907
00000000: 4229 693f d9bb 833f a917 803f 2bca 503f
00000010: 265e 5a3f 1d3d 673f c629 6d3f 004a 613f
00000020: 4cfb 753f 1cbe 743f 40bb 843f 36bf 753f
00000030: 62cd 7a3f 77eb 743f 9131 603f ef97 843f
00000040: 3ea2 713f 3132 7e3f 3cee 6c3f 35c0 823f

conv1.3.bias f4 [20]
-0.26211798 -0.19057429 -0.11218332 0.096334204 -0.08693141 -0.030838903 0.0816866 -0.01580409
-0.07799067 -0.21185149 -0.21933864 -0.003914665 -0.069234155 -0.08618865 -0.17711996 0.023655217
-0.31348988 -0.01894829 -0.30923107 -0.1568961
00000000: 5434 86be e825 43be 5ec0 e5bd de4a c53d
00000010: 1809 b2bd dea1 fcbc 4e4b a73d 9477 81bc
00000020: 93b9 9fbd 99ef 58be 4f9a 60be 9746 80bb
00000030: a3ca 8dbd ad83 b0bd ef5e 35be 96c8 c13c
00000040: bf81 a0be 7239 9bbc 8953 9ebe 5fa9 20be

conv1.3.running_mean f4 [20]
0.34194478 0.777408 0.29562834 1.9397207 0.42710072 0.045275826 0.5924343 0.08785015
0.43793422 0.16463766 0.6102118 0.33727664 0.6021675 0.29870018 0.26378846 0.5091383
0.2468521 0.22919635 0.11101669 0.3990595
00000000: 6313 af3e 3604 473f 995c 973e c548 f83f
00000010: f2ac da3e 2573 393d c6a9 173f c8ea b33d
00000020: ea38 e03e c696 283e d736 1c3f 86af ac3e
00000030: a627 1a3f 3bef 983e 480f 873e e356 023f
00000040: ccc6 7c3e 73b2 6a3e b85c e33d 8751 cc3e

conv1.3.running_var f4 [20]
0.29249492 0.6872177 0.38564798 14.245034 0.58821285 0.16866547 2.8624618 0.14053835
0.5942235 0.09577375 0.8407286 0.87731314 0.7918157 0.55529493 0.47156838 1.5834099
0.21334563 0.29399928 0.088191964 1.2489977
00000000: e5c1 953e 80ed 2f3f a773 c53e a9eb 6341
00000010: 1e95 163f a4b6 2c3e 9332 3740 49e9 0f3e
00000020: 081f 183f 0725 c43d fd39 573f 9897 603f
00000030: 6fb4 4a3f cf27 0e3f 6971 f13e 2dad ca3f
00000040: 4777 5a3e 1387 963e fd9d b43d 28df 9f3f

conv2.0.weight f4 [40, 20, 7, 7]
-0.10091122 -0.13039102 -0.13692354 -0.15763664 -0.11342036 -0.056089614 -0.0027960725 -0.037260488
-0.08710801 -0.12983416 -0.17793444 -0.10863936 -0.07890047 -0.0716421 -0.00337102 -0.09212276
-0.11677074 -0.17267187 -0.119101234 -0.059410837 -0.04210334 -0.008203143 -0.032723337 -0.056703433
-0.10149894 -0.0691855 -0.014479885 -0.018990984 0.03517949 0.019004345 -0.026027426 -0.037584867
-0.04956612 -0.020962268 0.004307332 0.052564073 0.04823037 0.022132503 -0.0006811333 0.040954825
0.05798256 0.052664194 0.12049757 0.09772726 0.045317896 0.046621297 0.025171177 0.067602485
0.11379122 -0.037978522 -0.08292609 -0.047667697 -0.05148163 -0.056508068 -0.04167469 -0.04662664
-0.014741118 -0.009686725 -0.043116957 -0.033511326 -0.045277152 -0.03959446 -0.061670862 0.004747159
0.004838426 0.011504604 0.013841151 -0.031543624 -0.030294467 -0.017043041 0.07166169 0.045811202
0.057655286 0.004363392 0.019040821 -0.0002936595 -0.00286043 0.0627821 0.088240996 0.07778648
0.032651804 0.02404559 0.042889044 -0.01621993 0.034616042 0.09130909 0.08195734 0.05598039
0.0505444 0.065273784 0.026707582 0.053736273 0.05920682 0.061455898 0.07693112 0.07029696
0.047663007 0.0064864946 0.020680668 -0.011681296 -0.04812009 -0.115151554 -0.11740926 -0.12156918
-0.1273702 0.034081496 -0.023259448 -0.04285119 -0.045108926 -0.12090339 -0.09803901 -0.12578973
0.10823268 0.06620047 0.049156785 0.023455516 -0.05526694 -0.073504865 -0.12991555 0.10659277
0.09397993 0.08869461 0.031640403 0.0006834414 -0.062969156 -0.10980735 0.11912314 0.058678035
0.07747876 0.060857482 -0.032421466 -0.012506303 -0.087310724 0.11356209 0.10692482 0.035273474
0.04531536 -0.018708134 -0.05116085 -0.09834637 0.09224573 0.095554 0.049048353 0.04743301
-0.042089213 -0.018440254 -0.098484114 0.055089455 0.0062956945 -0.0004477114 0.029815149 0.03185207
0.061125614 0.008735904 0.008421929 -0.010073577 0.041304387 -0.012140422 0.035936818 0.037888557
0.032999918 0.026522288 0.040944636 0.008537898 0.007283428 0.01862323 0.02294314 0.033340067
0.041638162 0.033630222 0.008457939 -0.030481476 -0.007550639 -0.0011221672 -0.036771387 0.007742101
0.010626086 -0.033806667 -0.03546615 -0.024001805 -0.018723622 -0.027848896 -0.018746732 -0.04190865
-0.007101756 -0.04792282 -0.03390686 -0.044570994 -0.033761706 -0.020971177 -0.04226756 -0.032408047
-0.030028602 -0.053285647 -0.025017565 -0.0577885 -0.013489782 -0.05655789 -0.044376448 -0.027223855
0.0009243149 -0.012734204 -0.033198144 -0.046995576 -0.04116734 0.0008578545 -0.003752079 -0.017613713
-0.004442429 -0.013347534 -0.032014597 -0.00945518 0.020471586 0.07203583 0.067183524 0.04616844
-0.046150055 0.015093028 0.008225557 0.048308965 0.062542394 0.01607194 -0.020391908 -0.060320094
0.0006020413 0.041011933 0.04082764 0.04351165 0.024485167 -0.024587266 -0.09757858 0.039733782
0.038522094 0.057872564 0.009607618 0.017584128 0.010722218 -0.06895715 0.0192588 0.011980155
0.012103503 -0.004286417 -0.018806063 -0.070620276 -0.11046053 -0.026830269 7.689303e-05 -0.011285401
0.034378942 -0.033772886 -0.013841423 -0.109330595 -0.016601244 -0.021355784 0.0388921 0.11023555
00000000: 8baa cebd 3985 05be af35 0cbe 806b 21be
00000010: ef48 e8bd 39be 65bd 503e 37bb 749e 18bd
00000020: af65 b2bd 3ff3 04be 7234 36be 507e debd
00000030: 9296 a1bd 18b9 92bd 55ec 5cbb dcaa bcbd
00000040: 7f25 efbd e5d0 30be 59eb f3bd c758 73bd
00000050: 8d74 2cbd 7a66 06bc e808 06bd dc41 68bd
00000060: adde cfbd 21b1 8dbd 0a3d 6dbc fb92 9bbc
00000070: 5e18 103d 00af 9b3c 7837 d5bc 97f2 19bd
00000080: d805 4bbd 10b9 abbc 8524 8d3b 6d4d 573d
00000090: 358d 453d 394f b53c 158e 32ba 3fc0 273d
000000a0: 1f7f 6d3d 69b6 573d 6ec7 f63d 3b25 c83d
000000b0: 429f 393d f9f5 3e3d c933 ce3c 2c73 8a3d
000000c0: 5f0b e93d 5e8f 1bbd 27d5 a9bd 343f 43bd
000000d0: 67de 52bd 0175 67bd 14b3 2abd 93fb 3ebd
000000e0: bb84 71bc 12b5 1ebc 689b 30bd 2c43 09bd
000000f0: 8974 39bd cd2d 22bd 969a 7cbd 0e8e 9b3b
00000100: a98b 9e3b ce7d 3c3c ffc5 623c e333 01bd
00000110: 1a2c f8bc d99d 8bbc 5dc3 923d 87a4 3b3d
00000120: f327 6c3d c9fa 8e3b 7ffb 9b3c 50f6 99b9
00000130: 0d76 3bbb e793 803d b2b7 b43d 854e 9f3d
00000140: e6bd 053d 42fb c43c 6cac 2f3d a9df 84bc
00000150: 8dc9 0d3d 4300 bb3d 40d9 a73d b24b 653d
00000160: a507 4f3d 43ae 853d dcc9 da3c 911a 5c3d
00000170: da82 723d 2eb9 7b3d 108e 9d3d daf7 8f3d
00000180: 493a 433d a98c d43b 816a a93c e862 3fbc
00000190: 9219 45bd 94d4 ebbd 4474 f0bd 43f9 f8bd
000001a0: 556d 02be 0a99 0b3d 998a bebc bb84 2fbd
000001b0: 23c4 38bd 329c f7bd adc8 c8bd 06cf 00be
000001c0: 18a9 dd3d 1d94 873d a058 493d c825 c03c
000001d0: 965f 62bd b889 96bd 9508 05be 4f4d da3d
000001e0: 8d78 c03d 85a5 b53d 5e99 013d fa28 333a
000001f0: f9f5 80bd ade2 e0bd d5f6 f33d 6158 703d
00000200: 2fad 9e3d b245 793d 5fcc 04bd 3de7 4cbc
00000210: f7cf b2bd 3e93 e83d 66fb da3d eb7a 103d
00000220: 999c 393d cd41 99bc 0a8e 51bd d269 c9bd
00000230: 54eb bc3d d1b1 c33d ede6 483d 1e49 423d
00000240: bd65 2cbd 0410 97bc 0ab2 c9bd 7ba5 613d
00000250: 1d4c ce3b cfba eab9 e63e f43c 5177 023d
00000260: da5e 7a3d 0921 0f3c 21fc 093c a50b 25bc
00000270: ca2e 293d 9fe8 46bc 7c32 133d 0831 1b3d
00000280: ec2a 073d 4545 d93c 90b5 273d 8ae2 0b3c
00000290: d3a9 ee3b be8f 983c 40f3 bb3c 988f 083d
000002a0: c78c 2a3d d8bf 093d 2b93 0a3c 4ab4 f9bc
000002b0: 5a6b f7bb af15 93ba 989d 16bd 73b1 fd3b
000002c0: 0919 2e3c dc78 0abd f444 11bd 6f9f c4bc
000002d0: 4862 99bc 5e23 e4bc bf92 99bc 68a8 2bbd
000002e0: d9b5 e8bb b84a 44bd ebe1 0abd 1390 36bd
000002f0: b749 0abd bfcb abbc c020 2dbd 4dbe 04bd
00000300: 8bfe f5bc 0d42 5abd a3f1 ccbc a2b3 6cbd
00000310: 3f04 5dbc 3fa9 67bd 14c4 35bd 9004 dfbc
00000320: b94d 723a 1fa3 50bc c7fa 07bd 6f7e 40bd
00000330: 169f 28bd a4e1 603a 71e5 75bb a24a 90bc
00000340: cc91 91bb 9eaf 5abc bd21 03bd e6e9 1abc
00000350: 07b4 a73c 8587 933d 8497 893d 1e1b 3d3d
00000360: d707 3dbd bf48 773c 7dc4 063c 9fdf 453d
00000370: 3a16 803d 4da9 833c ee0c a7bc 3412 77bd
00000380: 4fd2 1d3a 21fc 273d e23a 273d 4639 323d
00000390: 1e95 c83c 3c6b c9bc 47d7 c7bd e4bf 223d
000003a0: 58c9 1d3d c80b 6d3d 4569 1d3c 970c 903c
000003b0: 3eac 2f3c 6839 8dbd a2c4 9d3c 6948 443c
000003c0: c54d 463c 1275 8cbb 2c0f 9abc 5da1 90bd
000003d0: 2139 e2bd 27cb dbbc a241 a138 67e6 38bc
000003e0: efd0 0c3d 7055 0abd 23c7 62bc b8e8 dfbd
000003f0: 55ff 87bc 53f2 aebc 534d 1f3d 2dc3 e13d

conv2.2.weight f4 [40]
0.8968497 0.93392265 0.97526413 0.97758466 0.80429757 0.8901834 0.84464324 0.9428782
1.0030482 0.9636082 0.88464135 0.958605 0.9436915 0.85775554 1.0030155 1.0292248
0.9883922 0.8457454 0.89047265 0.86989 0.9568238 0.93934387 0.9296792 0.8347876
0.89931566 0.8805859 1.022181 1.0098062 0.97882724 0.97706765 0.91286606 1.0364045
0.87666154 0.85020894 0.9882222 0.9247068 1.1234556 1.0027934 1.0222516 0.8617475
00000000: f197 653f 8e15 6f3f e9aa 793f fd42 7a3f
00000010: 72e6 4d3f 0fe3 633f 8a3a 583f 7760 713f
00000020: e263 803f 07af 763f db77 623f 2367 753f
00000030: c495 713f de95 5b3f d062 803f a3bd 833f
00000040: 4507 7d3f c582 583f 04f6 633f 1cb1 5e3f
00000050: 68f2 743f d778 703f 75ff 6d3f a4b4 553f
00000060: 8d39 663f 146e 613f d4d6 823f 5441 813f
00000070: 6c94 7a3f 1b21 7a3f 97b1 693f e7a8 843f
00000080: e46c 603f 4ba7 593f 21fc 7c3f 96b9 6c3f
00000090: 65cd 8f3f 895b 803f 24d9 823f 7c9b 5c3f

conv2.2.bias f4 [40]
0.15898238 -0.1796157 0.16783981 0.35814068 -0.22327101 0.35144365 0.1628492 0.16254307
0.32261798 0.24230315 -0.12735829 -0.20406878 0.051915217 0.0016951422 0.25117585 0.2650895
-0.031021217 -0.13308464 0.06290391 0.20151244 -0.12115357 0.23153631 -0.020621376 -0.06837561
0.20088267 0.092948236 0.23330007 0.120780915 -0.1273723 0.16132115 0.098627456 0.3051903
-0.0466212 0.017991345 -0.05579008 0.25789163 0.29603633 0.23205568 0.11789705 0.3165413
00000000: 47cc 223e 2eed 37be 33de 2b3e 375e b73e
00000010: 28a1 64be 6cf0 b33e f1c1 263e b171 263e
00000020: 2f2e a53e 511e 783e 366a 02be 68f7 50be
00000030: 0da5 543d 892f de3a 1f9a 803e d0b9 873e
00000040: 3520 febc 5747 08be c4d3 803d 4759 4e3e
00000050: 5d1f f8bd db17 6d3e 29ee a8bc 8308 8cbd
00000060: 30b4 4d3e a55b be3d 37e6 6e3e fc5b f73d
00000070: e26d 02be 5f31 253e 31fd c93d e741 9c3e
00000080: dff5 3ebd 9662 933c 2484 64bd 5f0a 843e
00000090: 1392 973e 01a0 6d3e 0274 f13d b411 a23e

conv2.2.running_mean f4 [40]
3.2221034 2.4120963 5.048259 3.4950352 3.17968 5.058471 4.034809 3.6982653
4.7203836 5.092779 3.7280395 2.979145 2.5733883 3.369451 3.4224348 2.9028752
2.139344 1.9605889 3.4470153 7.1987133 2.7446795 2.377285 4.7546935 3.6324565
3.369836 5.0881753 3.647816 3.8383698 2.8000138 6.501061 6.222072 4.785585
5.7512393 4.0101705 1.9399463 7.2330775 2.9330966 3.8695667 6.7082477 3.769638
00000000: f136 4e40 c95f 1a40 568b a140 a8ae 5f40
00000010: e17f 4b40 ffde a140 281d 8140 61b0 6c40
00000020: 620d 9740 0cf8 a240 3398 6e40 50aa 3e40
00000030: 65b2 2440 16a5 5740 2c09 5b40 b5c8 3940
00000040: 03eb 0840 94f4 fa3f e69b 5c40 dc5b e640
00000050: d4a8 2f40 7025 1840 7326 9840 2b7a 6840
00000060: 65ab 5740 55d2 a240 d175 6940 daa7 7540
00000070: 6d33 3340 b108 d040 371b c740 8323 9940
00000080: 270a b840 5153 8040 2950 f83f 5f75 e740
00000090: dbb7 3b40 fba6 7740 f7a9 d640 c041 7140

conv2.2.running_var f4 [40]
44.16818 17.04053 125.874916 77.57548 18.402273 49.6093 56.841743 58.26207
74.49253 45.388214 26.958504 48.438427 29.881004 33.524677 74.81346 51.277447
9.909516 9.970672 20.952282 66.851105 35.04818 17.893923 81.54367 24.319645
61.818066 107.40038 43.033806 75.28673 19.121502 66.449585 108.81614 128.34477
101.8806 51.826637 13.764539 133.03473 18.204018 39.783875 86.49956 39.813046
00000000: 37ac 3042 0153 8841 f5bf fb42 a526 9b42
00000010: db37 9341 ec6f 4642 f25d 6342 5c0c 6942
00000020: 2dfc 9442 888d 3542 04ab d741 f3c0 4142
00000030: 4c0c ef41 4519 0642 7ea0 9542 1b1c 4d42
00000040: 618d 1e41 df87 1f41 469e a741 c4b3 8542
00000050: 5631 0c42 c126 8f41 5c16 a342 a28e c241
00000060: b345 7742 ffcc d642 9e22 2c42 ce92 9642
00000070: d6f8 9841 30e6 8442 dda1 d942 4358 0043
00000080: dec2 cb42 7a4e 4f42 8d3b 5c41 e408 0543
00000090: d4a1 9141 b022 1f42 c6ff ac42 8f40 1f42

conv3.0.weight f4 [80, 40, 3, 3]
-0.12516175 -0.13121173 0.0030170311 -0.036260515 -0.060358696 -0.02650824 -0.011152796 -0.02939547
0.02276867 -0.057823993 -0.081672244 -0.11626024 -0.13040444 -0.059160277 -0.08733409 -0.10248981
-0.0498975 -0.0560168 0.039445024 -0.017318785 -0.05812454 -0.050500236 -0.0021974198 -0.018270783
0.037637733 0.08096263 0.06337726 -0.042714234 -0.10533966 -0.15316603 -0.06684394 -0.100201294
-0.116964415 0.018472204 0.067319795 -0.047476888 0.09884065 -0.0220744 -0.01448558 -0.012064529
0.023460057 -0.09980841 0.0034255695 -0.0587723 -0.1488304 0.003511648 -0.019463137 0.053124763
0.03180425 -0.040345397 -0.00664919 -0.029297631 0.014011433 0.02280368 -0.017437259 -0.04969457
-0.08386467 -0.0248145 -0.06855525 -0.13178344 -0.118392155 -0.09372918 -0.10873525 -0.08304236
-0.18089901 -0.11377618 -0.10515761 -0.108069345 -0.10858882 -0.00032035346 -0.015271578 0.018787783
0.059615303 -0.017786317 0.002600003 -0.0010409001 0.05216066 0.04223897 0.07700754 0.06497318
0.11732896 -0.12446153 -0.12488448 -0.10830163 -0.10999005 -0.0075656576 -0.028052524 -0.019136483
-0.05896167 -0.059851397 -0.026676664 -0.05731974 -0.061757017 -0.02556069 -0.071878046 -0.038694434
-0.069988206 -0.13576727 -0.13020712 -0.02815165 -0.034434333 -0.0750891 0.005336066 0.00515198
-0.0016473986 0.024173066 -0.03716925 0.05952863 -0.09108673 -0.12869866 -0.040705293 -0.039070427
-0.061704647 -0.03433981 -0.084984355 -0.08161321 -0.122217946 -0.06490278 -0.046827145 -0.08236195
-0.033760007 -0.15092932 -0.14515997 -0.08015249 -0.1575182 -0.091957435 -0.08443427 -0.07439603
-0.10743288 -0.06437889 -0.07230587 -0.042800114 -0.045924064 -0.016266081 0.012903758 -0.028258527
-0.054329775 -0.0076826517 -0.15346959 -0.16552189 -0.05894743 -0.053855646 -0.13393423 -0.0877371
0.007275781 0.009349507 0.05542342 -0.13595928 -0.10473799 -0.02196012 -0.15406309 -0.16556746
-0.07001201 -0.01450114 -0.009516697 -0.03265937 -0.0883116 -0.06827969 -0.12705036 -0.06481477
-0.10831597 -0.09860971 0.057346575 0.035513878 -0.00810901 -0.04130317 0.062285617 0.0074725016
-0.04991456 0.014295746 -0.012945458 0.047482 0.0850549 0.055995956 -0.013183823 0.04657679
0.06665516 0.019091113 0.042991847 0.03222241 -0.03241226 -0.043992482 0.0681112 0.02950227
-0.06459067 0.0041717757 -0.022278639 -0.06777785 0.034205634 -0.07268836 -0.06535984 -0.042941127
0.012517601 -0.010939209 0.033532184 0.025481176 -0.061187763 0.03398661 -0.030326482 -0.040082317
0.063871525 -0.021166265 -0.04901511 0.005083722 -0.0360869 -0.0902024 0.0014518321 0.119801186
0.017924065 0.0013833325 0.070720606 0.047200702 0.077188365 0.046101235 0.008553741 0.049077768
-0.029524742 -0.09893219 -0.042111576 -0.11135759 -0.103852734 -0.093135506 -0.08574939 -0.13116139
0.0032519347 -0.004988015 -0.10245669 -0.096366376 0.043487802 -0.045770984 -0.104440495 0.0034616464
-0.033486795 -0.01528056 -0.017601237 -0.114613295 -0.10893124 -0.042952552 -0.06583317 -0.0951483
-0.070537195 0.038105216 0.06620561 -0.11588284 -0.09592512 -0.11939505 -0.035633136 -0.012620971
-0.06581143 0.019712383 0.004948321 0.0129492385 0.0004271014 -0.0729067 -0.018005216 -0.084570654
00000000: 672a 00be 5e5c 06be 62b9 453b e885 14bd
00000010: ae3a 77bd cf27 d9bc 38ba 36bc c5ce f0bc
00000020: 5d85 ba3c dad8 6cbd c743 a7bd d919 eebd
00000030: be88 05be 0c52 72bd 37dc b2bd 2de6 d1bd
00000040: 5261 4cbd df71 65bd 1b91 213d 20e0 8dbc
00000050: ff13 6ebd 56d9 4ebd 9602 10bb 9cac 95bc
00000060: 062a 1a3d bccf a53d f0cb 813d 1ff5 2ebd
00000070: 52bc d7bd 8ed7 1cbe 7ae5 88bd 5636 cdbd
00000080: 0a8b efbd 0553 973c f6de 893d 2077 42bd
00000090: f76c ca3d 5fd5 b4bc ed54 6dbc 4daa 45bc
000000a0: 4e2f c03c 5a68 ccbd 857f 603b 39bb 70bd
000000b0: ff66 18be ad23 663b 2871 9fbc 5a99 593d
000000c0: 2c45 023d 3741 25bd 73e1 d9bb 9601 f0bc
000000d0: 3690 653c c8ce ba3c 95d8 8ebc 898c 4bbd
000000e0: 3dc1 abbd c747 cbbc b266 8cbd 3df2 06be
000000f0: 9677 f2bd 16f5 bfbd 96b0 debd 1d12 aabd
00000100: 973d 39be 7c03 e9bd df5c d7bd 7653 ddbd
00000110: d163 debd 1df5 a7b9 a435 7abc d6e8 993c
00000120: 2d2f 743d 9cb4 91bc d064 2a3b d06e 88ba
00000130: 6ba6 553d c502 2d3d 21b6 9d3d a910 853d
00000140: 2a4a f03d b0e5 febd 6fc3 ffbd 3fcd ddbd
00000150: 7742 e1bd 56e9 f7bb 68ce e5bc 1dc4 9cbc
00000160: cb81 71bd bd26 75bd 0589 dabc 1bc8 6abd
00000170: edf4 7cbd a764 d1bc cc34 93bd 0e7e 1ebd
00000180: fa55 8fbd 9306 0bbe 0455 05be 4a9e e6bc
00000190: 040b 0dbd 50c8 99bd 2ada ae3b f1d1 a83b
000001a0: 86ed d7ba 9806 c63c c93e 18bd 4bd4 733d
000001b0: ae8b babd 95c9 03be 98ba 26bd 5008 20bd
000001c0: 03be 7cbd e7a7 0cbd 470c aebd d424 a7bd
000001d0: 674d fabd c0eb 84bd d2cd 3fbd 62ad a8bd
000001e0: ef47 0abd 378d 1abe d1a4 14be fd26 a4bd
000001f0: 734c 21be 2e54 bcbd e0eb acbd f25c 98bd
00000200: c505 dcbd 14d9 83bd 1a15 94bd 2c4f 2fbd
00000210: df1a 3cbd 7240 85bc 496a 533c 6d7e e7bc
00000220: e688 5ebd c1be fbbb 2227 1dbe 927e 29be
00000230: dc72 71bd bd97 5cbd 0e26 09be 82af b3bd
00000240: ad69 ee3b ad2e 193c ab03 633d e938 0bbe
00000250: df80 d6bd b6e5 b3bc b7c2 1dbe 848a 29be
00000260: 7562 8fbd 3196 6dbc eceb 1bbc d5c5 05bd
00000270: b6dc b4bd 39d6 8bbd 7d19 02be 9bbd 84bd
00000280: c3d4 ddbd e3f3 c9bd 3ee4 6a3d 0077 113d
00000290: a7db 04bc 832d 29bd 341f 7f3d e3db f43b
000002a0: 3673 4cbd b438 6a3c 3019 54bc 7c7c 423d
000002b0: 4331 ae3d 045c 653d f600 58bc 4ec7 3e3d
000002c0: 8082 883d f764 9c3c 3818 303d a5fb 033d
000002d0: b8c2 04bd 7631 34bd e37d 8b3d bfae f13c
000002e0: 1d48 84bd 64b3 883b b181 b6bc 1dcf 8abd
000002f0: 351b 0c3d a3dd 94bd 61db 85bd 09e3 2fbd
00000300: a016 4d3c 5e3a 33bc 0b59 093d e6bd d03c
00000310: 05a0 7abd 8b35 0b3d 3e6f f8bc 5b2d 24bd
00000320: 13cf 823d e064 adbc 11c4 48bd 5a95 a63b
00000330: dbcf 13bd 09bc b8bd 674b be3a 535a f53d
00000340: 7dd5 923c f050 b53a f7d5 903d 8655 413d
00000350: ef14 9e3d a6d4 3c3d fd24 0c3c c505 493d
00000360: dfdd f1bc f69c cabd 307d 2cbd 730f e4bd
00000370: beb0 d4bd d4bd bebd 609d afbd 2c4f 06be
00000380: 691e 553b 8172 a3bb d0d4 d1bd bc5b c5bd
00000390: 4420 323d 5b7a 3bbd e6e4 d5bd cadc 623b
000003a0: 7329 09bd 505b 7abc 7830 90bc 60ba eabd
000003b0: 5817 dfbd 04ef 2fbd 8bd3 86bd 1ddd c2bd
000003c0: ce75 90bd 3714 1c3d cf96 873d fb53 edbd
000003d0: 6474 c4bd 6485 f4bd 0df4 11bd 30c8 4ebc
000003e0: 25c8 86bd dd7b a13c 8625 a23b 0b29 543c
000003f0: 94ec df39 1c50 95bd ad7f 93bc 6133 adbd

conv3.0.bias f4 [80]
0.056148227 -0.27461392 -0.19704102 -0.18259743 -0.074214965 -0.23819906 -0.09758948 0.021556936
0.04365493 -0.15674423 -0.018665062 -0.37656537 -0.068421826 -0.23543009 -0.3114629 -0.06751061
-0.07356276 -0.15474962 -0.36879033 -0.013881858 -0.2575472 -0.35224646 -0.29006466 -0.10266585
-0.28021643 -0.17914215 -0.190297 -0.13694866 -0.14272928 0.17929989 -0.2050958 0.08064643
-0.12963656 -0.113173984 0.0011467156 0.05029124 -0.3340357 0.17976661 0.009686085 -0.059726324
-0.008297391 -0.18067813 -0.110417165 0.049455855 -0.090097845 -0.04707502 -0.111760765 0.08412572
-0.17512503 -0.05298423 -0.02333556 -0.26320928 -0.22536385 -0.04312378 -0.19297901 -0.12077525
-0.055104323 -0.1666094 -0.20350663 -0.16264251 -0.09204649 -0.03262865 0.046633188 -0.15648451
-0.21133184 -0.06450804 0.04367848 0.34319305 -0.092360266 0.19148517 0.08934986 0.062228423
-0.21889703 -0.071704365 -0.24736838 -0.29012397 0.031016506 -0.10973431 -0.4975021 0.005364559
00000000: affb 653d 329a 8cbe 1fc5 49be d2fa 3abe
00000010: 04fe 97bd 74ea 73be fedc c7bd 2c98 b03c
00000020: 83cf 323d 8f81 20be 79e7 98bc 2dcd c0be
00000030: be20 8cbd 9614 71be 1178 9fbe 0143 8abd
00000040: 13a8 96bd af76 1ebe 16d2 bcbe bc70 63bc
00000050: 3add 83be a659 b4be 5b83 94be 7942 d2bd
00000060: 8778 8fbe 0a71 37be 37dd 42be 453c 0cbe
00000070: a027 12be 649a 373e a204 52be f529 a53d
00000080: 72bf 04be c3c7 e7bd 644d 963a 30fe 4d3d
00000090: ba06 abbe bd14 383e 63b2 1e3c 97a3 74bd
000000a0: c8f1 07bc b003 39be 6522 e2bd 3992 4a3d
000000b0: 3885 b8bd bcd1 40bd d4e2 e4bd 1b4a ac3d
000000c0: fa53 33be fe05 59bd 372a bfbc 5ec3 86be
000000d0: c8c5 66be 90a2 30bd 4a9c 45be 0459 f7bd
000000e0: 12b5 61bd a89b 2abe 0b64 50be c28b 26be
000000f0: df82 bcbd 9fa5 05bd 7102 3f3d 7a3d 20be
00000100: 6067 58be cb1c 84bd 35e8 323d 00b7 af3e
00000110: 6127 bdbd b014 443e 0ffd b63d 3be3 7e3d
00000120: 8b26 60be bdd9 92bd 234e 7dbe 218b 94be
00000130: 5416 fe3c 62bc e0bd 98b8 febe 2fc9 af3b

conv3.2.weight f4 [80]
0.9730871 0.8910297 0.7745306 0.84632564 0.96442354 0.7708831 0.8868279 0.8126755
0.88549614 0.86346793 0.8849932 0.94463885 0.96812165 0.8549801 1.0321312 0.9278405
0.80397755 0.80599326 0.8944801 0.84488505 0.9112312 0.95291173 0.87752944 1.0545839
0.9091663 0.8972854 0.85479367 0.7826896 1.0606539 0.79088295 0.8103922 0.9486761
0.84958863 0.7339303 0.8885368 0.915248 0.98396516 0.84719515 0.79689693 0.917449
0.878134 0.9950956 1.0196525 0.80315316 0.9388742 0.85059786 0.91346246 0.9115082
0.8478085 0.9473406 0.98932564 0.88839686 0.7755453 0.8948267 0.83639514 1.0021529
0.86837703 0.7892103 0.86474484 0.98777616 1.0038748 0.7698254 0.8657886 0.88584685
1.0035841 0.7529364 0.8089323 0.82694215 0.96974784 0.9962543 0.9415015 0.86791813
0.92864954 0.78549784 0.8620562 1.0301194 0.8646371 1.03858 1.0518578 0.7491101
00000000: 3c1c 793f 861a 643f a347 463f cca8 583f
00000010: 76e4 763f 9858 453f 2707 633f 800b 503f
00000020: e0af 623f 3c0c 5d3f ea8e 623f dad3 713f
00000030: d2d6 773f fadf 5a3f e01c 843f f486 6d3f
00000040: 79d1 4d3f 9355 4e3f a6fc 643f 634a 583f
00000050: 7346 693f 06f2 733f c5a5 603f 9bfc 863f
00000060: 1fbf 683f 7fb4 653f c2d3 5a3f 585e 483f
00000070: 82c3 873f 4e77 4a3f dd75 4f3f 70dc 723f
00000080: a47e 593f dbe2 3b3f 2677 633f b14d 6a3f
00000090: 24e5 7b3f c8e1 583f 7001 4c3f f0dd 6a3f
000000a0: 64cd 603f 96be 7e3f f983 823f 729b 4d3f
000000b0: 0f5a 703f c8c0 593f add8 693f 9a58 693f
000000c0: fa09 593f ea84 723f 7244 7d3f fa6d 633f
000000d0: 238a 463f 5d13 653f fe1d 563f 8c46 803f
000000e0: f54d 5e3f b009 4a3f eb5f 5d3f e6de 7c3f
000000f0: f87e 803f 4713 453f 52a4 5d3f dcc6 623f
00000100: 7275 803f 71c0 403f 3016 4f3f 7bb2 533f
00000110: 6541 783f 860a 7f3f 3e06 713f e22f 5e3f
00000120: fabb 6d3f 6316 493f b7af 5c3f f4da 833f
00000130: db58 5d3f 30f0 843f 47a3 863f aec5 3f3f

conv3.2.bias f4 [80]
0.19652067 0.37003446 -0.14777899 0.072376266 0.3531149 0.08786054 0.1024847 0.4077991
0.09856051 0.31823573 0.3943655 -0.22952548 0.14437903 -0.016408695 0.09361422 0.21899883
-0.10492161 0.34299096 0.47352666 0.39884943 0.45588365 0.34347114 0.4666875 0.34779072
-0.56839854 -0.24159059 -0.30608466 0.4867004 0.38411745 -0.14343806 0.32139236 0.080690846
-0.10637709 -0.23202172 0.12573905 0.17252012 -0.36148658 0.51779526 0.3149753 0.52909297
-0.16851325 0.16136578 0.34389427 -0.24718337 0.09735213 0.17986548 0.5502257 0.5180818
-0.17065807 0.34255204 0.3643933 0.100100555 -0.105880424 0.2961414 0.32157397 0.38666442
-0.16196336 -0.34618866 -0.2868461 -0.3137855 0.27838716 0.43352595 0.16417734 0.17109354
0.1729641 0.07131478 -0.08348717 0.2237513 -0.11867603 0.32726184 0.2678195 -0.31973162
0.3805187 -0.1582423 0.4554388 0.0057237977 0.45920414 0.5001791 -0.5832915 0.39657184
00000000: b73c 493e 2875 bd3e 6053 17be 023a 943d
00000010: 7acb b43e 3af0 b33d 80e3 d13d 0bcb d03e
00000020: 18da c93d cbef a23e 46ea c93e ba08 6bbe
00000030: 19d8 133e 876b 86bc d0b8 bf3d 3b41 603e
00000040: 24e1 d6bd 839c af3e 1672 f23e fe35 cc3e
00000050: 9569 e93e 73db af3e aaf1 ee3e a011 b23e
00000060: 9182 11bf 8663 77be 21b7 9cbe cb30 f93e
00000070: 0bab c43e 6de1 12be 8a8d a43e 3e41 a53d
00000080: 3bdc d9bd 1a97 6dbe bdc1 003e 1da9 303e
00000090: c514 b9be 3b8e 043f 7144 a13e a372 073f
000000a0: bd8e 2cbe 123d 253e e912 b03e a31d 7dbe
000000b0: 8e60 c73d a82e 383e 97db 0c3f 02a1 043f
000000c0: fdc0 2ebe fb62 af3e c291 ba3e 8501 cd3d
000000d0: d6d7 d8bd d89f 973e 58a5 a43e e1f8 c53e
000000e0: b9d9 25be a43f b1be 7edd 92be 7ea8 a0be
000000f0: c388 8e3e 1df7 dd3e 1b1e 283e 2533 2f3e
00000100: 801d 313e 7c0d 923d 52fb aabd 101f 653e
00000110: 6b0c f3bd dd8e a73e a31f 893e ddb3 a3be
00000120: 59d3 c23e 450a 22be 462f e93e b28e bb3b
00000130: ce1c eb3e bd0b 003f 9752 15bf 770b cb3e

conv3.2.running_mean f4 [80]
1.4950641 0.83037233 0.8282525 1.0543358 1.2728069 1.5344609 1.115838 1.9002689
1.3694762 1.1440452 2.147281 0.26111144 0.6950782 0.824807 0.076637976 0.2656423
1.7223904 1.0486034 2.0561976 1.5330638 2.0375934 1.0844226 1.3375374 0.4892191
0.36625752 0.33681768 0.4035929 1.8017651 0.28536546 1.9635724 2.2727883 2.1670196
2.046036 0.8218016 0.5041083 1.7311375 7.924787e-06 2.958895 2.3004518 1.6946477
2.3040643 0.26964846 0.22932619 1.3876595 1.1637719 1.4582331 2.381824 1.6457611
0.8492896 1.1850704 1.7423037 1.451611 2.5157208 0.7379248 2.2986975 0.70777816
1.2368352 1.765841 1.6362693 0.6581196 0.846125 1.3945124 1.6866984 1.1065595
0.46667624 1.0628552 1.8389066 1.992184 0.29601422 0.99855995 1.8610686 1.2958832
1.8860408 0.6135202 1.7742306 0.5067663 2.270695 0.29772744 -0.082774386 2.1225264
00000000: 435e bf3f 4893 543f 5b08 543f 7af4 863f
00000010: 56eb a23f 3769 c43f c8d3 8e3f 033c f33f
00000020: ff4a af3f 1370 923f 0d6d 0940 66b0 853e
00000030: a5f0 313f 8d26 533f 5ff4 9c3d 4402 883e
00000040: 4a77 dc3f a338 863f be98 0340 6f3b c43f
00000050: ee67 0240 5cce 8a3f 6d34 ab3f ed7a fa3e
00000060: 1b86 bb3e 5e73 ac3e bba3 ce3e 3da0 e63f
00000070: 6c1b 923e 5756 fb3f 5d75 1140 73b0 0a40
00000080: 41f2 0240 9761 523f 3e0d 013f ea95 dd3f
00000090: b3f4 0437 895e 3d40 9a3a 1340 37ea d83f
000000a0: ca75 1340 5d0f 8a3e 7cd4 6a3e d49e b13f
000000b0: 7af6 943f 62a7 ba3f ce6f 1840 4da8 d23f
000000c0: 0b6b 593f 63b0 973f cf03 df3f 64ce b93f
000000d0: 9201 2140 a4e8 3c3f dc1d 1340 f330 353f
000000e0: 9e50 9e3f 1407 e23f 4671 d13f 877a 283f
000000f0: a69b 583f 627f b23f bce5 d73f bea3 8d3f
00000100: 30f0 ee3e a40b 883f 4b61 eb3f e3ff fe3f
00000110: 2d8f 973e a0a1 7f3f 7f37 ee3f 80df a53f
00000120: c969 f13f a90f 1d3f fd19 e33f 70bb 013f
00000130: 1153 1140 bb6f 983e 9e85 a9bd 79d7 0740

conv3.2.running_var f4 [80]
4.253609 4.637796 2.974309 4.4400334 3.3961189 10.831383 2.9475393 18.590115
3.181426 4.577346 7.881013 0.8466435 2.020526 3.3894126 0.7903028 0.82629615
5.8860126 4.934623 22.306135 11.379573 30.233458 6.993303 10.740236 1.2663727
0.85798484 0.7897408 0.76989126 19.34028 1.4075912 4.565814 29.28641 5.8752913
14.359494 3.0847216 1.0294958 8.038853 0.3070028 14.222946 12.924873 11.90451
6.915183 0.62755245 0.5126581 4.755593 6.1898327 5.4689565 8.972059 5.3726397
2.525847 3.7644281 4.9583607 11.322945 33.446194 1.4271405 34.572792 1.6444051
3.3707533 5.998642 6.3415937 1.2849536 2.4376068 5.6077003 5.4954777 7.1215467
2.1650114 5.3174515 10.985442 5.7370644 0.62459874 2.007297 6.2704186 4.292911
14.687102 1.4297836 12.41596 1.3403051 11.925575 0.9176959 0.19501795 9.101482
00000000: 911d 8840 d368 9440 145b 3e40 c114 8e40
00000010: 035a 5940 584d 2d41 7ca4 3c40 8eb8 9441
00000020: 7c9c 4b40 9e79 9240 4231 fc40 a1bd 583f
00000030: 4c50 0140 23ec 5840 4951 4a3f 2588 533f
00000040: 375a bc40 6ee8 9d40 f772 b241 bb12 3641
00000050: 1fde f141 23c9 df40 02d8 2b41 8018 a23f
00000060: e5a4 5b3f 742c 4a3f 9817 453f e5b8 9a41
00000070: f32b b43f 261b 9240 914a ea41 6302 bc40
00000080: 7dc0 6541 146c 4540 85c6 833f 249f 0041
00000090: 792f 9d3e 3091 6341 48cc 4e41 df78 3e41
000000a0: 2e49 dd40 47a7 203f 903d 033f d12d 9840
000000b0: 1c13 c640 b101 af40 8e8d 0f41 aaec ab40
000000c0: 7aa7 2140 64ec 7040 e4aa 9e40 c82a 3541
000000d0: e7c8 0542 8aac b63f 8a4a 0a42 de7b d23f
000000e0: 6cba 5740 e0f4 bf40 56ee ca40 5c79 a43f
000000f0: c001 1c40 4872 b340 f4da af40 b6e3 e340
00000100: 8c8f 0a40 9028 aa40 5fc4 2f41 0896 b740
00000110: b4e5 1f3f 8e77 0040 45a7 c840 875f 8940
00000120: 5ffe 6a41 2603 b73f c6a7 4641 1e8f ab3f
00000130: 28cf 3e41 1eee 6a3f c9b2 473e ac9f 1141

conv4.0.weight f4 [120, 80, 3, 3]
0.009539666 -0.04930867 -0.049496848 0.00933559 0.014213405 -0.029722309 -0.016193397 -0.07117345
-0.05754334 0.054074984 0.042185705 0.0053099496 0.020968828 0.03910011 0.025548233 0.036449082
0.028037079 -0.0016434803 -0.014240244 0.03400101 -0.008988002 0.006880496 -0.04510813 0.009153782
-0.059105586 0.013017585 0.01703642 0.00071702333 0.021544337 -0.0076421066 -0.024898777 -0.028421896
0.048997853 0.010445193 -0.026250673 0.053070944 0.070155166 0.033817448 -0.004829011 -0.028623506
-0.033377226 -0.053413656 -0.08114669 -0.10900047 -0.09216044 0.13360623 0.10022364 0.050124567
-0.00011276396 0.019293323 -0.019443084 0.02081588 0.081050515 0.04299067 0.0008428225 -0.027201828
-0.004947217 -0.030637553 0.025476128 -0.060007837 -0.059316173 0.036536373 -0.042451765 0.07142357
0.032021523 0.021275003 0.029865665 0.010491914 0.010908147 -0.039851036 -0.037468884 -0.058194287
-0.044979468 -0.082351 -0.0860538 -0.0671896 -0.131827 -0.113540106 -0.021564016 -0.12641537
-0.100724444 -0.081623554 -0.10505869 -0.068716384 -0.0055002724 0.0008718661 -0.0023096753 -0.01977908
-0.053448904 0.01667755 0.08229841 0.008579616 0.05803266 -0.0003193708 0.00041306484 0.040242262
-0.0011857481 0.028793888 -0.0141358385 0.055244163 0.03729565 0.081725195 0.08221018 -0.011476705
0.060634244 0.124031305 0.042543545 0.10477297 0.044629578 0.097638205 0.084165886 0.00764187
0.041909724 -0.012838961 0.0536701 0.03343809 0.031458046 0.011001962 0.012770465 0.07459806
0.054825284 0.0041247252 0.012971689 0.059211783 0.06762126 0.031192295 -0.04691561 -0.095313504
-0.040647443 0.11273431 0.0034748276 0.07541392 -0.08713251 -0.08740461 -0.058741648 0.04431922
0.03672322 0.11295497 0.051844332 0.0015443665 0.018576385 0.051271424 0.03561004 0.09653927
-0.041288722 -0.036459163 -0.024870507 -0.014627506 -0.048609465 0.015688635 -0.069355875 -0.0054507013
0.024523491 0.011526905 0.012841718 0.022937112 0.05563032 0.03691832 -0.005747119 0.05717277
0.05565087 0.057641003 0.040587623 0.010256289 -0.007832834 -0.0110304775 0.016737161 -0.011257954
0.015146897 0.033956535 -0.05155337 0.018116906 -0.064750805 -0.048932336 0.010714449 -0.02951508
-0.05133783 -0.0459088 -0.03003532 -0.009792097 0.0934746 -0.008063139 0.0036339904 0.030988874
0.034197193 0.01950092 -0.040055256 -0.036350124 -0.06881703 0.044404916 -0.00565411 -0.0515843
0.011015937 -0.0029313678 -0.027000599 0.04909601 0.008993252 -0.046262182 0.02923425 0.0073621604
-0.046668664 -0.0059375484 -0.032019235 -0.05197287 0.009261933 -0.024750404 -0.07575312 -0.0531908
0.013634002 0.020505095 0.029059352 0.04356326 0.040650524 0.020336818 0.118324526 0.10397222
-0.15504874 -0.058715288 -0.015374497 -0.0680609 -0.06738538 0.026018813 -0.00053744606 -0.03937673
-0.027328815 -0.031383213 -0.04715407 -0.06534712 0.05890052 0.070361674 0.022432907 0.09246189
0.12283434 0.044934303 -0.00926228 -0.018871093 0.023035765 -0.09391894 -0.08664755 -0.022512427
-0.1566254 -0.14723766 -0.10661738 -0.103441976 -0.03297699 -0.05569392 -0.042462006 -0.031895336
-0.09733195 -0.03293544 -0.110313535 -0.092803255 -0.11623272 -0.03994304 -0.044970505 -0.15909007
00000000: 424c 1c3c e3f7 49bd 35bd 4abd 4df4 183c
00000010: 57df 683c 337c f3bc 04a8 84bc 63c3 91bd
00000020: 91b2 6bbd bb7d 5d3d ebca 2c3d 16ff ad3b
00000030: d2c6 ab3c 7027 203d 874a d13c a24b 153d
00000040: 04ae e53c 0c6a d7ba ea4f 69bc a544 0b3d
00000050: 6a42 13bc c975 e13b 4dc3 38bd bff9 153c
00000060: b318 72bd b547 553c f68f 8b3c 9ff6 3b3a
00000070: c07d b03c a36a fabb 85f8 cbbc 09d5 e8bc
00000080: f9b1 483d 5122 2b3c a70b d7bc eb60 593d
00000090: 83ad 8f3d 2a84 0a3d ae3c 9ebb d87b eabc
000000a0: 8fb6 08bd 47c8 5abd 3c30 a6bd a33b dfbd
000000b0: 9dbe bcbd 12d0 083e 0d42 cd3d 6b4f 4d3d
000000c0: b17b ecb8 080d 9e3c 1a47 9fbc 1086 aa3c
000000d0: d0fd a53d fc16 303d dcf0 5c3a 5ed6 debc
000000e0: 441c a2bb 9bfb fabc 50b3 d03c c7ca 75bd
000000f0: 84f5 72bd 2aa7 153d e7e1 2dbd 8546 923d
00000100: 0029 033d ea48 ae3c d7a8 f43c 47e6 2b3c
00000110: 16b8 323c d73a 23bd f978 19bd 225d 6ebd
00000120: 643c 38bd a4a7 a8bd fa3c b0bd b39a 89bd
00000130: a8fd 06be b787 e8bd 05a7 b0bc 0873 01be
00000140: 9e48 cebd 402a a7bd 0329 d7bd 2dbb 8cbd
00000150: a13b b4bb f28d 643a ec5d 17bb bd07 a2bc
00000160: 3ded 5abd 5b9f 883c 128c a83d 8591 0c3c
00000170: a8b3 6d3d 3971 a7b9 a090 d839 12d5 243d
00000180: 1b6b 9bba 29e1 eb3c 019a 67bc b447 623d
00000190: 53c3 183d 8a5f a73d d05d a83d ca08 3cbc
000001a0: 9d5b 783d 2004 fe3d 2442 2e3d 3693 d63d
000001b0: 81cd 363d 8af6 c73d 2a5f ac3d a768 fa3b
000001c0: 88a9 2b3d 815a 52bc 2ed5 5b3d 61f6 083d
000001d0: 27da 003d 9341 343c 363b 513c dec6 983d
000001e0: 7a90 603d b428 873b 3587 543c 0e88 723d
000001f0: 047d 8a3d fc86 ff3c 952a 40bd ba33 c3bd
00000200: ef7d 26bd 3fe1 e63d efb9 633b 9d72 9a3d
00000210: 8872 b2bd 3001 b3bd 159b 70bd 1288 353d
00000220: 166b 163d ef54 e73d b95a 543d 576c ca3a
00000230: 812d 983c fc01 523d d5db 113d 61b6 c53d
00000240: 5d1e 29bd 3456 15bd 3cbd cbbc 35a8 6fbc
00000250: b81a 47bd 7485 803c 740a 8ebd cc9b b2bb
00000260: 7de5 c83c 58db 3c3c 1266 523c 9ce6 bb3c
00000270: 9edc 633d aa37 173d 5452 bcbb ff2d 6a3d
00000280: 2bf2 633d f918 6c3d 353f 263d fe09 283c
00000290: 4955 00bc 2db9 34bc 5f1c 893c 4873 38bc
000002a0: b12a 783c 0216 0b3d a029 53bd e869 943c
000002b0: 129c 84bd 466d 48bd a88b 2f3c 9cc9 f1bc
000002c0: 9e47 52bd de0a 3cbd a20c f6bc 086f 20bc
000002d0: 9c6f bf3d 421b 04bc 3e28 6e3b 61dc fd3c
000002e0: 5b12 0c3d 65c0 9f3c fb10 24bd dee3 14bd
000002f0: f1ef 8cbd eee1 353d 1d46 b9bb 0f4a 53bd
00000300: 307c 343c 311c 40bb 5c30 ddbc e618 493d
00000310: 6f58 133c 6a7d 3dbd aa7c ef3c 473e f13b
00000320: a427 3fbd c48f c2bb 9a26 03bd 81e1 54bd
00000330: 5dbf 173c 5cc1 cabc 7424 9bbd 99de 59bd
00000340: 2661 5f3c 4dfa a73c e10d ee3c 646f 323d
00000350: 2a81 263d 6699 a63c 2154 f23d 63ef d43d
00000360: 19c5 1ebe 717f 70bd 50e5 7bbc 8363 8bbd
00000370: 5901 8abd 6825 d53c 65e3 0cba 7e49 21bd
00000380: aee0 dfbc af8b 00bd a024 41bd b6d4 85bd
00000390: ac41 713d c819 903d 37c5 b73c a95c bd3d
000003a0: 9290 fb3d 080d 383d d1c0 17bc 8d97 9abc
000003b0: 80b5 bc3c 9358 c0bd 4574 b1bd fb6b b8bc
000003c0: 6962 20be 78c5 16be 375a dabd 63d9 d3bd
000003d0: e112 07bd 4f1f 64bd a4ec 2dbd afa4 02bd
000003e0: f955 c7bd 50e7 06bd 10ec e1bd a20f bebd
000003f0: 6c0b eebd 509b 23bd fe32 38bd 82e8 22be

conv4.0.bias f4 [120]
-0.08015984 0.049132865 -0.22248644 0.0705087 0.09142574 0.055346504 0.10647081 -0.20585829
-0.28546205 -0.14245398 -0.13031085 -0.040220506 -0.092396356 -0.12829289 -0.0018222858 -0.19841716
-0.06878672 -0.021072952 -0.15865001 -0.25346452 0.004989182 -0.3195898 -0.25345877 -0.22618355
0.14683305 -0.25900832 -0.02752051 -0.021997003 -0.111781284 -0.018655937 -0.14416836 -0.13584667
-0.012728021 -0.040558614 -0.18581997 -0.08099708 0.05436913 -0.14478073 -0.22052391 -0.19600901
0.026839554 0.054068547 -0.32223648 -0.104966834 0.02820624 -0.13897148 0.042314097 0.041861635
-0.07341153 -0.3184 -0.33002004 -0.06289547 -0.20525125 -0.07879207 -0.30520913 -0.06512532
-0.13744381 -0.21605131 0.03763827 -0.14648624 -0.14708243 -0.037166614 -0.07624947 -0.2754413
0.026857521 -0.019664686 -0.11177649 -0.073710665 -0.083103515 0.09336857 -0.11179749 -0.12345974
-0.22477403 -0.20894878 0.008949642 0.08005831 -0.07340312 -0.33254713 -0.18099289 0.009568266
-0.12721495 -0.044676255 0.043604627 -0.15707625 -0.29267958 -0.30865875 0.04437683 -0.08795894
-0.04890753 -0.13319363 -0.07116668 -0.23652387 -0.0832077 0.049246147 -0.10692479 -0.1894565
0.017161174 0.09443374 -0.09696254 0.16820456 -0.11619749 -0.053656794 -0.10425472 -0.0983793
0.043392926 0.0049993033 -0.30289072 -0.07201395 -0.04167518 0.082656875 -0.10348459 -0.020593151
-0.17130323 -0.0189584 -0.011310932 -0.05035508 -0.0155923 0.029349763 -0.024744252 -0.10663994
00000000: d82a a4bd 8b3f 493d 7cd3 63be de66 903d
00000010: 6b3d bb3d 04b3 623d 5e0d da3d 84cc 52be
00000020: 1528 92be 75df 11be 3570 05be 42be 24bd
00000030: 4d3a bdbd 365f 03be c4d9 eeba de2d 4bbe
00000040: 0de0 8cbd 2fa1 acbc 2675 22be 1ac6 81be
00000050: 4b7c a33b 46a1 a3be 59c5 81be a99c 67be
00000060: 675b 163e bd9c 84be b172 e1bc 0f33 b4bc
00000070: 96ed e4bd 56d4 98bc dfa0 13be 641b 0bbe
00000080: 3089 50bc ca20 26bd 9747 3ebe cce1 a5bd
00000090: 2ab2 5e3d 6641 14be 05d1 61be 96b6 48be
000000a0: a0de db3c fb76 5d3d 2efc a4be daf8 d6bd
000000b0: c610 e73c 8a4e 0ebe 8c51 2d3d 1b77 2b3d
000000c0: c958 96bd 5305 a3be 63f8 a8be 57cf 80bd
000000d0: 622d 52be bd5d a1bd 5f44 9cbe 6c60 85bd
000000e0: 12be 0cbe 8e3c 5dbe 962a 1a3d 7d00 16be
000000f0: c79c 16be 053c 18bd af28 9cbd a406 8dbe
00000100: 4e04 dc3c d617 a1bc 13eb e4bd 9ef5 96bd
00000110: 2d32 aabd 0538 bf3d 15f6 e4bd 76d8 fcbd
00000120: 2a2b 66be abf6 55be 85a1 123c 9cf5 a33d
00000130: 6054 96bd 9e43 aabe 3356 39be 37c4 1c3c
00000140: a344 02be 73fe 36bd c49a 323d 99d8 20be
00000150: 19da 95be 8508 9ebe 7bc4 353d d123 b4bd
00000160: 4353 48bd e963 08be d6bf 91bd 5033 72be
00000170: cc68 aabd 54b6 493d 62fb dabd e200 42be
00000180: 9795 8c3c 7a66 c13d 4c94 c6bd d13d 2c3e
00000190: f3f8 edbd 3ac7 5bbd 8083 d5bd 167b c9bd
000001a0: c8bc 313d 32d1 a33b 7e14 9bbe 0d7c 93bd
000001b0: 98b3 2abd 0248 a93d bbef d3bd f8b2 a8bc
000001c0: 1d6a 2fbe a54e 9bbc 7d51 39bc 2141 4ebd
000001d0: d976 7fbc ea6e f03c 75b4 cabc 0a66 dabd

conv4.2.weight f4 [120]
0.88780624 1.0464213 1.1304624 0.8950543 0.84413147 0.74046534 1.0351686 0.94847125
0.9633023 0.96596813 1.1028029 0.9989749 0.90090364 0.9485228 0.8936913 0.97932583
0.9484705 0.96598846 1.0122687 0.9516219 0.9624037 0.96146464 0.95217055 1.079538
1.0030427 0.95178676 0.82459337 1.0949725 0.99071264 0.96226704 0.9512947 0.978446
0.8682385 1.0652251 0.9307775 0.8795432 0.92437166 1.0116991 1.0184975 0.9683925
0.929962 0.84112734 1.016338 0.9650553 0.84444493 0.9239697 0.8823545 0.90611345
1.0147716 0.9864832 0.9591505 0.9164117 1.0321937 0.9289697 1.0196851 0.99646115
0.9020791 1.0005233 0.94833577 0.86300683 1.0027725 0.80460256 0.97815394 0.99105066
0.8713542 1.0359885 0.92085797 0.8464815 1.005804 0.9973731 0.93340766 0.961495
0.90577406 0.98588467 0.9509498 1.0322046 0.8624242 1.0144119 1.0160966 0.9662855
0.9919068 0.9707049 0.99226165 0.9762635 0.99056906 1.0106094 0.93608856 0.9292406
0.8887276 0.95678 1.0349827 0.94480675 0.92780775 0.97235686 0.9894056 0.9144851
0.91612136 1.0465951 0.9312152 1.0386083 0.870239 0.948253 0.87101156 0.9396593
0.9606859 0.91342956 1.0206094 0.88615793 0.8992291 1.0988603 0.82891464 0.94019526
0.9867243 0.8807128 0.9590239 0.92294645 0.9413422 0.9386223 0.93260336 0.85899144
00000000: 4547 633f 22f1 853f feb2 903f 4722 653f
00000010: 0019 583f 238f 3d3f 6880 843f 03cf 723f
00000020: fb9a 763f b049 773f a528 8d3f d2bc 7f3f
00000030: 9fa1 663f 64d2 723f f4c8 643f 19b5 7a3f
00000040: f6ce 723f 054b 773f 0592 813f 7e9d 733f
00000050: 1760 763f 8c22 763f 73c1 733f 4d2e 8a3f
00000060: b463 803f 4ca8 733f 8d18 533f 0f28 8c3f
00000070: 589f 7d3f 2257 763f 0d88 733f 707b 7a3f
00000080: e144 5e3f 4c59 883f 6f47 6e3f be29 613f
00000090: 9fa3 6c3f 5b7f 813f 205e 823f 92e8 773f
000000a0: fd11 6e3f 1f54 573f 5d17 823f dd0d 773f
000000b0: 8b2d 583f 4789 6c3f fce1 613f 0df7 673f
000000c0: 09e4 813f 2a8a 7c3f e38a 753f f599 6a3f
000000d0: ec1e 843f f5d0 6d3f 0b85 823f 1418 7f3f
000000e0: a8ee 663f 2611 803f 22c6 723f 04ee 5c3f
000000f0: d95a 803f 6ffa 4d3f 4c68 7a3f 7fb5 7d3f
00000100: 1211 5f3f 459b 843f 59bd 6b3f 03b3 583f
00000110: 2fbe 803f d853 7f3f cef3 6e3f 8924 763f
00000120: cfe0 673f f062 7c3f 7271 733f 481f 843f
00000130: d5c7 5c3f 40d8 813f 740f 823f 7d5e 773f
00000140: 9bed 7d3f 1e80 783f dc04 7e3f 68ec 793f
00000150: ef95 7d3f a65b 813f 80a3 6f3f b6e2 6d3f
00000160: a783 633f 89ef 743f 507a 843f dbde 713f
00000170: cf84 6d3f 61ec 783f af49 7d3f b21b 6a3f
00000180: ee86 6a3f d4f6 853f 1f64 6e3f 1ef1 843f
00000190: fcc7 5e3f b5c0 723f 9dfa 5e3f 838d 703f
000001a0: 83ef 753f 85d6 693f 54a3 823f 3fdb 623f
000001b0: e133 663f 74a7 8c3f c033 543f a3b0 703f
000001c0: f799 7c3f 6576 613f 9782 753f 3846 6c3f
000001d0: cdfb 703f 8d49 703f 18bf 6e3f dde6 5b3f

conv4.2.bias f4 [120]
-0.06488306 -0.024535496 -0.16612795 -0.08207617 0.015190358 -0.04276642 0.057853043 0.05982426
-0.055466868 -0.012756163 0.018323762 0.058718745 -0.0019964767 0.050478403 0.022450631 -0.09582325
0.08617552 -0.099115044 -0.0053404565 0.07124958 0.009183008 -0.099194854 -0.19916995 -0.15403813
-0.05549557 -0.062861085 0.032573503 -0.14633471 -0.1105472 -0.028241564 -0.09001071 -0.087549746
-0.020239988 -0.07770844 0.01583367 -0.0052632224 -0.054302927 0.019478587 -0.058672827 -0.1056148
-0.0062018787 0.009617662 0.11404967 0.038165588 -0.020987006 -0.035369616 0.026901692 -0.08625759
-0.0415186 -0.16509095 -0.13960657 -0.05062274 -0.07640983 -0.10307763 0.14859003 -0.07057348
-0.011656632 -0.11331336 0.07585251 -0.04389166 0.10904258 -0.09625654 -0.04011199 -0.08215364
0.10871715 0.057886593 0.017313812 -0.017842136 -0.007503925 0.036366068 -0.091597125 0.0546482
-0.07049852 -0.06624168 0.10425611 0.076285675 0.011259414 -0.10399637 0.05595181 0.07363152
-0.16383763 0.045621734 -0.042913273 -0.05117073 -0.042528767 -0.086882085 0.11196369 -0.005437589
-0.04435874 0.023408398 0.0011516765 -0.052406676 -0.061584413 -0.109093286 -0.08587857 -0.14577103
-0.02550647 0.03954412 -0.16576193 0.040735282 0.0025651339 -0.08135239 -0.037105214 -0.0028532392
-0.078828536 0.07251351 0.07963078 -0.026454536 -0.04280699 -0.1307097 -0.046557076 -0.039181534
-0.009767247 0.024445938 -0.09356478 0.12914187 -0.0044619436 -0.0811632 -0.06304959 -0.07378158
00000000: 69e1 84bd aafe c8bc 721d 2abe 8d17 a8bd
00000010: fbe0 783c d72b 2fbd 50f7 6c3d 490a 753d
00000020: 3a31 63bd 3aff 50bc b71b 963c 1183 703d
00000030: 52d7 02bb 71c2 4e3d 63ea b73c fb3e c4bd
00000040: cb7c b03d d4fc cabd fffe aebb 4deb 913d
00000050: 5474 163c ac26 cbbd 35f3 4bbe 2cbc 1dbe
00000060: 534f 63bd 50bd 80bd cb6b 053d c4d8 15be
00000070: 9266 e2bd da5a e7bc 8957 b8bd 484d b3bd
00000080: 55ce a5bc 9a25 9fbd 9db5 813c 1c77 acbb
00000090: bf6c 5ebd 8f91 9f3c eb52 70bd 924c d8bd
000000a0: 2139 cbbb 6693 1d3c e092 e93d 8553 1c3d
000000b0: f1ec abbc bbdf 10bd f060 dc3c d2a7 b0bd
000000c0: 680f 2abd 9a0d 29be 06f5 0ebe ca59 4fbd
000000d0: c27c 9cbd 5d1a d3bd fc27 183e d488 90bd
000000e0: 75fb 3ebc d610 e8bd 9058 9b3d bec7 33bd
000000f0: b751 df3d 2622 c5bd 784c 24bd 2b40 a8bd
00000100: 19a7 de3d 7e1a 6d3d b2d5 8d3c ac29 92bc
00000110: 7ce3 f5bb 96f4 143d 4697 bbbd cad6 5f3d
00000120: 8761 90bd b8a9 87bd 3a84 d53d aa3b 9c3d
00000130: 6879 383c 0dfc d4bd ba2d 653d 1fcc 963d
00000140: 0dc5 27be dbdd 3a3d d4c5 2fbd 6698 51bd
00000150: a532 2ebd 3cef b1bd 384d e53d cd2d b2bb
00000160: 83b1 35bd f8c2 bf3c daf3 963a 62a8 56bd
00000170: f03f 7cbd 4d6c dfbd 1be1 afbd 0045 15be
00000180: f2f2 d0bc 04f9 213d 7fbd 29be 0ada 263d
00000190: ce1b 283b 159c a6bd a3fb 17bd 69fd 3abb
000001a0: db70 a1bd f781 943d 7615 a33d 2fb7 d8bc
000001b0: 6256 2fbd c3d8 05be a2b2 3ebd d17c 20bd
000001c0: ce06 20bc d942 c83c e49e bfbd c43d 043e
000001d0: 7f35 92bb e438 a6bd 2520 81bd cc1a 97bd
